ckpt_save_dir/seq2seq_traj_7.pth (torch, 2184 bytes, 4 tensors)

encoder.0.weight f4 [2, 3]
0.018081473 -0.060234528 0.13220139 0.00055151066 -0.25978416 -1.0179894
00000000: 991f 943c 7bb8 76bd cd5f 073e 4193 103a
00000010: 6e02 85be 7a4d 82bf

encoder.0.bias f4 [2]
-0.53490764 0.56049705
00000000: b5ef 08bf bc7c 0f3f

decoder.0.weight f4 [3, 2]
-0.1763521 0.035319142 0.19170536 0.48064324 0.6034973 0.5734757
00000000: a595 34be ceaa 103d 694e 443e df16 f63e
00000010: cd7e 1a3f 4ecf 123f

decoder.0.bias f4 [3]
-0.52388346 -0.11329039 -0.4184217
00000000: 3a1d 06bf cb04 e8bd 5e3b d6be
