ckpt_save_dir/seq2seq_traj_7.pth (torch, 71330 bytes, 12 tensors)

encoder.token_embeddings.weight f4 [60, 16]
000000 d0 d0 a3 bf a2 c5 99 bf c9 44 77 be c2 2d d6 be
       -1.27981 -1.2013438 -0.24147333 -0.41831785
000010 62 0f 75 3f 79 43 3d 3f 27 24 ce be 93 86 0d c0
       0.957266 0.7393108 -0.40261957 -2.2113388
000020 30 d2 9f 3e 2f 7d b1 bf 52 54 d4 3e 0e 0e 91 3e
       0.31215048 -1.3866328 0.4147058 0.28331035
000030 ed f6 df 3d 6e 7f a3 3f 11 d6 90 3f cb b1 6a be
       0.10935769 1.2773263 1.1315328 -0.22919385
000040 c2 23 ad bf 46 14 d9 bf 04 10 11 3f 5d 23 4b 3f
       -1.3526537 -1.6959312 0.5666506 0.79350835
000050 8b 4d 19 3f 5b 0d c7 bf ca c6 ae be 4e 2f ed 3f
       0.59883946 -1.5550951 -0.3413604 1.8530061
000060 6b 0c 40 3f 2b e3 15 bf eb 8e 31 be a4 e1 3b 3e
       0.7501895 -0.58549756 -0.17339675 0.18347794
000070 c0 d6 b1 3f 00 0d cb 3f 9c 40 72 3f 33 fb 57 bf
       1.3893661 1.5863342 0.94629836 -0.84367675
000080 04 66 1b bf f7 40 24 3d 46 52 fc be 9a c9 81 3e
       -0.6070254 0.040101018 -0.4928152 0.25349122
000090 fa d0 dd 3e 9b df d9 3d 1d 91 23 3f 8b ae e9 3e
       0.433235 0.106383525 0.638933 0.45640978
0000a0 91 24 d7 bd 99 b5 4d 3f 14 11 9a be 7b 16 2a 3d
       -0.10505021 0.8035522 -0.30091155 0.041525345
0000b0 1f 1a 05 3f 36 bc 12 40 f6 1f bd bf dd 2b cb bf
       0.5199298 2.2927375 -1.4775379 -1.5872761
0000c0 9b 4f 2c bf e5 71 5f 3f f4 15 87 3f bb 1c 36 3e
       -0.6730897 0.87283164 1.0553575 0.17784397
0000d0 23 dd 6b be 01 94 c8 be 66 15 0b 3f 09 52 ca be
       -0.23033576 -0.39175418 0.54329526 -0.39515713
0000e0 99 76 e4 be 2d 78 3e 3f 6c af c2 3f aa 45 5a 40
       -0.44621733 0.74402124 1.5209785 3.410502
0000f0 db fd c3 bf 24 f8 9d bf c4 ec e8 3f 04 31 0d bf
       -1.5311846 -1.2341352 1.8197255 -0.55152917
000100 00 ba 11 bf 4a 83 6b 3f 43 2f 8e 3f bd 1a a5 3f
       -0.5692444 0.91997206 1.1108173 1.2898785
000110 f0 34 bd bf 8a 4d 24 40 ab 3c f2 be fe cd ab 3e
       -1.478178 2.5672326 -0.4731191 0.33555597
000120 d6 8d d0 bf f7 bb 0c bf d7 ad f5 be d9 d6 ff be
       -1.6293285 -0.5497431 -0.47984192 -0.49968603
000130 e8 92 88 bf 52 b6 8e 3f 9a 0d 10 be a6 45 4e 3f
       -1.0669832 1.114939 -0.14067689 0.80575025
000140 45 ef be bd 56 ea 2f 3f 5c 9c 56 bf 12 bc 78 3a
       -0.09322981 0.68716943 -0.83832335 0.0009488474
000150 c7 80 57 3f d1 d2 cc be 3a 0c 85 3f 90 75 b7 3e
       0.84180874 -0.4000459 1.0394356 0.3583188
000160 ac fb 7b be cf 5d 13 40 06 e1 f0 bf 8d 78 4c bd
       -0.24607724 2.3026006 -1.8818672 -0.049919654
000170 57 c3 85 bf 05 e4 74 bf aa 03 09 3d 5a c5 35 3f
       -1.0450238 -0.9566043 0.03345076 0.7100426
000180 b4 b9 d2 3f ea 14 ae bf f4 8a b0 3e 5a 2b 05 3f
       1.6462922 -1.3600132 0.34481013 0.52019274
000190 7f 44 27 c0 a4 21 d9 bf fc b6 69 be 11 a4 8f 3e
       -2.6135557 -1.6963391 -0.22823709 0.2805486
0001a0 42 90 7c 3e e5 04 9e 3d 2c b8 ac 3e 8b 70 e8 3e
       0.24664405 0.07715777 0.33734262 0.45398363
0001b0 7c dd e9 3e 25 9a 5d bf 76 f1 47 3f b3 57 6d bf
       0.45676792 -0.8656333 0.78102815 -0.92711943
0001c0 70 0e 5f be e5 cc 1b c0 b4 55 95 bd 84 6c 08 bd
       -0.21782851 -2.4343808 -0.07291737 -0.033306614
0001d0 ca 33 76 3f 61 c2 b2 3e 02 db 6b bf 68 a9 5f bd
       0.96172774 0.34913924 -0.92131054 -0.054604918
0001e0 c9 98 1f bf d5 c6 ec be 10 e1 f5 3f 6b 75 ce be
       -0.62342507 -0.46245447 1.9209309 -0.40323958
0001f0 0d 87 fd 3d aa f7 94 3f 1a 40 6c 3f 90 80 b1 3f
       0.123792745 1.1638081 0.9228531 1.3867359
000200 17 78 61 bf 69 5d d5 be a6 e7 4d bf 63 3e 11 3f
       -0.8807387 -0.4167283 -0.8043159 0.5673582
000210 de b0 1b 3f 1b 6b ee 3e 96 b5 f9 3f ca 6d 87 bf
       0.6081675 0.4656609 1.9508541 -1.058038
000220 35 cb a0 bd be ff f4 3d 5f e3 18 bf fa 87 9f bf
       -0.07851259 0.119628415 -0.5972194 -1.2463372
000230 f3 03 d2 bd ca b8 84 bf 45 82 a1 be 94 df 7a 3e
       -0.102546595 -1.0368893 -0.315447 0.24499351
000240 d8 33 82 be ca 88 fa 3d 4c ad 7b 3e db 85 95 3f
       -0.2543018 0.12233122 0.24577826 1.1681474
000250 3c 46 92 3e 19 b4 c4 3e 82 d7 4e be 14 8f df bd
       0.2856921 0.38418654 -0.20199397 -0.10915962
000260 a5 5a 43 3e 3d 00 44 bf c2 37 f4 bf aa 81 00 3e
       0.19077547 -0.76562864 -1.9079516 0.12549463
000270 8d e3 34 bf eb 31 9d 3e a0 40 1a 3e 05 02 c5 3e
       -0.70659715 0.30702147 0.15063715 0.38478103
000280 e4 96 77 3f 91 b7 7d bf 07 6c 9a 3e f7 c8 db bd
       0.96714616 -0.99108225 0.30160543 -0.107316904
000290 d6 9a 7f 3f 8b 57 ff be 2a d8 42 3f 02 49 1e 3f
       0.99845636 -0.49871477 0.7611109 0.6183015
0002a0 f0 ca a0 3e 03 74 5a 3e 47 dd f5 bd 25 8e b8 3e
       0.3140483 0.21333317 -0.12005096 0.36045948
0002b0 3b c9 a0 be 1d 13 8a bf 03 97 76 3e 95 b7 b2 bf
       -0.31403527 -1.0787083 0.24081044 -1.3962275
0002c0 88 76 87 bd 51 7a b7 be 41 e1 c7 bf ce 93 b5 be
       -0.06614405 -0.35835508 -1.5615617 -0.3546433
0002d0 96 60 8a 3f 2f a2 06 3e b4 69 c9 3f cb 0b 48 3f
       1.0810726 0.13147806 1.5735383 0.78142995
0002e0 77 11 8a bf 8c 8d 38 bf ef 42 bc 3f 08 20 8d 3e
       -1.078658 -0.72090983 1.4707927 0.275635
0002f0 2a b2 2a 3f 52 90 7e bf 14 3d 98 bf df 14 99 bf
       0.66678107 -0.99438965 -1.189364 -1.1959494
000300 69 40 0f bf 52 95 08 3f d0 53 d0 3e 4d 0c ca 3e
       -0.5595766 0.53352845 0.40688944 0.3946251
000310 02 96 2f 3e e8 43 60 3f 7d fc 92 be d7 c7 82 3f
       0.17147067 0.87603617 -0.28708258 1.0217236
000320 9c 74 98 bd 73 cc 8b bf 22 b0 c8 3e 9b 2e 18 3f
       -0.074441165 -1.0921768 0.3919688 0.59446114
000330 fc 89 29 3f a9 69 9a bf 79 7f 1b 3f b4 15 0c bf
       0.6622617 -1.2063495 0.6074138 -0.54720616
000340 3e e6 95 3f 0e ac c7 3d b7 9f 76 3f 6c 1f 57 3f
       1.1710889 0.09749614 0.96337456 0.8403232
000350 c2 77 a0 bf 4a a1 7c 3f 6d 43 fd be c1 3a a4 bf
       -1.2536547 0.9868361 -0.49465504 -1.283043
000360 6b 89 74 3f 46 4c a4 3f e0 75 2a bf 9a ac 10 3f
       0.95522183 1.2835777 -0.6658611 0.5651337
000370 dc 4d 93 3e ff b3 08 bd f6 eb 87 bf 45 58 ea bd
       0.2877034 -0.033374783 -1.0618885 -0.11442617
000380 bf d0 af be 55 21 c9 3f df 1a 44 3e 19 84 c2 3e
       -0.34338948 1.5713297 0.19150876 0.37991408
000390 32 49 14 be db 35 23 3f 48 0d 90 be b4 39 aa bf
       -0.14481047 0.6375405 -0.28135133 -1.329886
0003a0 8b 5f 11 be 62 be 08 bf 8d f7 05 bf f2 85 5c 3f
       -0.14196603 -0.534155 -0.5233086 0.86141884
0003b0 3c 10 63 bf 9a b9 56 3f 40 90 93 3f 1c 68 e1 bf
       -0.88696647 0.83876956 1.1528397 -1.7609897
0003c0 f9 29 bd bf 2f bc e0 bf 91 fc 9b 3d 1a 11 8a bf
       -1.4778434 -1.7557429 0.076165326 -1.0786469
0003d0 55 5e b8 3f b0 7b e2 bd ff aa 13 3f 98 59 2d be
       1.4403788 -0.11058748 0.57682794 -0.16928709
0003e0 92 fc 82 bd 34 e7 84 3f 3c 2b 68 3f 27 75 f3 be
       -0.0639583 1.0383058 0.9069097 -0.47550318
0003f0 10 e9 5e bf cd 42 14 3e 4f 90 f3 3f 2c eb c7 3e
       -0.87074375 0.14478607 1.9028414 0.3904661

encoder.lstm.weight_ih_l0 f4 [128, 16]
000000 01 a2 e4 bd 6e 81 62 3d e9 ad 27 3e 94 21 2b be
       -0.11163712 0.055299215 0.16374935 -0.16712028
000010 95 d6 41 be a2 df 32 3c ff 09 0f 3e 3e 19 9b bd
       -0.18929513 0.010917576 0.13968657 -0.07573174
000020 59 cc 0e 3d 4b e9 12 3e a4 2d 4a 3d 40 3d 0a 3d
       0.03486285 0.14346807 0.049359933 0.03374982
000030 b2 fc 33 3e 49 c9 c4 3d c2 e3 ef bd 34 b4 97 3c
       0.17576864 0.096087046 -0.11713363 0.018518545
000040 36 92 b3 3d 47 41 1d 3e b4 4c 34 be dd 11 c1 3d
       0.08768122 0.15356933 -0.17607385 0.09427235
000050 b4 cd 45 bd e6 d7 2e be e9 ba 19 3d 1b a6 d2 bd
       -0.048291877 -0.17074546 0.037531767 -0.10285588
000060 89 2e d1 3c d8 76 f2 bd 60 41 08 be 43 d0 69 bc
       0.025534885 -0.11839074 -0.13306189 -0.014270845
000070 ac 08 73 bd 85 33 db 3d 4e 56 a5 3c 4c 88 0c 3e
       -0.059334442 0.10703186 0.020182755 0.13723868
000080 98 d9 1c bd 50 2c f7 bd 96 25 da 3d a0 6c 72 bc
       -0.03829345 -0.12068999 0.106517 -0.014796406
000090 12 79 af 3d 80 af ac bc e3 69 a7 bc 24 ce 1f be
       0.08568014 -0.021079779 -0.020436233 -0.1560598
0000a0 61 f3 a6 3b 5f fe 59 be e5 39 92 3c 10 5b 05 be
       0.005094931 -0.21288441 0.017849872 -0.13023019
0000b0 a6 c6 09 bd cb a0 2b 3e 8f fe 55 bd 69 8d 04 be
       -0.03363671 0.16760556 -0.05224472 -0.12944569
0000c0 45 e2 b8 bd e1 18 b8 bd 6b 7e b9 3c b5 04 0a 3c
       -0.090275325 -0.0898912 0.022643289 0.008423974
0000d0 c2 f3 fd 3d 59 e9 c9 bd 9d fc 03 bd cd 73 46 3c
       0.12400009 -0.09858961 -0.032223333 0.01211257
0000e0 6a c8 2d 3e 15 83 8d bd d7 7e ae bd 61 25 81 3d
       0.16970983 -0.069097675 -0.085202865 0.063059576
0000f0 9d fb d1 3d 8c 7f 9f bd 2b 8a 3a bd 1d b5 a0 3d
       0.102530695 -0.077879995 -0.045541923 0.078470446
000100 39 58 5b bc fc 4d 2c be bb cc d1 bd 09 02 91 3d
       -0.013387733 -0.16826624 -0.10244127 0.07080466
000110 2c c2 6c bd 68 db fb 3d 2c d0 0d 3e 82 ce b5 3c
       -0.057802364 0.12297708 0.13848943 0.022193197
000120 d1 0c 56 bc f9 57 71 bd 3b ce fa bb 7e d2 02 3d
       -0.013064579 -0.058921788 -0.007653979 0.031939022
000130 21 b6 09 be 3b e8 2f bd c9 1e 12 be 8d b8 e0 3d
       -0.13448383 -0.04294608 -0.14269556 0.109727
000140 61 6a c5 bd 49 86 35 3e 30 9b 30 bd 78 cd c2 bd
       -0.09639431 0.17727007 -0.04311675 -0.09511846
000150 de 95 95 3d 35 4b 89 3c 9b e9 01 3e 7e b7 d0 3d
       0.073039755 0.016759494 0.1268677 0.10191248
000160 aa e2 32 be 65 b5 04 3e cf 45 1b bd c2 54 aa bd
       -0.17469278 0.12959822 -0.03790837 -0.083169475
000170 b8 d4 e2 3d f6 81 e2 3d a9 6c 2e be e2 84 55 bc
       0.11075729 0.11059944 -0.17033638 -0.01303217
000180 a9 be 42 3e 8d f8 e8 3d 9c 5f 21 3e ac 79 34 bd
       0.19018044 0.11375532 0.15759128 -0.044061348
000190 9e 87 07 be a6 a2 ff 3d 4f 89 b3 3d 85 f9 80 3e
       -0.13235328 0.124821946 0.08766424 0.25190368
0001a0 23 f7 ae bd 18 ec 81 bd 52 10 10 bd ac e9 35 be
       -0.08543231 -0.063438594 -0.035171814 -0.1776492
0001b0 72 2c 87 3d 95 6c a5 3d 8a 85 65 39 9d cf f5 bb
       0.06600274 0.08077351 0.00021888889 -0.007501556
0001c0 52 dc e6 3d 77 e8 b6 bd 31 85 36 3e 59 a5 2a be
       0.112724915 -0.08931058 0.17824246 -0.16664638
0001d0 c0 40 42 be f5 c7 65 bd 73 9a 1c 3e d1 1f 70 3d
       -0.18970013 -0.056098897 0.15293293 0.058624092
0001e0 a1 84 7b 3d fb 79 cd bd 33 22 64 3d da 2d cd bc
       0.06140578 -0.100330316 0.055696677 -0.025046278
0001f0 67 d4 8f 3d 8e ec d4 3d 7b 71 56 3d 53 5e 5a bc
       0.070229344 0.10396682 0.052354317 -0.013328153
000200 95 f9 ba bd 77 bc 40 be a2 e9 a3 bd 3c 4f b3 3d
       -0.09129635 -0.18821894 -0.08003546 0.08755347
000210 d8 39 0f bc 09 21 1e 3e e8 df bb bd 1c 9f 3c be
       -0.008741818 0.1544229 -0.09173566 -0.1842007
000220 7f 05 d8 3c 42 fc 7f be 96 42 a5 3c 72 1c 2b 3a
       0.026369808 -0.24998572 0.020173352 0.0006527371
000230 92 f4 20 bc b5 f6 36 3d f1 81 5f 3e 82 b9 ee 3d
       -0.009823935 0.044668872 0.21826912 0.116564766
000240 69 f4 2c be d5 5a 08 3d e5 7d 18 be a6 b0 2b be
       -0.1689011 0.03328975 -0.14891775 -0.16766605
000250 d7 33 bd 3d c6 6a 03 3d d6 74 c5 bd 3d 5a 84 be
       0.09238403 0.03208425 -0.09641425 -0.25850096
000260 48 b9 61 bd c7 61 95 3b 0c 77 17 be 0f 01 24 be
       -0.05510834 0.004558775 -0.14791507 -0.16016029
000270 f5 7e d6 3c 49 1a 9b bd 5e 08 df bd 27 93 9e bd
       0.026183585 -0.07573373 -0.10890268 -0.07742911
000280 94 2e 59 bd 4e e7 3c be 28 df fb bd 0b 53 35 3b
       -0.053022936 -0.1844761 -0.12298423 0.0027667906
000290 ee 39 18 be 50 93 3b bc f2 8c f7 bd 2d 9b 29 be
       -0.14865848 -0.011448696 -0.1208743 -0.16563101
0002a0 09 20 9d 3d 4a 85 26 be 6e 70 00 be c1 6e da 3d
       0.07672126 -0.16261783 -0.12542889 0.10665656
0002b0 ba 74 10 3d 5a 16 3d 3e a6 d5 c6 bc 1e 1b b7 bd
       0.03526757 0.18465558 -0.024271797 -0.08940719
0002c0 8b c0 75 bd ff da 2d bd a8 e6 00 3e fc 93 43 be
       -0.059998076 -0.04244518 0.12587988 -0.1909942
0002d0 d7 0e ba 3c 9e 9e d5 3d 9e f0 df bd d0 e7 2c be
       0.022712154 0.104306445 -0.10934566 -0.16885304
0002e0 b6 b4 c7 3d 39 af 5e be 44 e8 64 3d 16 ed 01 be
       0.09751265 -0.2174653 0.05588557 -0.12688097
0002f0 72 61 bb 3d af b9 d6 bd 9e a4 19 3e 27 ad 33 be
       0.091494456 -0.10484635 0.15004203 -0.17546521
000300 eb 5e 26 be 08 0c 2c bc 18 f4 0b 3e a7 ee 1f be
       -0.16247146 -0.010500915 0.13667333 -0.15618382
000310 b1 35 8c bd 24 55 27 3e 19 a9 0a bd a6 1c 4b 3d
       -0.06846178 0.16341072 -0.03385267 0.04958787
000320 2b cb 2a be 01 2e 91 bd db 87 ae bd 98 21 1c 3e
       -0.16679065 -0.07088853 -0.08522006 0.1524719
000330 b8 ea 98 3d 7e a3 eb bd 33 4d 29 3d 88 a2 92 bb
       0.07466644 -0.11505793 0.04133339 -0.0044749416
000340 e0 89 b5 bd 4b d2 f2 bd 81 52 7f bd b7 3b 08 3e
       -0.08864188 -0.118565165 -0.06233454 0.1330403
000350 b3 f5 eb bd 0c 98 ee bd 32 19 71 bd 79 3f d3 bc
       -0.11521473 -0.116500944 -0.05886192 -0.025787102
000360 c1 a6 5b 3d 40 d4 42 bc 97 23 14 bd d1 24 d1 bd
       0.053625826 -0.011891425 -0.036166754 -0.102121
000370 20 b9 f7 bc 1b d9 56 bd 55 18 20 3e 7e 24 34 be
       -0.030239642 -0.05245314 0.15634282 -0.17592046
000380 aa 44 11 be a0 94 2e be a0 46 22 bd d0 5b 03 3e
       -0.1418635 -0.17048883 -0.039618134 0.12827992
000390 2a 5f 35 3e 57 e9 0e be f9 d0 65 bc 92 6b 66 3d
       0.17712083 -0.139562 -0.014026874 0.05625493
0003a0 cb 1c b3 3d e3 5c ea 3d 8c 2d 94 3b 80 60 e7 bd
       0.08745726 0.11443498 0.004522031 -0.11297703
0003b0 4d 23 f5 3d 3b 32 11 bd 40 32 f0 3d d9 f7 41 bd
       0.11969624 -0.035448294 0.117283344 -0.047355507
0003c0 f0 75 a7 3d 49 6e 2a 3e 9e c6 27 3e 2f f9 22 be
       0.08176792 0.16643633 0.1638436 -0.15915368
0003d0 76 84 fe bd 16 3b a1 bd 06 f5 df bd 83 4e 3d 3e
       -0.12427609 -0.07872598 -0.109354064 0.18486981
0003e0 e6 26 83 bc 9a 44 dd bd de 57 a2 bd 78 5a c9 bd
       -0.01600976 -0.108041 -0.079269156 -0.09831709
0003f0 78 94 93 3d b2 94 27 be 59 15 32 be b1 bc 30 be
       0.072060525 -0.16365317 -0.17390956 -0.1725948

encoder.lstm.weight_hh_l0 f4 [128, 32]
000000 84 5e 2b 3e 63 9d 20 bd 71 7f d1 3d bd 23 9d bc
       0.16735274 -0.039212596 0.10229386 -0.01918208
000010 8a 12 98 bd b1 ab db 3d 02 51 21 be b9 26 20 3e
       -0.07425411 0.10726107 -0.15753558 0.15639772
000020 c1 d3 3d 3e e9 23 43 bd a6 c9 97 3d 6c 36 38 3e
       0.18537809 -0.04764167 0.07411508 0.1798951
000030 86 57 5a 3d da e0 85 3d 3a 48 94 3d 69 8a 9f bd
       0.053306125 0.06537028 0.072403386 -0.077900715
000040 b9 54 17 3d 51 92 be bd a7 84 23 3e 8c ce aa bd
       0.036946032 -0.093052514 0.15968572 -0.08340177
000050 8f a7 0c 3d be 90 41 bd ec db bf 3d ff b9 0c 3c
       0.034339484 -0.047257178 0.09368119 0.008589267
000060 a8 a1 c7 3d 8b 55 3f bd 15 f5 c6 bd 0d 69 98 3d
       0.0974763 -0.04671244 -0.097147144 0.07441912
000070 8b 1b dc bd 4c 88 17 be 56 31 99 3d f0 58 c6 bd
       -0.10747441 -0.14798087 0.07480113 -0.09684932
000080 9c 87 85 bd 19 96 37 bd 46 98 68 3c 78 53 6c bd
       -0.06520006 -0.04482088 0.014196461 -0.05769679
000090 81 c4 7c bd a6 49 2a bd a9 72 fb 3d 61 27 56 3d
       -0.06171084 -0.041574143 0.12277729 0.05228365
0000a0 0e 2a b2 bd 42 b6 fd bd ca c2 3e 3b 4b 8b 63 3d
       -0.086994275 -0.123882785 0.0029107803 0.055552762
0000b0 77 7e 9a bb 3a 52 d4 3d dd ee 14 3e f1 38 63 3d
       -0.004714783 0.10367246 0.14544244 0.055474225
0000c0 c8 2e 6b 3d 0c 71 d0 3d cc e5 81 bd c6 1f 0c 3d
       0.05741766 0.10177812 -0.063426584 0.03420999
0000d0 7e ef 12 3e 95 97 ae bd 45 3a 54 3c cd 2e 8f bd
       0.14349172 -0.08525006 0.012953346 -0.069913484
0000e0 89 b9 0a be 4b c6 bb 3d f8 43 0d 3e fd d0 c7 bd
       -0.13547339 0.09168681 0.1379546 -0.09756658
0000f0 3b 92 8c 3d de da 6c 3d 67 90 85 3d 0b 71 bd 3d
       0.06863829 0.057825916 0.06521683 0.09250077
000100 f7 43 33 3e 3d 86 ed 3d fc 15 06 be cb a4 13 bd
       0.17506395 0.115978695 -0.13094324 -0.03604583
000110 16 6b eb 3d 13 0b d4 bd 2d 3c f4 3c c1 00 df bd
       0.114950344 -0.10353675 0.02981385 -0.10888816
000120 5d b1 81 3b 65 84 aa 3d 37 34 20 3d b9 60 e7 3d
       0.003957911 0.083260335 0.039112296 0.11297745
000130 7f 3d 86 bc b0 5d e1 3d 50 20 e5 3c 38 bc d3 bc
       -0.016386745 0.110041976 0.02796951 -0.025846586
000140 b7 e9 d7 bd be 9c 1e 3e d1 33 ac bd 4e 6b 29 3e
       -0.105426244 0.1548948 -0.08408321 0.1654484
000150 cc 59 02 3e 6b 74 ad bc 7b 5c 2b be eb 75 bd bb
       0.12729567 -0.021173676 -0.16734497 -0.005781879
000160 8a dd aa bd 54 e3 0b 3d 78 24 c7 bd 00 bb dd 3d
       -0.083430365 0.034152344 -0.09723753 0.10826683
000170 59 e9 06 be 61 40 16 bd af c7 1f 3b f4 b4 a7 bc
       -0.13174953 -0.03668249 0.0024380495 -0.020472027
000180 19 18 1d 3e 42 a3 9c bd 72 c8 f2 bd 0e 66 1a 3e
       0.15341224 -0.076483265 -0.11854638 0.15077993
000190 7b ab 6c 3d 58 36 04 3e 7c 78 d3 bd 9e 5e 03 be
       0.057780724 0.12911355 -0.10325715 -0.12829062
0001a0 9e 4f c0 bd 51 46 57 3c 19 84 49 3d f4 08 dd bd
       -0.09390186 0.013139323 0.049198244 -0.10792723
0001b0 9a 8c 6e bc c6 c0 a8 bc 55 4e 08 3e 0a 81 b2 bc
       -0.014559889 -0.020599734 0.13311131 -0.021790046
0001c0 92 e8 2c 3e 83 4f ed bd 18 9a cd bd 1e 21 cd bd
       0.16885594 -0.11587431 -0.10039157 -0.10016082
0001d0 48 75 0a 3e eb a6 02 be a7 b9 75 3d b0 40 a7 bd
       0.13521302 -0.12758987 0.059991505 -0.08166635
0001e0 a3 9b 2f 3e 7f 58 e1 3a 27 5a 41 be be 7e 99 3b
       0.17149214 0.0017192512 -0.18882047 0.0046842983
0001f0 ea c6 34 3d 63 8d 20 be 23 da ee 3b c8 75 f3 3d
       0.04413501 -0.15678935 0.0072891875 0.11887699
000200 53 99 55 3d 0e 13 39 bb 6f d4 15 bd 02 5e 46 3d
       0.052148174 -0.0028240117 -0.036579546 0.048429497
000210 03 8b a4 bd 6d fb 2f 3e df 2d 1f 3e 07 d0 a1 3d
       -0.08034327 0.17185755 0.15544842 0.07901006
000220 9e 9d 85 bd a6 c0 24 be 0f d2 d1 bd 70 df 30 3e
       -0.06524204 -0.16089115 -0.102451436 0.17272735
000230 ca 3b 25 be 04 d6 2d be 5a 6a 75 bc 69 3d 7a 3d
       -0.16136089 -0.16976172 -0.0149789695 0.06109372
000240 dc c7 34 be d2 cf 28 be e2 0e 0f 39 50 bd 67 bd
       -0.17654365 -0.16485527 0.00013643087 -0.056577027
000250 b7 77 f3 3d df 47 4c 3d 76 4c 1e be d7 c0 23 be
       0.11888068 0.04987323 -0.15458855 -0.15991531
000260 cd 08 f4 3d fb 80 0d bd 08 c2 a4 bd b5 f6 5f 3d
       0.11915741 -0.034546833 -0.08044821 0.054678638
000270 3c 96 08 bd 59 d6 ad 3d 29 8a 2f 3d 7f a7 a3 bd
       -0.0333464 0.08488149 0.04285637 -0.07990932
000280 20 73 14 be 27 3a c0 3d 93 87 e2 bd 31 58 a8 bc
       -0.14497042 0.09386092 -0.11061015 -0.020549865
000290 8b 11 ac 3c f2 33 c9 bd 6a c9 d1 3d c2 1a ed bd
       0.021004459 -0.09824361 0.10243495 -0.11577369
0002a0 11 bd 47 3d 22 31 a2 3c 06 fb 8a 3d 3a 13 2d be
       0.048764292 0.019798819 0.0678616 -0.16901866
0002b0 89 84 3c 3c 56 8c ae 3d c1 ed ec bd fe 7d 42 3d
       0.011506208 0.08522861 -0.115687855 0.047483437
0002c0 64 db 82 bc c8 93 18 3e 25 a9 0a bd 30 b3 d5 3a
       -0.015973754 0.14900124 -0.033852715 0.0016304012
0002d0 01 92 96 bd 0c 9c 1f bd f1 d2 61 3d d7 54 2e be
       -0.07352067 -0.038967177 0.05513281 -0.17024551
0002e0 3e 4b 04 3e 7e 8d f8 3d a5 0e 8d 3d 52 64 0a 3e
       0.12919328 0.121363625 0.06887559 0.13514832
0002f0 83 f7 5f bd b2 12 17 3d d0 fb 2c 3c 87 bb fc bd
       -0.054679405 0.036883064 0.010558084 -0.123404555
000300 fa b4 95 bd 97 1d 51 bd 4c c2 69 bd ff 92 38 be
       -0.07309909 -0.05105361 -0.05707006 -0.18024825
000310 de ac 0d be e8 09 48 bc bf 1e 99 bc fb 6d 10 be
       -0.13835475 -0.012209393 -0.018691419 -0.14104454
000320 14 9c 7a 3d 0a ce e9 3d 8e 97 22 3e 3b 27 29 3e
       0.061184004 0.11416252 0.15878126 0.16518871
000330 6c 95 ed bd 49 53 86 bd 5b 8d 70 bd d4 ee 79 3c
       -0.116007656 -0.06558854 -0.058728557 0.015254695
000340 dc 49 1b 3d 39 a2 33 3d 9e 81 00 3e df 76 97 3d
       0.037912235 0.04385588 0.12549445 0.0739572
000350 f0 08 e4 bd 22 7b 03 3e ca fe 07 3e 95 2f 08 3d
       -0.11134517 0.1283994 0.13280788 0.033248503
000360 14 c1 1d be 2f 98 cb bd 8f d9 8a 3d 72 55 9a 3d
       -0.15405685 -0.09941136 0.06779777 0.07535829
000370 05 98 17 3e d4 eb 92 3d 45 1f a9 3d 79 75 a6 3c
       0.14804085 0.07173887 0.08257917 0.020319687
000380 dd cd f5 3d 6b aa 8b bd 47 8a 86 3d a4 80 b9 bd
       0.12002156 -0.06819614 0.06569343 -0.090577394
000390 a1 0e 23 bc 5b 6c ca 3d c0 22 b2 3d ef 6f fd bc
       -0.009952218 0.098839484 0.08698034 -0.030937163
0003a0 23 43 3f 3c a2 7b b1 bd ab 2a aa 3d 24 89 04 3e
       0.0116737215 -0.08666159 0.083089195 0.1294294
0003b0 f4 83 97 3d c4 70 32 be 60 1f 00 be fc 49 02 3e
       0.07398215 -0.17425829 -0.12511969 0.12723535
0003c0 38 f9 1d bd 39 f1 da 3d 12 56 0d 3e 08 6a 58 bd
       -0.03856775 0.10690541 0.13802364 -0.052835494
0003d0 ee 63 ec bd ce 46 29 be b8 0d 93 3d d6 30 c2 3d
       -0.115424976 -0.16530916 0.07180351 0.09481971
0003e0 8f b8 0c bd f1 fc 38 be 31 93 ef bd 8c 36 06 bc
       -0.034355696 -0.1806524 -0.116979964 -0.008191716
0003f0 a9 40 a0 3d d5 e4 88 bd 7f cb e3 bd 6b 3f f9 bd
       0.07824833 -0.06684271 -0.11122798 -0.12170299

encoder.lstm.bias_ih_l0 f4 [128]
000000 d3 f2 c4 bd 8a 42 b0 bd 47 b3 65 3d 3c 6f 54 bd
       -0.096166275 -0.08606441 0.056079175 -0.051863894
000010 5f 1b 9d bd 97 ec a1 3b e2 c3 12 3d c0 c4 d0 bd
       -0.07671236 0.004941534 0.03583134 -0.10193777
000020 58 14 23 3e 0e 74 be 3d 8b fa 1e 3e 92 9b 58 3d
       0.1592573 0.092994794 0.15525262 0.05288274
000030 b1 d7 1f 3e c0 b2 14 be 04 95 93 3d c7 56 22 be
       0.15609623 -0.14521313 0.07206157 -0.15853415
000040 49 1c 48 3d d1 66 9e bd d1 1d 8f 3c 19 a4 45 3e
       0.0488551 -0.077344544 0.017470272 0.1930088
000050 cb 28 5d 3e fb a4 55 bd 7d 91 87 bd 89 08 cd 3d
       0.21597593 -0.05215929 -0.066195466 0.100113936
000060 92 93 a8 bd 48 18 b2 bd 89 d9 f3 bd 9e eb 33 3e
       -0.08231272 -0.086960375 -0.11906726 0.1757035
000070 27 3f 81 3c 75 e1 8e 3d 9f 0a ca bd 58 cf c4 3d
       0.015777184 0.06976596 -0.09865307 0.0960986
000080 68 66 34 be 92 09 41 bd 9f 5b c1 3d 95 f5 6a 3e
       -0.1761719 -0.047128268 0.094413035 0.22945245
000090 a5 39 96 bc 75 a4 78 3c fa 7d cf 3d ff 51 65 3d
       -0.018338034 0.015175928 0.1013145 0.0559864
0000a0 0b 1d 94 3e e7 28 d5 bc cd a1 31 3e df a9 8a bd
       0.28928408 -0.02602048 0.17346878 -0.067706816
0000b0 f7 26 ba bb 56 da 20 3d ba f7 5b 3e 0b 2b 5b bc
       -0.0056809145 0.03927072 0.21481219 -0.013376961
0000c0 9b 32 32 bd 6b 24 a0 bd 3d 0a 29 bd 48 00 26 3e
       -0.043505292 -0.07819446 -0.04126953 0.16211045
0000d0 9c ac 33 bd bc a8 8d bd 1f a5 98 3d f9 4f 8d bc
       -0.043865785 -0.06916949 0.07453369 -0.017250048
0000e0 a0 7f f9 bc 24 80 0f 3e 73 61 17 3e 62 7c fa 3d
       -0.030456364 0.14013726 0.14783268 0.122307554
0000f0 c4 ac 99 bd 50 1e 4e bd 02 ce 1c 3e 3e 5f b0 3d
       -0.075036556 -0.050321877 0.1531296 0.08611916
000100 ce d9 2c be 0b b8 cb bc f7 78 78 3d e3 88 91 3b
       -0.16879961 -0.024868032 0.060662236 0.004441367
000110 5c 38 30 3e 68 e5 a7 3c 1a 7e b6 bb 68 f2 b0 3d
       0.17209 0.020495132 -0.0055692317 0.08639985
000120 43 ec af bd 6f a9 d5 bb 82 9b 19 be a8 f2 ef bd
       -0.08589985 -0.006520442 -0.15000728 -0.11716205
000130 2d 63 49 be 7f a9 48 3d 5f fd 40 be d6 3b 09 3e
       -0.19666739 0.04898977 -0.18846653 0.13401732
000140 3e d8 ab bd 21 91 dc bd a6 da 18 bd d1 47 c5 3c
       -0.08390854 -0.10769869 -0.037317894 0.024082096
000150 35 da fc bb 68 bb 0b 3e 04 69 10 3d f4 8e 29 bd
       -0.007716442 0.13645709 0.0352564 -0.041396096
000160 6b cf 5b 3d 94 3e 7e bd 35 bd 30 bc 36 ed 31 3e
       0.053664606 -0.062071398 -0.010787298 0.17375645
000170 f8 21 f5 bc 10 73 da 3d c3 dd e9 3d 2f dd 80 bd
       -0.029923424 0.10666478 0.11419251 -0.062921874
000180 eb 58 0e 3e a7 91 25 bd 8d 80 8f bd f4 51 59 3d
       0.13901107 -0.040422108 -0.07006941 0.053056672
000190 f1 36 80 bc da ba 06 bd 5e 74 13 bd 9f fc 36 3d
       -0.015651198 -0.03289304 -0.03599965 0.044674512
0001a0 3d a3 a8 bd 35 f0 0b be 5f f6 22 be 74 33 45 3e
       -0.0823426 -0.1366585 -0.15914296 0.19257909
0001b0 23 4a 25 bc c5 1f 4e 3d aa 0c 01 be c1 b2 61 bc
       -0.010088476 0.050323267 -0.12602487 -0.013775528
0001c0 81 00 12 be ff 30 be bc cb 25 14 3e 27 de f3 3d
       -0.14258005 -0.023216723 0.14467542 0.119076066
0001d0 8f e9 47 bd 31 b6 d5 bd bf ce 0d be 77 72 a2 bd
       -0.048806723 -0.10435141 -0.13848399 -0.07931989
0001e0 b5 d6 7b 3d 22 dc ec bd 86 54 fc 3d ed bb d5 bd
       0.061484057 -0.115654245 0.12320809 -0.104362346
0001f0 ad 73 22 3e a8 82 1d bd 8e 2b 72 bd 92 92 01 3e
       0.1586444 -0.03845468 -0.05912357 0.12653568

encoder.lstm.bias_hh_l0 f4 [128]
000000 91 4a df 3d b8 b1 05 3e 4e fa 39 3e c1 b7 0f be
       0.10902894 0.13056076 0.1816189 -0.1403494
000010 c1 3c c7 3d 57 63 d9 bd 24 14 b2 3d 1c 30 f5 3d
       0.09728385 -0.10614651 0.08695248 0.11972067
000020 6e f0 4d 3d 7e de cf 3d ab 1a 66 3d 3a 59 e8 3d
       0.05027812 0.10149859 0.056177776 0.113451436
000030 a5 b7 04 3e 66 a1 85 3d cf 5a 1e bd 56 8a ac 39
       0.1296068 0.06524925 -0.03866082 0.00032909465
000040 08 2a b3 bb 3d 54 1f be 7b 00 e5 3d 2c 41 93 bd
       -0.005467657 -0.15559478 0.11181732 -0.07190165
000050 85 7d 26 3e d8 32 1a 3e ad 39 74 3d 75 2b 1b 3e
       0.1625882 0.15058458 0.059625316 0.15153296
000060 5e f4 4b b9 e4 d2 db 3d 8d 06 d1 3d 44 d1 16 be
       -0.00019450622 0.107335836 0.102063276 -0.14728266
000070 dc c3 0b be 7f 36 ed bb d5 94 98 3d 2c 51 9d bc
       -0.13648933 -0.0072391625 0.074502625 -0.019203745
000080 ac d8 35 bd 8e 81 e3 3d 33 47 8f 3e f7 11 4d 3e
       -0.044396088 0.11108695 0.27984008 0.20026384
000090 61 f7 4e 3d 45 18 a3 3d 6c 82 20 bc c8 6e 29 be
       0.050528888 0.079636134 -0.00979672 -0.16546166
0000a0 39 52 f3 bc 5b 93 05 be be e6 ba bd 29 a8 bf 3d
       -0.029702293 -0.13044493 -0.09126042 0.09358246
0000b0 63 a3 af bb 7f e4 f7 bd 5c c3 a9 3d b0 ae 57 bc
       -0.0053600534 -0.12104129 0.08289215 -0.013164207
0000c0 7c d4 05 be 94 6f 36 be ce f9 e3 3d f6 93 81 3d
       -0.13069338 -0.17816001 0.11131631 0.063270494
0000d0 72 33 8f bd 1a 90 dd bd ce f4 2d bc d8 98 d9 3d
       -0.06992234 -0.10818501 -0.010617448 0.10624856
0000e0 5d ad 12 be c7 07 9f bd d9 d6 87 bc 52 0f 77 3e
       -0.14323945 -0.07765155 -0.01658194 0.24126938
0000f0 03 93 9f 3c 71 de 12 3e 44 85 94 bc d7 f6 b3 3c
       0.01947928 0.14342667 -0.018129952 0.021968288
000100 a2 ba bc 3d a8 7d 8d bd 65 0c 01 3e 79 11 e4 3d
       0.09215285 -0.06908733 0.12602384 0.11136145
000110 f8 ab c0 3d 26 cf fd 3d 39 58 f8 bd 6c f8 fe 3d
       0.094078004 0.12393026 -0.12126202 0.124497265
000120 15 61 2a be a7 5c 13 3d 43 f4 19 3d 7e 3c 2b bd
       -0.16638596 0.035977032 0.03758646 -0.041805737
000130 c5 b4 8f bc ee 6f 11 be 29 a0 f3 3d 81 46 45 bc
       -0.017542252 -0.14202854 0.118957825 -0.012040735
000140 a0 03 1c 3e 31 b0 91 3c 4c ca f5 bd 92 44 5f 3e
       0.15235758 0.01778421 -0.12001476 0.21803501
000150 7f 0b c2 3d a0 90 d7 bd 94 14 1a 3a 40 3b 7c be
       0.09474849 -0.10525632 0.00058777 -0.24631977
000160 e9 d6 11 be cd 2c 16 be 1b 7c a4 bc 21 cf c0 bd
       -0.14242138 -0.14665528 -0.02007871 -0.09414507
000170 28 e0 2e 3d 38 b9 ca bd 02 3d 3f be a2 2a 70 bd
       0.04269424 -0.09898609 -0.18675616 -0.058634408
000180 7c 98 6b 3c 30 6c 08 3e 28 03 c3 bd 17 63 34 3e
       0.014379617 0.1332252 -0.095220864 0.17615925
000190 1d f8 ea bd f8 09 99 3d 25 6d 24 be be 25 2c 3e
       -0.11473105 0.074726045 -0.1605726 0.16811273
0001a0 8b 9b 52 bd f4 b1 c5 3d 14 08 46 bc e2 a8 56 bd
       -0.05141787 0.096530825 -0.012086887 -0.052407153
0001b0 b4 5d 69 bd 56 41 c2 bd 62 05 1b 3e 67 97 10 3e
       -0.056974128 -0.09485118 0.15138772 0.14120255
0001c0 3b d3 27 3e 8f c8 4c bd 8c 5a 87 bd 49 9c c8 bd
       0.16389172 -0.049995955 -0.06609067 -0.09795434
0001d0 d0 dc 3f 3b 03 09 0d 3d c9 6e 09 bc b9 d8 d9 bd
       0.0029275902 0.034432422 -0.00838823 -0.1063704
0001e0 05 75 66 3c 72 f3 84 bc a4 41 ec bd db 28 b6 bd
       0.014065986 -0.016229365 -0.115359575 -0.08894511
0001f0 ca a6 4a bc e5 64 2b be be d1 49 bb 86 1e 91 3d
       -0.012368867 -0.16737707 -0.0030795182 0.070859

decoder.embedding.weight f4 [60, 16]
000000 1d a1 8c bf 1e 26 84 3f 18 51 60 3f 4d b7 ab bf
       -1.0986668 1.0324132 0.8762374 -1.3415314
000010 d6 85 b9 be 39 2b 8c 3f 75 2a b0 bf 4e 75 4f 3f
       -0.3623492 1.095069 -1.3762957 0.8103837
000020 46 f8 9e 3b 96 13 7e 3e 11 14 51 3f e2 34 d6 3e
       0.004851374 0.24812159 0.81671244 0.4183722
000030 52 e5 2f 3f 7b c1 c3 bd 82 34 8c 3f 83 90 ed 3e
       0.6870929 -0.09558388 1.0953524 0.46399316
000040 53 8d 26 bc 38 ef 1c 3f e7 a8 fb bf 8c a9 a0 3f
       -0.01016553 0.6130252 -1.966092 1.2551742
000050 50 fb 7a 3f a8 de 10 3d b2 3d 1b 40 1a 10 96 3f
       0.9803972 0.03536859 2.4256406 1.1723664
000060 bd f4 1e 40 e3 42 bd 3e 9b 5c af bf 62 6b 85 3d
       2.4836876 0.36965093 -1.3700136 0.06514622
000070 be d9 ab bf 02 ea 46 be 4f 6d 6a bf a0 6a 79 be
       -1.3425825 -0.19425204 -0.9157304 -0.2435708
000080 6d 0b 24 3e a5 dc f6 bc 53 ba dd 3f 8c b1 8d bf
       0.16019984 -0.030134508 1.7322487 -1.1069808
000090 dd 4a fe bc 98 fe 18 3f 5c ba a6 3f 7c 1d 75 bf
       -0.031041557 0.5976348 1.3025622 -0.95748115
0000a0 bd b0 28 bf b6 af 73 3f 98 f3 07 bf 97 03 be 3f
       -0.6589468 0.9518999 -0.5310607 1.4844846
0000b0 be fe 40 c0 17 b2 14 bf 6c ec a5 3b d2 76 22 bf
       -3.0155482 -0.58084244 0.005063584 -0.63462555
0000c0 d9 04 e3 3e 95 ba 93 3f 30 a3 92 3f 50 b0 7a bf
       0.44339636 1.1541315 1.1456051 -0.9792528
0000d0 ae 66 06 bf 33 d8 31 bf 8f b1 07 40 5b a0 93 3e
       -0.52500427 -0.6947052 2.1202123 0.2883328
0000e0 5b a6 df 3e c3 4f 38 bf 23 7f 06 c0 2f 0b a6 3e
       0.43681607 -0.71996707 -2.1015098 0.32430407
0000f0 81 9c 33 be 99 ad e3 be 1b f0 56 be 60 d7 2b bf
       -0.1754017 -0.44468382 -0.2099003 -0.6712551
000100 c5 d3 91 bf cc d5 8f 3f d9 57 a6 3f 07 5b fe 3e
       -1.1392752 1.1237121 1.2995559 0.49678823
000110 56 9e 59 bf 37 f2 a2 3f d4 8b b3 3f eb 14 86 3f
       -0.85007226 1.2730168 1.4027047 1.0475134
000120 e8 c4 3a 3f 86 81 72 3e 9b 61 40 3f 36 91 ad bb
       0.72956705 0.23682222 0.75148934 -0.0052968515
000130 ce aa bb 3f f3 9f 95 3f 7c 9d 82 3c 45 86 d4 3f
       1.46615 1.1689438 0.015944235 1.6603476
000140 e5 71 96 bf f6 4f 97 3f d6 41 69 3f e3 e9 e3 3f
       -1.1753508 1.1821277 0.9111608 1.7805752
000150 a5 96 5c be 38 7d 87 3e d2 b4 02 be 57 34 11 3d
       -0.21541841 0.26462722 -0.1276429 0.035450306
000160 73 a3 e9 bf a0 b0 04 40 ff 83 e7 3e 76 ec 24 be
       -1.8253006 2.0732803 0.45217893 -0.16105828
000170 9c e2 09 40 26 71 3c 3c 47 f4 5e bf 7b f7 d7 3f
       2.1544561 0.011501586 -0.8709149 1.68724
000180 01 20 ad 3e b0 06 84 bf c3 df 25 c0 85 b8 a7 3f
       0.3381348 -1.0314541 -2.5917823 1.3103186
000190 bc dc 42 c0 b6 69 e5 bd ca 91 00 3f 3b 4b de be
       -3.0447226 -0.112018034 0.50222456 -0.4341677
0001a0 8b 7b 61 bf 91 bf 6c 3c cf d2 92 be 3b bd 30 bf
       -0.88079137 0.01444997 -0.2867646 -0.6903874
0001b0 60 31 3e bf 1f 61 51 3f e7 89 01 40 dd bd a2 3d
       -0.7429409 0.8178882 2.024042 0.0794637
0001c0 43 ad d0 be d8 98 07 c0 71 5c 08 bc 62 25 f7 be
       -0.40757188 -2.1187038 -0.008322821 -0.48270708
0001d0 83 6b 18 40 af 3b 3d bf 23 c4 81 3e 6a 1a fb bf
       2.381562 -0.73919195 0.25344953 -1.9617436
0001e0 5e f1 2b 3f a5 0b c5 3e a7 88 99 be 9f d7 c8 be
       0.6716517 0.38485447 -0.2998707 -0.39227006
0001f0 66 21 63 3e 64 68 0c bf 9d 41 93 be 05 2e 64 3f
       0.22180709 -0.5484679 -0.28760996 0.8913272
000200 66 2d 9c 3f 27 d9 f4 bf f1 be 48 bf a2 02 8f 3e
       1.2201355 -1.912877 -0.78416353 0.27931696
000210 18 cd 18 40 13 79 dd bf d0 10 a5 bf b9 2d 9c bf
       2.387518 -1.7302574 -1.2895756 -1.2201453
000220 dd 29 dc 3f 2d a6 e9 bf ad dc 74 3f 72 a2 4b be
       1.7200276 -1.8253838 0.95649225 -0.19886187
000230 31 0c 06 bd 02 d8 c2 bf 3a 4c 87 3d cc 65 b1 3e
       -0.03272647 -1.522217 0.06606336 0.34647977
000240 a9 23 37 3e 32 f0 27 bf 86 91 b2 3e ea 0d 5d be
       0.17884697 -0.65600884 0.3487665 -0.21587339
000250 ba 3e 17 3f c3 03 ac 3f 25 ca d6 3e b7 1c 53 bf
       0.5908009 1.3438648 0.419511 -0.8246569
000260 2d 4e 91 bf f2 5a b9 3f 3c 66 e6 3d e7 b9 c0 3f
       -1.1351982 1.4480879 0.112499684 1.5056733
000270 e0 e3 73 be c9 e1 6a 3f f4 d4 95 bf 0f e2 99 3f
       -0.23817396 0.9175077 -1.1705613 1.2022113
000280 76 6a a8 bf 3d 52 c9 be 1f ee 06 bf d6 2b 60 bd
       -1.3157489 -0.39320555 -0.52707094 -0.054729305
000290 6b 58 77 3f 4a f6 e8 bf dc 9a e5 be 94 37 40 bf
       0.9661929 -1.8200161 -0.4484471 -0.75084805
0002a0 f8 cc b4 be f7 00 cd bf a2 e4 43 bf 03 43 2e 3f
       -0.3531263 -1.601592 -0.7652074 0.68071
0002b0 4e 9b 79 bf fc 23 7f 3f e0 00 a0 3f 54 88 43 3f
       -0.975026 0.9966428 1.2500267 0.76379895
0002c0 32 f0 73 bf 06 0e 39 3f a4 c7 53 3e ba 0c f5 be
       -0.95288384 0.72287023 0.20681626 -0.47861272
0002d0 31 9d ac bf 22 fc f5 3c aa 88 3a bf fa fd 17 3f
       -1.3485471 0.030027453 -0.7286478 0.5937191
0002e0 6d a8 5f bf f7 8e 30 be 8a da fe 3e 58 be d5 3f
       -0.8736637 -0.17242037 0.49776107 1.6698713
0002f0 2e fe db bf 0b cb 93 3d eb 84 00 40 a6 3f a9 3e
       -1.7186944 0.07216462 2.0081127 0.33056372
000300 28 1c 83 bf 3f 68 8c bf c0 aa ad bf 6e e2 9c be
       -1.0242968 -1.0969313 -1.3567734 -0.30641502
000310 e2 e8 3e 3e ff 76 61 bd 58 8d 89 3e d6 40 42 3f
       0.18643525 -0.055045124 0.2686565 0.7588018
000320 d1 39 67 3f b5 34 b5 bf 9d df e6 be 24 38 87 bf
       0.90322596 -1.415671 -0.45092478 -1.0564008
000330 93 e1 2f 40 68 06 09 40 c5 9a 3f 3f 32 9a d5 3f
       2.748143 2.141016 0.74845535 1.6687682
000340 15 5e 51 bf 6b 53 78 bf 39 3e 83 3c d7 cc ab bf
       -0.8178418 -0.97002286 0.016020881 -1.3421887
000350 b1 41 fc bf 07 98 dd 3f d0 fb e8 3f 76 52 b3 bf
       -1.9707547 1.731202 1.8201847 -1.400954
000360 79 10 a5 3c bb 45 7f bf 7b 89 b7 3f a7 e0 90 bd
       0.020149456 -0.99715775 1.4338831 -0.07074099
000370 94 fa f4 be 02 fa 8e 3f dd 72 95 bf ce e5 95 3f
       -0.47847426 1.1170046 -1.1675678 1.1710756
000380 ab 1a 31 3f 20 87 0c bc 51 b3 aa 3e 06 43 f0 be
       0.6918132 -0.008577138 0.33339933 -0.46926135
000390 ad 80 4b 3e 0c f8 20 3f 05 6b bf 3e 44 82 8f 3f
       0.19873305 0.6287849 0.37386337 1.1211629
0003a0 05 71 08 40 37 9a e2 3f aa 70 e6 be ad 44 b6 3f
       2.1318982 1.7703313 -0.4500783 1.4239708
0003b0 f7 09 39 3f fd a7 e0 3e df a2 cf bf 5e bf ad bf
       0.7228083 0.43878165 -1.6221579 -1.3574026
0003c0 a2 b6 79 bf 83 05 f9 be d5 b6 9c bf 72 83 a4 bf
       -0.975443 -0.48637018 -1.2243296 -1.2852614
0003d0 cd 49 98 3f 44 5a f5 3e f8 83 bb 3d ae 61 a4 bd
       1.1897522 0.4792043 0.091560304 -0.080264434
0003e0 2e 19 4d 40 52 80 26 3d a9 2b 40 be 54 35 38 3f
       3.2046618 0.04064972 -0.18766655 0.7195637
0003f0 ac c8 45 3e 2b 4e 85 bf a5 9a c5 3d 5b 6d ad be
       0.19314831 -1.041448 0.09648637 -0.33872494

decoder.lstm.weight_ih_l0 f4 [128, 16]
000000 4c e5 7c be 1d 89 89 be f1 f4 16 3f 9a 7a cd be
       -0.24696845 -0.26862422 0.589675 -0.401326
000010 8c ed 20 3e 41 18 29 3e 08 43 4b bd 14 a1 d1 be
       0.15715617 0.16513158 -0.049624473 -0.40943205
000020 e3 77 48 be 19 84 45 3d 3f f7 0b be 35 10 9f 3e
       -0.19576983 0.04822168 -0.13668536 0.31067052
000030 b4 2e 30 3f 17 8e 15 3e 52 8d 3d be 4e 63 ed 3e
       0.68821263 0.14604984 -0.1851094 0.46364826
000040 e9 78 a2 3e e9 b7 bd be df 44 19 be b1 17 39 3e
       0.31732872 -0.37054375 -0.14967678 0.18075444
000050 1e ab 0d 3f 3c 25 7b bd 3c 31 db bd 32 37 92 be
       0.5533923 -0.061314806 -0.1070275 -0.28557736
000060 7f 77 d3 3d a5 b6 8f 3c d2 eb f9 3e fb e2 50 3e
       0.103255264 0.017543146 0.4881273 0.20399086
000070 6e 6c 71 3e 48 3f 0a be 73 6f a2 bd e9 5e 0d 3e
       0.23576519 -0.13500702 -0.079314135 0.13805737
000080 ba 50 a8 bd b8 2d 50 be 2f e1 c2 3e f7 50 75 3e
       -0.08218522 -0.2032994 0.38062426 0.23956667
000090 cb df 15 3f 63 d7 45 3b 40 08 19 3d d0 20 1c bd
       0.58544606 0.0030188195 0.037361383 -0.03811723
0000a0 2f 2c 6e bd 6b 6d c3 3d 83 9d ce bd 27 ed 8f 3e
       -0.058147606 0.09542354 -0.10088637 0.2811062
0000b0 d8 50 46 be ce 67 16 3c ab e4 c7 bd ca 90 b8 bc
       -0.19366777 0.009180022 -0.09760412 -0.022529978
0000c0 5d 37 da bd 64 53 12 3e c2 2c e8 bd 0d 55 7a bd
       -0.10655091 0.14289623 -0.11336662 -0.061116267
0000d0 13 51 ec 3e 18 3b 38 be 5a 22 e8 3c 5a da 9f 3d
       0.46155605 -0.17991292 0.028336693 0.07805319
0000e0 44 5a 9f bd 32 e0 10 bf 2f e9 2b bf fd a3 cc bb
       -0.07780889 -0.56592095 -0.67152685 -0.006245135
0000f0 ec 92 f0 bd e1 fb 92 bd 7e 99 5c 3d 82 35 25 bf
       -0.11746773 -0.07176948 0.05385732 -0.6453477
000100 7d 3e 85 3e 5c 05 80 be 9f a1 62 3d 8b 84 5e be
       0.26024237 -0.2500409 0.055329915 -0.21730249
000110 6c 35 ae 3d 12 a2 a2 3c 58 7a 86 be b8 fc 94 be
       0.08506283 0.019852672 -0.26265216 -0.2909906
000120 33 09 63 be 84 4d 72 3c ee 31 d4 3e 65 57 55 3e
       -0.22171478 0.014788989 0.41444343 0.2083412
000130 82 a4 0d 3f 25 95 4a 3c ac 95 fa bd 54 9f 93 3e
       0.55329144 0.01236466 -0.12235579 0.28832495
000140 38 58 db be 07 7b 35 bd 91 64 37 be e2 7c 5f 3e
       -0.42840743 -0.04430678 -0.17909457 0.21824983
000150 68 80 3d be ca f0 9d bd fb ee 53 be f9 34 64 bd
       -0.18506014 -0.077119425 -0.20696633 -0.05571458
000160 e7 34 45 bd fc 12 e9 be ed ca b4 be b4 2b 05 be
       -0.048146155 -0.45522296 -0.3531107 -0.13004953
000170 31 7f d8 3e 31 6a 21 3f 42 e3 90 3b 4d 48 66 3d
       0.4228454 0.6305266 0.0044216225 0.056221295
000180 7e 21 1c 3e 80 93 1f 3c 6c 90 72 be 3d b2 98 bd
       0.15247151 0.009739757 -0.23687905 -0.07455871
000190 39 74 d9 3d 7e e7 3e be 22 74 87 bd 3a 80 4e be
       0.10617871 -0.18642995 -0.066139475 -0.20166102
0001a0 1d 00 32 bc b6 93 4a 3d 34 2c 64 3d 40 34 91 bd
       -0.010864285 0.049457274 0.055706218 -0.07090044
0001b0 e9 a0 0c be 6a a1 45 3e f5 56 27 3e e6 9c 39 be
       -0.13733257 0.19299856 0.16341765 -0.18126258
0001c0 6b 1c 1f be b1 d0 85 be 22 87 8f be d8 22 4d bd
       -0.15538184 -0.2613578 -0.28032786 -0.050082058
0001d0 0b 7b 0f 3e 18 ad 1d bd 94 6d f4 bd 65 a9 b2 bd
       0.14011781 -0.038495153 -0.11934963 -0.08723716
0001e0 65 2c ae 3e 6b c5 bd bd 6a 6b d9 bd 37 80 ed bb
       0.34018245 -0.0926617 -0.10616191 -0.0072479504
0001f0 5b 8c 4c be 0b 59 f5 3e 6a f1 f2 be 24 fe 75 3f
       -0.19975416 0.47919497 -0.4744981 0.9609091
000200 5e bf 29 3e 7c 5f d4 bd 49 35 d1 bd 05 12 ac bc
       0.16576907 -0.10369775 -0.102152415 -0.021004686
000210 73 e6 b0 3e 70 a5 e0 3d 26 fa ca bd 78 e9 1b be
       0.3455082 0.10969055 -0.09910993 -0.1522578
000220 a1 48 6d 3e 18 18 e6 3e 10 44 65 3d bf 20 05 be
       0.23172237 0.44940257 0.055973113 -0.13000773
000230 b7 16 a3 3d ba ff 5f be 4c 16 ab 3d 9c 34 58 3d
       0.07963317 -0.21874896 0.08353862 0.052784547
000240 df 51 e1 bc f1 d6 4b be 91 63 b4 bc e9 7b 20 be
       -0.02750486 -0.19906212 -0.022020133 -0.15672268
000250 63 9e de 3d eb 02 d0 bc 47 58 48 3d 6e 3c 9b bd
       0.108700536 -0.025392016 0.048912313 -0.075798854
000260 de b6 06 be bf 42 bf bd e6 0f 80 3e 0e 23 ab 3d
       -0.13155696 -0.09338903 0.2501213 0.083562955
000270 a5 97 13 3e bb db 5c bb 7e 76 5c 3e 44 ea 12 bb
       0.14413317 -0.0033700306 0.21529576 -0.0022417465
000280 7e 4f 01 be cb 97 e2 bd 41 18 7d 3d 03 f7 b8 bc
       -0.1262798 -0.110641085 0.06179071 -0.022578722
000290 02 bc 6b 3e 87 87 0d 3e 7f bd 80 bd ee 02 e3 3d
       0.23020938 0.13821231 -0.062861435 0.11084543
0002a0 b2 18 7a bd 95 cd 6b 3c 3d 2c 4d 3e 0b c2 a4 bd
       -0.061058708 0.014392276 0.20036407 -0.08044823
0002b0 60 5b 08 3c ed a3 2b be 7e dc 9a 3d ce ef bd 3d
       0.008322567 -0.16761751 0.07561587 0.09274255
0002c0 2a 0f 3c 3e 65 b5 42 be f6 80 ed bd 3b a3 04 bd
       0.1836516 -0.19014509 -0.11596863 -0.03238223
0002d0 bb 41 fb 3b d8 0f e7 bd d3 63 44 be c2 45 24 be
       0.007667748 -0.11282319 -0.19178705 -0.16042235
0002e0 4d 81 6e be 7b f7 eb bd 00 ea 8a 3d 37 69 15 3e
       -0.23291512 -0.115218125 0.06782913 0.14590918
0002f0 7a c5 9a 3d 47 91 38 3e fe 6b db 3b 01 b5 c8 3d
       0.07557197 0.18024169 0.0066962233 0.09800149
000300 c5 ad 46 be 62 e6 5a be 15 ea e7 3d 0b a8 ab 3d
       -0.19402225 -0.21376947 0.113239445 0.08381661
000310 62 7d a8 3e 04 cf 17 bd bf ee 9a bc 62 86 49 be
       0.3290816 -0.03706266 -0.018912671 -0.19680169
000320 79 ea 3a bd aa bd 17 be a6 48 88 3e e5 c5 01 3e
       -0.045633767 -0.14818445 0.26617926 0.12673147
000330 bc ab 82 3e 43 d5 d3 bd 09 9a c8 3e 47 19 7d be
       0.25521648 -0.10343411 0.3918002 -0.24716674
000340 1b c5 fd 3c 88 c9 e1 bd 02 be cc be dc 6b 71 3e
       0.030977776 -0.11024767 -0.39988714 0.23576301
000350 c2 ba 8e 3d fe 45 8c be 3c aa ff bc 45 70 7c be
       0.06969215 -0.2739715 -0.031209104 -0.24652202
000360 d0 35 96 3e 55 7e 1c be 63 54 96 be 44 c7 9d 3e
       0.2933793 -0.15282567 -0.29361257 0.3081609
000370 35 44 30 3e c8 b2 27 3e e0 95 36 bf 84 4b 19 3f
       0.17213519 0.16376793 -0.7132244 0.5988085
000380 16 13 0e 3e eb fd d6 bd d8 8d da 3d 0b cb 49 bd
       0.13874468 -0.1049765 0.10671586 -0.049265902
000390 31 b3 3c 3e 98 3c fe bb 92 77 46 3e 35 ff 16 be
       0.18427731 -0.007758688 0.1938155 -0.14745791
0003a0 62 b6 c9 bd 25 65 84 3d 6e a8 e8 bd 8e b6 0a 3e
       -0.0984924 0.06464604 -0.113602504 0.13546202
0003b0 85 53 73 3d ea 0a d7 bd ca 9c 33 3e 78 59 0d 3e
       0.059405822 -0.105001286 0.17540279 0.13803661
0003c0 9a 38 cc bd 85 e7 60 bd 05 50 18 3c 0f e2 fb bd
       -0.099717334 -0.054908294 0.009296422 -0.12298977
0003d0 c9 ec b5 3d 80 7e 1d be 0d 73 f7 3c b3 fe 46 be
       0.08883054 -0.15380287 0.030206228 -0.19433098
0003e0 c0 e0 a8 3d 1c 25 a1 3d 76 79 25 3e 65 32 f6 3d
       0.08245993 0.07868406 0.16159615 0.12021331
0003f0 a7 5a f6 bc 86 d3 fa 3d e0 21 9e 3d 52 cf d8 3d
       -0.030072523 0.12247376 0.07721305 0.10586418

decoder.lstm.weight_hh_l0 f4 [128, 32]
000000 11 a6 fb 3e de b5 60 be bc 95 83 3e 82 d0 35 3e
       0.49150136 -0.21944377 0.25700176 0.1775532
000010 3f 79 04 3e 11 f0 91 3e b0 74 10 be 94 55 63 be
       0.12936877 0.2850347 -0.14107013 -0.22200614
000020 69 2a a9 3c 6b 69 b7 bb e3 1a 53 be bb d3 15 3e
       0.020650106 -0.0055972836 -0.20615725 0.1463155
000030 e4 94 f2 3d 17 70 38 3c 94 bf 2c be 02 72 71 3e
       0.11844805 0.011257193 -0.16869956 0.23578647
000040 07 56 81 3e 7e 01 be 3d 95 0d 12 bf 6b e7 e2 3c
       0.25260946 0.09277628 -0.57051975 0.02769824
000050 36 8e 4a be 9a 23 17 be 5d bd 23 3e bc 1c b2 3d
       -0.19780812 -0.14759675 0.15990205 0.08696887
000060 79 b0 4c 3e f2 33 4c be 89 12 d0 3b 4d be 19 be
       0.19989194 -0.1994169 0.006349866 -0.15014
000070 df ec fd 3d 30 73 e7 3d 15 23 ba be 47 b1 84 bd
       0.12398695 0.11301267 -0.3635489 -0.064791255
000080 98 b2 b1 bd 3e ac 0d be 1d 77 99 3c 36 5c 70 3e
       -0.08676642 -0.13835236 0.018733555 0.23472676
000090 37 4d d9 bc bb fe ae 3d c5 25 32 be be fa 33 be
       -0.026526077 0.0854468 -0.1739722 -0.1757612
0000a0 47 1f db 3d 5c 21 2d 3e 6f 1f 44 be 44 6b 14 3e
       0.10699325 0.16907257 -0.19152616 0.14494044
0000b0 47 d1 06 3c 81 46 42 3d 66 7e 68 bc a9 51 ad bc
       0.008228607 0.04743052 -0.014190292 -0.021157103
0000c0 01 48 d8 bd 9f 37 a2 bd 0b 5a 68 bd 10 62 5c 3e
       -0.10560609 -0.07920765 -0.056726497 0.21521783
0000d0 52 10 28 be 57 88 8a 3e 8b 93 87 3e 1b de 2f 3e
       -0.16412476 0.27057144 0.26479754 0.1717457
0000e0 96 8f cc 3e 59 49 84 be ac d8 6d be e0 c7 ac bd
       0.39953297 -0.2583721 -0.23227185 -0.08436561
0000f0 35 67 89 3c 34 54 3d be 32 be f1 3c df 91 8c be
       0.016772846 -0.18489152 0.029509638 -0.2745504
000100 84 a3 36 3d 54 f4 03 bd 79 4a 3d be a6 9c 5a 3e
       0.044589534 -0.03221543 -0.1848544 0.21348819
000110 24 d0 9b 3e 84 34 22 3d 82 ce 82 be 17 e2 f3 3d
       0.30432236 0.039600864 -0.25548178 0.119083576
000120 04 cf 0d 3d 20 55 8c 3e 55 4f 6d 3d 7a 67 1a 3e
       0.034621254 0.27408695 0.057936985 0.15078536
000130 36 ea 49 3e be 6d 58 bd 60 ab a6 bd 3d 3f ef bc
       0.1971825 -0.052839033 -0.08138156 -0.029204959
000140 1a d6 1f bd e4 25 6d 3e 63 1d bd bd 6f 08 57 3e
       -0.039022543 0.23158985 -0.09234121 0.20999311
000150 03 98 dd 3d d2 74 03 bd 0a 2e db 3b 1a da bc be
       0.108200096 -0.03209383 0.006688838 -0.36885148
000160 55 09 8f bd 8d 56 1c 3d 2a 31 3b 3d c9 dd 8f 3d
       -0.06984202 0.03816848 0.045701183 0.07024724
000170 c8 ab bc 3c 84 ed ea 3d a4 2c 6d be 75 e2 d5 bd
       0.02303113 0.11471084 -0.2316156 -0.10443584
000180 ed 12 eb bd 94 95 ae be 6b a8 02 be a9 6f 8a 3e
       -0.11478219 -0.34098494 -0.12759559 0.27038315
000190 42 ce a7 be 1e d1 28 3e b7 00 c9 3d 87 2e 20 be
       -0.3277455 0.16486022 0.098145895 -0.15642749
0001a0 11 2b 97 3d 26 1c c1 3d 09 7e a1 bd cf 61 7c 3c
       0.07381261 0.09429197 -0.078853674 0.015404179
0001b0 3f 45 41 bd 2e f7 92 3e 51 c8 3b be a6 96 56 3e
       -0.04718518 0.28704208 -0.18338133 0.20955905
0001c0 60 de 78 3b 05 05 9d bc ea f9 09 be 29 78 74 3e
       0.0037974343 -0.019167433 -0.13474241 0.23873962
0001d0 83 da a3 3d 10 28 be 3e 2b c7 75 bd db c1 93 3d
       0.08000662 0.3713994 -0.060004395 0.07214709
0001e0 4a c3 4f bc 55 39 88 bd e1 d0 1c 3e ca 84 ed bc
       -0.012680838 -0.0665156 0.15314056 -0.028993983
0001f0 73 be ba 3d e8 89 d3 bd 4f 96 95 bc 4a 6d 8d bd
       0.091183566 -0.10329038 -0.01826015 -0.06905611
000200 07 1d af bd a5 68 17 bd d2 03 04 be 40 06 f1 3d
       -0.085504584 -0.03696503 -0.12892082 0.1176877
000210 9b 20 29 3e 11 39 d4 3d 38 08 87 3d b3 95 45 3e
       0.16516344 0.10362447 0.065933645 0.19295387
000220 90 f4 1d 3e a7 d6 89 bd da 7a 55 be 8d e7 a6 3d
       0.15425324 -0.06730395 -0.20847645 0.081496336
000230 4d fd ab 3e 9e 9a 6e 3e 70 52 5b bc ad 2e 03 bd
       0.3359169 0.2330117 -0.013386354 -0.032026935
000240 ab 15 7b be cc 89 cd bd c3 f8 40 be 68 13 b3 3e
       -0.24519984 -0.10036048 -0.18844895 0.34975743
000250 f8 7b 02 be a8 71 c7 bd 11 10 65 3d ff a8 14 be
       -0.12742603 -0.09738475 0.055923525 -0.14517592
000260 05 9e 95 3e 8a f3 48 bd 8c de 57 3d 12 7a 0f bf
       0.29222122 -0.049060382 0.05270247 -0.5604564
000270 af ed 29 3e ea f9 1c be 7d 17 2f be a9 f0 12 be
       0.16594575 -0.1532971 -0.17098804 -0.14349617
000280 8f f0 3c be bb 09 b0 3d f6 80 9d 3e d2 6a da 3e
       -0.18451141 0.08595606 0.30762452 0.42659622
000290 b9 78 84 3c a9 83 06 3e 4a 1b 57 be 70 87 a2 3d
       0.016170846 0.13136162 -0.21006504 0.07935989
0002a0 5b ad 2b be 4d a5 ab 3d 12 94 fa bd 36 95 ff 3d
       -0.16765349 0.08381138 -0.122352734 0.124796316
0002b0 50 7a 10 3e 75 85 17 3d 56 38 95 be a8 aa e9 3c
       0.14109159 0.03699251 -0.29144543 0.028523758
0002c0 e7 c7 a1 be 61 bb e6 bc 89 60 de be c3 60 97 3c
       -0.31597826 -0.028165521 -0.43433025 0.018478757
0002d0 1c ee a9 3c 03 fe ca bd 82 a0 8d be 20 f0 c7 3d
       0.020743422 -0.0991173 -0.2766152 0.09762597
0002e0 47 25 09 be 90 ac 79 3d 3c 18 cb bd 7e 48 7c be
       -0.13393126 0.060955584 -0.09916732 -0.24637029
0002f0 9b 50 86 3e 96 38 65 be 7a c6 0c bc f1 2b a3 3c
       0.26233372 -0.22384867 -0.008592242 0.019918414
000300 4a 56 36 3e 47 09 aa be 1d 81 47 be f9 61 24 3c
       0.17806354 -0.33210203 -0.19482847 0.010033124
000310 7d 97 02 be f5 19 57 3e 76 4e de bd 93 4e b7 bd
       -0.127531 0.21005996 -0.10854809 -0.08950534
000320 a3 66 d8 3c 17 0d ac 3d 37 f2 c5 bd 1b 54 29 3e
       0.026416129 0.08400934 -0.096653394 0.1653599
000330 56 5c 59 3e 53 13 54 3e dc 3c 0b bd a8 8e c8 b9
       0.2122663 0.20710497 -0.033993587 -0.0003825326
000340 c8 b4 03 3e d6 8f 59 3e 8c 74 81 bd 76 27 83 3d
       0.12861931 0.21246275 -0.06321058 0.06404011
000350 be 2d 27 3d 48 8f 5b be 56 54 c3 bc 86 15 86 be
       0.040815108 -0.21441376 -0.023843925 -0.26188296
000360 1e 8c 1e 3e be 12 b9 bd 39 4a 9a be 64 2e 46 3d
       0.15483138 -0.09036778 -0.30134752 0.048384085
000370 94 f4 ca 3d cb fd 10 bd f8 77 d7 be 4e 3e ae be
       0.09909931 -0.035398286 -0.42083716 -0.3403191
000380 56 4c c3 bd 14 92 df be 6e 30 82 bd d7 2d 04 3f
       -0.09536044 -0.43666136 -0.063568935 0.51632446
000390 7b 43 4e 3e da f5 1c bd f2 a0 36 3e 19 13 24 be
       0.2014293 -0.0383204 0.17834833 -0.1602291
0003a0 5e 42 0d 3e 66 8f af bd e6 86 35 be d1 98 08 be
       0.13794848 -0.08572273 -0.17727241 -0.13339545
0003b0 84 b6 61 3e f0 a2 9d 3e 1f f5 39 be 5e 18 1c 3e
       0.2204228 0.30788374 -0.18159913 0.1524367
0003c0 cd 20 ed 3d 52 0f 9e 3e 9b 8d f6 bb 6f 81 96 3d
       0.11578522 0.30871063 -0.007524205 0.07348906
0003d0 44 2c c8 bb 21 f3 63 bd 98 45 d5 3d d8 44 a9 3d
       -0.0061087925 -0.055651788 0.104136646 0.08265084
0003e0 a0 a9 c2 3e 95 c1 ca bc 5c 57 5f bd c0 a5 21 be
       0.3802004 -0.02475051 -0.05452667 -0.15785885
0003f0 c6 d1 75 3e 31 c9 93 bc 24 ee 6f be a8 e0 5a 3e
       0.24005803 -0.018040271 -0.23430687 0.21374762
