ckpt_save_dir/seq2seq_traj_7.pth (torch, 71330 bytes, 12 tensors)

encoder.token_embeddings.weight f4 [60, 16]
-1.2850003 -1.2111608 -0.2967647 -0.3140893 1.0188825 0.6134166 -0.38541934 -2.1665869
0.3302169 -1.3865072 0.44301102 0.23523837 0.052437164 1.3053911 1.1744885 -0.20266388
-1.3526537 -1.6959312 0.5666506 0.79350835 0.59883946 -1.5550951 -0.3413604 1.8530061
0.7501895 -0.58549756 -0.17339675 0.18347794 1.3893661 1.5863342 0.94629836 -0.84367675
-0.6352209 0.023674682 -0.49609777 0.24574183 0.4536948 0.11260172 0.63145316 0.43161327
-0.10353756 0.78766847 -0.28221175 0.052304268 0.5315424 2.3318186 -1.462954 -1.5887493
-0.67320985 0.8726968 1.0553625 0.17779016 -0.23021388 -0.39168093 0.5432565 -0.39532128
-0.44619042 0.7439113 1.5210325 3.4105213 -1.5311749 -1.2340169 1.8197904 -0.5515301
-0.5693198 0.91988045 1.1108074 1.2898438 -1.4780806 2.5672817 -0.47314495 0.33542168
-1.6292958 -0.54982287 -0.47979915 -0.49963987 -1.0669774 1.11505 -0.14061818 0.8057486
-0.09353237 0.68687385 -0.8383876 0.0008604236 0.84208524 -0.3998726 1.0393571 0.35771582
-0.24597342 2.3022428 -1.8815483 -0.04962908 -1.0450169 -0.9561642 0.033714008 0.7100836
1.645686 -1.3602196 0.3443084 0.5198811 -2.6130989 -1.6962196 -0.22850943 0.2791939
0.24687332 0.07646054 0.33830872 0.45456082 0.4568027 -0.8647691 0.7816743 -0.92673045
-0.21688962 -2.4328635 -0.07326475 -0.033911057 0.9603616 0.34768698 -0.92091686 -0.052875593
-0.6234289 -0.46083924 1.9214416 -0.4036725 0.1241595 1.1625836 0.9220311 1.3877386
-0.8774749 -0.4124093 -0.80549735 0.56832904 0.6030045 0.4618727 1.9515907 -1.052873
-0.07881646 0.123926304 -0.5964135 -1.2465287 -0.100862205 -1.0406537 -0.3168762 0.2466037
-0.2839966 0.09773418 0.2464242 1.1623199 0.30670246 0.39411888 -0.20836368 -0.13794805
0.1975843 -0.78626263 -1.8898643 0.13225389 -0.7029591 0.33772403 0.16522022 0.38484874
0.9671597 -0.9910694 0.30160463 -0.10731303 0.9984438 -0.49872363 0.76111585 0.618321
0.31404617 0.21334486 -0.120057285 0.36045656 -0.31403443 -1.0787228 0.2408009 -1.3962264
-0.06614405 -0.35835508 -1.5615617 -0.3546433 1.0810726 0.13147806 1.5735383 0.78142995
-1.078658 -0.72090983 1.4707927 0.275635 0.66678107 -0.99438965 -1.189364 -1.1959494
-0.55959594 0.533514 0.4068587 0.39461017 0.17148022 0.8760227 -0.28709766 1.0216359
-0.07439695 -1.0922333 0.39202106 0.59451956 0.6622554 -1.2063103 0.60744727 -0.5471564
1.1710889 0.09749614 0.96337456 0.8403232 -1.2536547 0.9868361 -0.49465504 -1.283043
0.95522183 1.2835777 -0.6658611 0.5651337 0.2877034 -0.033374783 -1.0618885 -0.11442617
-0.3402464 1.5744307 0.1909985 0.38097957 -0.14773044 0.6357968 -0.28104818 -1.3267971
-0.14188652 -0.5322712 -0.5246148 0.8614 -0.8867988 0.83732283 1.1519015 -1.7607007
-1.4790975 -1.7577397 0.07597916 -1.0786889 1.4416484 -0.109668516 0.57585526 -0.1721145
-0.06347512 1.036396 0.90764725 -0.47457463 -0.8707928 0.14674875 1.9038384 0.3902214
00000000: e47a a4bf 5107 9bbf 8bf1 97be 50d0 a0be
00000010: be6a 823f df08 1d3f af55 c5be 5ca9 0ac0
00000020: 3112 a93e 1179 b1bf 57d2 e23e 54e2 703e
00000030: 5ac8 563d 0e17 a73f a455 963f 1f87 4fbe
00000040: c223 adbf 4614 d9bf 0410 113f 5d23 4b3f
00000050: 8b4d 193f 5b0d c7bf cac6 aebe 4e2f ed3f
00000060: 6b0c 403f 2be3 15bf eb8e 31be a4e1 3b3e
00000070: c0d6 b13f 000d cb3f 9c40 723f 33fb 57bf
00000080: d69d 22bf 68f1 c13c 8700 febe bfa3 7b3e
00000090: af4a e83e bb9b e63d eaa6 213f 6afc dc3e
000000a0: 800b d4bd a4a4 493f 0f7e 90be 003d 563d
000000b0: 2a13 083f 843c 1540 1442 bbbf 235c cbbf
000000c0: 7b57 2cbf 0f69 5f3f 1e16 873f a00e 363e
000000d0: 30bd 6bbe 678a c8be dc12 0b3f 8d67 cabe
000000e0: 1273 e4be f970 3e3f 31b1 c23f fb45 5a40
000000f0: 8afd c3bf 44f4 9dbf e4ee e83f 1431 0dbf
00000100: f1be 11bf 497d 6b3f f02e 8e3f 9a19 a53f
00000110: bf31 bdbf 584e 2440 0e40 f2be 64bc ab3e
00000120: c48c d0bf 31c1 0cbf 3ca8 f5be ccd0 ffbe
00000130: b792 88bf f5b9 8e3f 36fe 0fbe 8a45 4e3f
00000140: e68d bfbd f7d6 2f3f 92a0 56bf 0d8e 613a
00000150: e692 573f 1abc ccbe a709 853f 8726 b73e
00000160: 75e0 7bbe f257 1340 93d6 f0bf dd47 4bbd
00000170: 1dc3 85bf 2dc7 74bf b317 0a3d 0ac8 353f
00000180: d7a5 d23f ad1b aebf 3149 b03e ee16 053f
00000190: 033d 27c0 b91d d9bf 60fe 69be 81f2 8e3e
000001a0: 5ccc 7c3e 5897 9c3d cd36 ad3e 32bc e83e
000001b0: 0be2 e93e 8261 5dbf cf1b 483f 353e 6dbf
000001c0: 5018 5ebe 09b4 1bc0 d40b 96bd 52e6 0abd
000001d0: 42da 753f 0704 b23e 35c1 6bbf 1494 58bd
000001e0: 0999 1fbf 1ff3 ebbe ccf1 f53f 29ae cebe
000001f0: 5647 fe3d 8acf 943f 3b0a 6c3f 6ba1 b13f
00000200: 32a2 60bf 5027 d3be 1335 4ebf 037e 113f
00000210: 815e 1a3f 947a ec3e b9cd f93f 8bc4 86bf
00000220: 866a a1bd 13cd fd3d 8eae 18bf 418e 9fbf
00000230: d890 cebd 2434 85bf 993d a2be ae85 7c3e
00000240: 0168 91be dc28 c83d a056 7c3e e6c6 943f
00000250: 1b08 9d3e f3c9 c93e 4a5d 55be 4142 0dbe
00000260: 8a53 4a3e 8248 49bf 13e7 f1bf 906d 073e
00000270: 21f5 33bf 2aea ac3e 7d2f 293e e50a c53e
00000280: c797 773f b9b6 7dbf ec6b 9a3e efc6 dbbd
00000290: 039a 7f3f b458 ffbe 7dd8 423f 494a 1e3f
000002a0: a9ca a03e 1377 5a3e 98e0 f5bd c38d b83e
000002b0: 1fc9 a0be 9713 8abf 8394 763e 8cb7 b2bf
000002c0: 8876 87bd 517a b7be 41e1 c7bf ce93 b5be
000002d0: 9660 8a3f 2fa2 063e b469 c93f cb0b 483f
000002e0: 7711 8abf 8c8d 38bf ef42 bc3f 0820 8d3e
000002f0: 2ab2 2a3f 5290 7ebf 143d 98bf df14 99bf
00000300: ae41 0fbf 6094 083f c94f d03e 580a ca3e
00000310: 8398 2f3e 0643 603f 77fe 92be f7c4 823f
00000320: 6e5d 98bd 4dce 8bbf fcb6 c83e 6f32 183f
00000330: 9289 293f 6068 9abf aa81 1b3f 7112 0cbf
00000340: 3ee6 953f 0eac c73d b79f 763f 6c1f 573f
00000350: c277 a0bf 4aa1 7c3f 6d43 fdbe c13a a4bf
00000360: 6b89 743f 464c a43f e075 2abf 9aac 103f
00000370: dc4d 933e ffb3 08bd f6eb 87bf 4558 eabd
00000380: c734 aebe f286 c93f 1c95 433e c10f c33e
00000390: a646 17be 94c3 223f 8ce5 8fbe 7dd4 a9bf
000003a0: b34a 11be ed42 08bf 284d 06bf b684 5c3f
000003b0: 3f05 63bf ca5a 563f 8271 933f a45e e1bf
000003c0: 1153 bdbf 9dfd e0bf f69a 9b3d 7a12 8abf
000003d0: ef87 b83f e399 e0bd 406b 133f c93e 30be
000003e0: 3eff 81bd a0a8 843f 925b 683f 72fb f2be
000003f0: 47ec 5ebf 4e45 163e fab0 f33f 19cb c73e

encoder.lstm.weight_ih_l0 f4 [128, 16]
-0.05062358 0.11300698 0.1772156 -0.14971621 -0.23867363 -0.017430475 0.15461728 0.023443708
0.01814336 0.20874488 0.027819077 0.022121234 0.17102884 0.036980957 -0.16985002 0.028487636
0.11157251 0.17593808 -0.16990528 0.10128358 -0.06890347 -0.18498519 0.044833645 -0.06323966
0.020486016 -0.092709556 -0.1439441 -0.014856105 -0.060486257 0.086702585 -0.0024301668 0.13889115
-0.049979053 -0.15033452 0.09694444 -0.025275901 0.10028163 -0.008099164 -0.026217988 -0.18929768
0.012242002 -0.23120327 0.029970326 -0.120295666 -0.03922811 0.18796109 -0.03948929 -0.13172077
-0.13016795 -0.14612833 0.013244737 -0.007129883 0.1624273 -0.06406529 -0.042930175 -0.07748446
0.1746009 -0.112104245 -0.072770774 0.0784933 0.10460118 -0.0037583108 -0.006045149 0.059446376
0.030595783 -0.12740865 -0.092258215 0.083342314 -0.09829808 0.099626884 0.15251057 0.09342684
-0.026198123 -0.0068655745 -0.024052016 0.023119489 -0.13640322 -0.07907799 -0.18765248 0.113621205
-0.09801315 0.17728601 -0.03998553 -0.09331023 0.072596624 0.019157205 0.12701178 0.10109958
-0.17565496 0.12751499 -0.04044073 -0.08096205 0.11057609 0.11336383 -0.1705375 -0.014891713
0.1450301 0.066267334 0.15002328 -0.060522407 -0.09523988 0.15655497 0.076099895 0.16703571
-0.07278189 -0.115976535 -0.02365685 -0.16670142 0.06757726 0.13013959 0.04292383 -0.019027421
0.04801721 -0.15352187 0.16356565 -0.19127846 -0.138714 -0.018489113 0.1326831 -0.056265067
0.079998106 -0.17264898 0.07817558 -0.009118256 0.07468532 0.17105113 0.11424414 -0.023756234
-0.019261396 -0.12686409 -0.066743456 0.10860958 -0.067057446 0.12233538 -0.071785204 -0.063992776
0.009376741 -0.17406926 0.0056104907 -0.012876901 -0.014412435 -0.020238472 0.14449795 0.12529849
-0.18484806 0.017451236 -0.15323505 -0.17427303 0.10694528 0.03869726 -0.10211636 -0.28423044
-0.050858464 -0.014653096 -0.1398768 -0.15720211 0.02692092 -0.0590968 -0.09462043 -0.08102169
-0.046555743 -0.17671676 -0.12193108 0.00606233 -0.15567647 -0.016526269 -0.11888353 -0.14978129
0.07521003 -0.15488918 -0.12595181 0.104748294 0.03416707 0.17655657 -0.03331791 -0.08774641
-0.05608425 -0.036110975 0.12382937 -0.19103852 0.0192432 0.096529104 -0.10863673 -0.15596394
0.097928554 -0.21088001 0.053427026 -0.124990396 0.090248905 -0.109425634 0.14365342 -0.17519729
-0.14074652 0.0076739355 0.14158973 -0.15234102 -0.08446634 0.15430884 -0.02777093 0.082084484
-0.17256218 -0.048759073 -0.09252533 0.14851508 0.07372372 -0.13421285 0.023144713 -0.0019505833
-0.23864162 -0.27247354 -0.09536458 0.08672192 0.0042444263 -0.025116937 -0.09381942 -0.2906438
0.09226109 -0.1676871 0.0073066787 -0.061002053 -0.018489378 0.1428437 0.27257538 -0.22852175
-0.24900857 -0.2894077 -0.05727017 0.09421158 0.26497102 -0.06846398 -0.05388528 -0.15750009
0.10922684 -0.0080891885 0.037586857 -0.08128346 0.122081295 0.11078688 0.22495063 -0.079672255
0.120465 0.20361109 0.18249261 -0.14501584 -0.15865722 -0.089965954 -0.10096366 0.24027537
-0.031676725 -0.06768259 -0.097605936 -0.109189846 0.07026024 -0.19902782 -0.20204464 -0.1676206
00000000: ac5a 4fbd 3470 e73d 0278 353e 354f 19be
00000010: dc66 74be 5bca 8ebc fe53 1e3e 050d c03c
00000020: 62a1 943c 38c1 553e d5e4 e33c 9737 b53c
00000030: 2f22 2f3e 5879 173d 2aed 2dbe e75e e93c
00000040: 2180 e43d 1d29 343e a6fb 2dbe c46d cf3d
00000050: 431d 8dbd c26c 3dbe 7ca3 373d cb83 81bd
00000060: 4ad2 a73c 82de bdbd 1566 13be 0567 73bc
00000070: 70c0 77bd 2091 b13d 6f43 1fbb 7b39 0e3e
00000080: d6b6 4cbd 4bf1 19be ce8a c63d 680f cfbc
00000090: 7560 cd3d 5bb2 04bc 1bc7 d6bc 40d7 41be
000000a0: ae92 483c 8dc0 6cbe 5484 f53c 935d f6bd
000000b0: a8ad 20bd df78 403e 86bf 21bd cfe1 06be
000000c0: bf4a 05be aaa2 15be 7400 593c cba1 e9bb
000000d0: 5853 263e aa34 83bd 8dd7 2fbd 2cb0 9ebd
000000e0: 94ca 323e e996 e5bd d808 95bd 18c1 a03d
000000f0: 2539 d63d fe4d 76bb 6316 c6bb 0b7e 733d
00000100: 02a4 fa3c 6a77 02be e0f1 bcbd 60af aa3d
00000110: 8150 c9bd 2e09 cc3d bb2b 1c3e 9256 bf3d
00000120: 729d d6bc 9df8 e0bb bc08 c5bc 1565 bd3c
00000130: 49ad 0bbe a4f3 a1bd f927 40be 3cb2 e83d
00000140: 1ebb c8bd 778a 353e dec7 23bd 6f19 bfbd
00000150: 8aad 943d 92ef 9c3c 600f 023e 4c0d cf3d
00000160: e5de 33be 4a93 023e 2ea5 25bd 6ecf a5bd
00000170: b875 e23d 4c2b e83d 62a1 2ebe 5ffc 73bc
00000180: c582 143e 2bb7 873d b49f 193e 58e6 77bd
00000190: 200d c3bd f24f 203e 43da 9b3d 690b 2b3e
000001a0: ac0e 95bd 1b85 edbd 03cc c1bc c7b3 2abe
000001b0: f265 8a3d 5043 053e e6d0 2f3d 65df 9bbc
000001c0: b2ad 443d d634 1dbe c17d 273e 80de 43be
000001d0: 0b0b 0ebe 7b76 97bc 14de 073e 3376 66bd
000001e0: 0cd6 a33d e5ca 30be 851a a03d bd64 15bc
000001f0: 9ef4 983d 0728 2f3e d5f8 e93d 6f9c c2bc
00000200: 13ca 9dbc a9e8 01be cbb0 88bd b36e de3d
00000210: 6a55 89bd f98a fa3d 1f04 93bd a50e 83bd
00000220: e7a0 193c 363f 32be 35d8 b73b a3f9 52bc
00000230: 2222 6cbc 27cb a5bc 45f7 133e 3f4e 003e
00000240: cf48 3dbe e5f5 8e3c a6e9 1cbe a174 32be
00000250: 2106 db3d 0581 1e3d 6222 d1bd a786 91be
00000260: f750 50bd 8a13 70bc dd3b 0fbe 97f9 20be
00000270: 4389 dc3c 7c0f 72bd 5bc8 c1bd b3ee a5bd
00000280: 3cb1 3ebd 3df5 34be 01b7 f9bd 83a6 c63b
00000290: a769 1fbe 1962 87bc 3579 f3bd 4460 19be
000002a0: b707 9a3d 459b 1ebe 83f9 00be 4686 d63d
000002b0: c5f2 0b3d 3fcb 343e 5c78 08bd 64b4 b3bd
000002c0: 99b8 65bd 1ae9 13bd 419a fd3d 9a9f 43be
000002d0: eaa3 9d3c 0db1 c53d ef7c debd 03b5 1fbe
000002e0: c48e c83d eef0 57be 4cd6 5a3d f7fa ffbd
000002f0: 6bd4 b83d 8c1a e0bd e219 133e eb66 33be
00000300: db1f 10be a375 fb3b e6fc 103e 49ff 1bbe
00000310: b0fc acbd 2303 1e3e dd7f e3bc e91b a83d
00000320: 24b4 30be 98b7 47bd ec7d bdbd 5614 183e
00000330: 76fc 963d 186f 09be fb99 bd3c b7aa ffba
00000340: 785e 74be a781 8bbe 814e c3bd 439b b13d
00000350: d414 8b3b 09c2 cdbc 6524 c0bd 44cf 94be
00000360: 62f3 bc3d 2bb6 2bbe dd6c ef3b 4add 79bd
00000370: 0977 97bc 9e45 123e 008f 8b3e 9b01 6abe
00000380: 1afc 7ebe 3f2d 94be 2094 6abd 00f2 c03d
00000390: 48aa 873e d836 8cbd d0b6 5cbd b447 21be
000003a0: 52b2 df3d 8488 04bc adf4 193d f177 a6bd
000003b0: c205 fa3d 3be4 e23d 7559 663e 352b a3bd
000003c0: 5bb6 f63d 6d7f 503e 58df 3a3e 087f 14be
000003d0: 0a77 22be 1240 b8bd 09c6 cebd bf0a 763e
000003e0: 74bf 01bd 2b9d 8abd 9fe5 c7bd ed9e dfbd
000003f0: 9ae4 8f3d f3cd 4bbe cae4 4ebe bca4 2bbe

encoder.lstm.weight_hh_l0 f4 [128, 32]
0.16768463 -0.0183713 0.08994971 -0.05553965 -0.095113546 0.110757925 -0.18102542 0.1824908
0.20453198 -0.033354297 0.09218609 0.19505121 0.036385115 0.044723544 0.10374578 -0.09830476
0.004433173 -0.09369425 0.19006358 -0.10812479 0.013915893 -0.027229838 0.10481718 0.025025027
0.08727377 -0.044100504 -0.06355908 0.10515067 -0.14597672 -0.149244 0.09826415 -0.06365784
-0.064074196 -0.034824073 0.009310206 -0.073111095 -0.072651885 -0.0407698 0.11255295 0.060121343
-0.07415291 -0.105856255 0.010174872 0.06355103 -0.0071472935 0.09736904 0.16089647 0.040283654
0.04509977 0.100555755 -0.05166602 0.023687853 0.13799845 -0.08009908 0.022684732 -0.06321623
-0.13814595 0.09586731 0.1512307 -0.08983133 0.05769465 0.05457321 0.07626203 0.10741564
0.17264397 0.11193513 -0.12409373 -0.025936414 0.11876394 -0.103855886 0.04300343 -0.11516259
-0.0032840383 0.08173101 0.03218226 0.10600661 -0.002699656 0.11695043 0.025625592 -0.02201921
-0.09167353 0.15624987 -0.091754854 0.17144728 0.13883995 -0.029846627 -0.16742173 -0.013994856
-0.077418864 0.029335454 -0.105157815 0.09899411 -0.122088835 -0.040415436 -0.0027317205 -0.028702077
0.16567156 -0.07195642 -0.11289069 0.16451907 0.06648943 0.114007466 -0.085665405 -0.14406998
-0.103109546 0.007935239 0.034156658 -0.12758087 0.0035677096 -0.007958896 0.12837379 -0.038958993
0.21358518 -0.11143068 -0.11174702 -0.09614963 0.15253885 -0.14166403 0.04720523 -0.0960468
0.19432989 0.017168824 -0.19035468 -0.011240184 0.05347233 -0.16077879 -0.0055689113 0.11719871
0.042932134 0.0033976238 -0.038625434 0.02389502 -0.10003899 0.1720269 0.13206889 0.09233622
-0.05354243 -0.13821238 -0.093555145 0.18898451 -0.17017134 -0.17744456 0.0034696413 0.05298857
-0.20766073 -0.1701558 0.016504245 -0.07142262 0.10651766 0.06518226 -0.14297575 -0.14870338
0.10512919 -0.03592186 -0.061744668 0.070566036 -0.05419622 0.07601542 0.05734246 -0.056637492
-0.14286776 0.100641966 -0.110971235 -0.025561165 0.021210609 -0.100853525 0.09590151 -0.11898854
0.049697455 0.019726777 0.070515946 -0.17012534 0.007887786 0.082392626 -0.108420394 0.0351189
-0.0053486363 0.15141317 -0.030302467 -0.0045759804 -0.07814483 -0.039940286 0.05496552 -0.16684055
0.1333644 0.1285818 0.07843742 0.13909394 -0.059830926 0.03929687 0.014796898 -0.115463026
-0.06356738 -0.06569625 -0.033482797 -0.16326508 -0.10637553 -0.009463 -0.027964167 -0.17142916
0.02224274 0.09080792 0.14438798 0.15092207 -0.1217365 -0.05264378 -0.089221284 0.062264495
0.04438167 0.035557233 0.09480069 0.10246215 -0.09077648 0.1179159 0.11909989 0.024326682
-0.14773393 -0.12735155 0.044024207 0.06034628 0.1699696 0.087731354 0.057688154 -0.008795568
0.12473536 -0.076184556 0.08962529 -0.062825575 0.009437552 0.10398632 0.079321 -0.060992017
-0.022738745 -0.0791343 0.070855044 0.116788365 0.06810699 -0.16531442 -0.14107071 0.13766985
-0.016302718 0.10282011 0.109321795 -0.030657081 -0.09250934 -0.17604055 0.05360137 0.0763155
-0.033537015 -0.17797567 -0.12741911 -0.028086854 0.09610492 -0.057760518 -0.13037397 -0.14432731
00000000: 85b5 2b3e 697f 96bc 8e37 b83d 8b7d 63bd
00000010: e4ca c2bd 0dd5 e23d ba5e 39be dede 3a3e
00000020: d570 513e 849e 08bd 10cc bc3d 81bb 473e
00000030: 8f08 153d 0930 373d ab78 d43d 0254 c9bd
00000040: 2744 913b c5e2 bfbd 07a0 423e 8870 ddbd
00000050: 7cff 633c 1c11 dfbc 64aa d63d 4901 cd3c
00000060: 97bc b23d bba2 34bd 432b 82bd 3c59 d73d
00000070: ec7a 15be 6bd3 18be b73e c93d 0b5f 82bd
00000080: 5539 83bd b0a3 0ebd d689 183c 45bb 95bd
00000090: 83ca 94bd 3cfe 26bd 2982 e63d cc41 763d
000000a0: 7bdd 97bd 2acb d8bd 82b4 263c 0b27 823d
000000b0: d833 eabb 6b69 c73d 0bc2 243e 7900 253d
000000c0: 89ba 383d 2df0 cd3d c09f 53bd 070d c23c
000000d0: 774f 0d3e fd0a a4bd 55d5 b93c 8377 81bd
000000e0: 2276 0dbe 1556 c43d 38dc 1a3e 7df9 b7bd
000000f0: 3a51 6c3d 2988 5f3d 442f 9c3d bbfc db3d
00000100: 95c9 303e 3f3e e53d da24 febd 9a78 d4bc
00000110: 823a f33d 65b2 d4bd 5d24 303d 5dda ebbd
00000120: 0539 57bb 9662 a73d 8cd1 033d fe19 d93d
00000130: b6ec 30bb b583 ef3d c3ec d13c a161 b4bc
00000140: 55bf bbbd f7ff 1f3e f8e9 bbbd e08f 2f3e
00000150: 0f2c 0e3e ea80 f4bc 9a70 2bbe ae4a 65bc
00000160: c88d 9ebd e850 f03c fb5c d7bd 6dbd ca3d
00000170: b609 fabd a88a 25bd aa06 33bb 9e20 ebbc
00000180: cea5 293e e35d 93bd 3c33 e7bd b077 283e
00000190: 9c2b 883d bf7c e93d 5871 afbd 1587 13be
000001a0: 192b d3bd ce02 023c dae7 0b3d 8fa4 02be
000001b0: 3cd0 693b 0866 02bc 6b74 033e 7793 1fbd
000001c0: 13b6 5a3e c535 e4bd 9fdb e4bd 19ea c4bd
000001d0: 2533 1c3e 6010 11be 455a 413d 2fb4 c4bd
000001e0: 6afe 463e a2a5 8c3c 56ec 42be c028 38bc
000001f0: cd05 5b3d 32a3 24be 6a7b b6bb e105 f03d
00000200: 9bd9 2f3d abaa 5e3b b435 1ebd 7dbf c33c
00000210: 3ee1 ccbd d227 303e 113d 073e c61a bd3d
00000220: 4f4f 5bbd 8c87 0dbe d799 bfbd 2885 413e
00000230: 6541 2ebe 07b4 35be ec62 633b 8b0a 593d
00000240: 04a5 54be 523d 2ebe e933 873c 0646 92bd
00000250: ee25 da3d 477e 853d 3c68 12be b345 18be
00000260: f94d d73d cd22 13bd fae7 7cbd ed84 903d
00000270: dbfc 5dbd f9ad 9b3d eddf 6a3d b7fc 67bd
00000280: ed4b 12be 601d ce3d e344 e3bd a665 d1bc
00000290: dfc1 ad3c 4b8c cebd 0368 c43d 43b0 f3bd
000002a0: 8f8f 4b3d 0d9a a13c aa6a 903d 5635 2ebe
000002b0: c63b 013c 77bd a83d 830b debd d6d8 0f3d
000002c0: 9d43 afbb 0e0c 1b3e e13c f8bc 1bf2 95bb
000002d0: 660a a0bd 6d98 23bd 8623 613d 40d8 2abe
000002e0: ad90 083e f3aa 033e cca3 a03d a46e 0e3e
000002f0: 4611 75bd c1f5 203d b06e 723c e177 ecbd
00000300: 9d2f 82bd c18b 86bd 4225 09bd f62e 27be
00000310: 6adb d9bd b30a 1bbc 1c15 e5bc 208b 2fbe
00000320: 6836 b63c 81f9 b93d 71da 133e 518b 1a3e
00000330: fc50 f9bd 01a1 57bd a6b9 b6bd 0e09 7f3d
00000340: 8ec9 353d 76a4 113d dd26 c23d add7 d13d
00000350: 05e9 b9bd e47d f13d a5ea f33d c048 c73c
00000360: 9047 17be 7268 02be ba52 343d a92d 773d
00000370: 830c 2e3e 7fac b33d 6a4a 6c3d 491b 10bc
00000380: 4175 ff3d a606 9cbd 778d b73d b2aa 80bd
00000390: f69f 1a3c c8f6 d43d 0c73 a23d c4d2 79bd
000003a0: 9b46 babc 2a11 a2bd 731c 913d bd2e ef3d
000003b0: ad7b 8b3d 2f48 29be d774 10be 53f9 0c3e
000003c0: 478d 85bc 5a93 d23d 1be4 df3d 8f24 fbbc
000003d0: 8975 bdbd f943 34be 1c8d 5b3d 4d4b 9c3d
000003e0: 1c5e 09bd 413f 36be 287a 02be 6716 e6bc
000003f0: a8d2 c43d 4b96 6cbd c180 05be 8aca 13be

encoder.lstm.bias_ih_l0 f4 [128]
-0.14324327 -0.105029695 0.07799851 0.015800951 -0.10706642 0.0044491226 0.074821524 -0.049745172
0.10612598 0.10510869 0.14768675 0.04751202 0.14108534 0.00038385406 0.18357933 -0.18741503
0.09826422 -0.07253718 0.0278096 0.16967905 0.26646706 -0.024639219 -0.041438587 0.14705487
-0.11815544 -0.106159806 0.047214318 0.20641223 0.03424407 0.02503635 -0.043134384 0.11235226
-0.19052666 -0.075007126 0.1671524 0.16418855 -0.051549762 0.014034337 0.0960629 0.098771535
0.10447272 -0.054167747 0.09392495 -0.092184216 -0.02265135 0.22186196 0.43876815 -0.04342266
0.0049456297 -0.073449425 -0.07865151 0.3292475 0.119568065 -0.06540248 0.23654471 0.0385916
-0.04610489 0.118976414 0.351246 0.15390761 -0.075463206 -0.08329286 0.28439355 0.10824128
-0.2344268 -0.02643223 0.1079775 0.15218177 0.200341 -0.026289646 0.07443251 0.041626327
-0.09262201 -0.013599086 -0.15394138 -0.11381358 -0.08779775 0.18764251 -0.30722657 0.14640664
-0.020003293 -0.07104113 -0.04512337 -0.07070891 0.056234185 0.10551128 0.10146325 -0.07027728
0.096605666 -0.0027122067 -0.24756528 0.08834537 0.0038618806 0.10912167 0.07973721 -0.10774795
0.1315166 -0.04350779 -0.109301984 0.109387465 -0.025404042 -0.0466763 -0.04949217 -0.0561743
-0.09561727 -0.118956685 -0.16473229 0.20980217 -0.014934363 0.028636675 -0.14769322 -0.02546519
-0.10580494 -0.015777128 0.15165904 0.081423536 -0.06782282 -0.05739728 -0.13940331 -0.08918166
0.046692275 -0.11382838 0.09815577 -0.102538265 0.17990059 -0.04200413 -0.09647007 0.0895608
00000000: 5dae 12be cf19 d7bd afbd 9f3d ff70 813c
00000010: a445 dbbd f2c9 913b 073c 993d 98c1 4bbd
00000020: 9458 d93d 3a43 d73d 323b 173e f79b 423d
00000030: ad78 103e 0540 c939 38fc 3b3e bae9 3fbe
00000040: c03e c93d 5f8e 94bd f5d0 e33c 58c0 2d3e
00000050: 5f6e 883e 30d8 c9bc 82bb 29bd 8d95 163e
00000060: 7bfb f1bd 506a d9bd cd63 413d ba5d 533e
00000070: 8343 0c3d 0819 cd3c aead 30bd f118 e63d
00000080: 6c19 43be 569d 99bd 002a 2b3e 0b21 283e
00000090: d825 53bd 47f0 653c a0bc c43d bb48 ca3d
000000a0: cbf5 d53d 00df 5dbd b95b c03d 14cb bcbd
000000b0: 538f b9bc c82f 633e 38a6 e03e f6db 31bd
000000c0: f30e a23b a76c 96bd 0b14 a1bd 2193 a83e
000000d0: 1ae0 f43d bcf1 85bd c738 723e 3a12 1e3d
000000e0: 7bd8 3cbd e8a9 f33d 84d6 b33e f599 1d3e
000000f0: 748c 9abd 7295 aabd 089c 913e 9bad dd3d
00000100: 940d 70be 6788 d8bc 4f23 dd3d 8ad5 1b3e
00000110: 3126 4d3e 625d d7bc 1270 983d 5e80 2a3d
00000120: 9cb0 bdbd b3ce 5ebc cfa2 1dbe 1817 e9bd
00000130: 4fcf b3bd 5c25 403e cd4c 9dbe 9feb 153e
00000140: f2dd a3bc 037e 91bd 48d3 38bd d5cf 90bd
00000150: d155 663d 4c16 d83d f7cb cf3d 89ed 8fbd
00000160: 31d9 c53d 47bf 31bb c181 7dbe 6bee b43d
00000170: 9b17 7d3b 2f7b df3d 434d a33d f5aa dcbd
00000180: 4aac 063e 3935 32bd b8d9 dfbd 8906 e03d
00000190: 231c d0bc a62f 3fbd 4db8 4abd 0617 66bd
000001a0: fdd2 c3bd 909f f3bd 95af 28be 61d6 563e
000001b0: 42af 74bc 7697 ea3c e43c 17be 609c d0bc
000001c0: 43b0 d8bd 093f 81bc 824c 1b3e 62c1 a63d
000001d0: b1e6 8abd 6919 6bbd bebf 0ebe e0a4 b6bd
000001e0: 6640 3f3d db1e e9bd e405 c93d 95ff d1bd
000001f0: dc37 383e 860c 2cbd 1a92 c5bd a76b b73d

encoder.lstm.bias_hh_l0 f4 [128]
0.061951455 0.11159531 0.20353848 -0.072684966 0.06692986 -0.106639355 0.12594295 0.17191355
-0.0028537752 0.11361243 0.04861304 0.10808078 0.11459615 0.2108456 0.07285644 -0.02855249
0.043940924 -0.150787 0.12215666 -0.09523147 0.21308236 0.1781046 0.08438235 0.19847368
-0.036037542 0.088136405 0.26834407 -0.116572306 -0.11802235 -0.05196859 0.13002107 -0.0029501203
-0.05875182 0.08320823 0.35258055 0.13500021 0.017316844 0.078494586 -0.015048332 -0.122676365
-0.21451405 -0.15859258 -0.1708034 0.06910491 -0.022330498 0.061549608 0.30684906 -0.043209903
-0.082243204 -0.17341533 0.07393416 0.23040669 0.09351154 -0.10441841 0.15139349 0.16208963
-0.15888774 -0.09881225 0.18683152 0.2728711 0.019052457 0.110455886 0.113134086 0.044090763
0.026525257 -0.07065154 0.17333886 0.25910193 0.1223293 0.07714545 -0.041260503 0.07972348
-0.17310752 0.028898386 0.033652868 -0.038457148 0.09132748 -0.0033755817 0.000197074 0.0003492655
0.21626185 0.054441534 -0.12782 0.123244 0.15869965 -0.13620287 0.06679446 -0.27520022
-0.09948022 -0.08729651 -0.25685608 -0.17955762 0.076479726 -0.0965297 -0.22121137 -0.10346048
0.0068855295 0.13013883 -0.13445348 0.23248972 -0.12448366 0.060943052 -0.17406444 0.06726321
-0.06469243 0.11423227 -0.017675206 -0.035184335 -0.06182 -0.11653784 0.12971976 0.12951282
0.20066653 -0.04255644 -0.05910677 -0.13560796 -0.01608846 0.08138663 -0.009307661 -0.116232276
-0.0007259106 -0.014403691 -0.14041182 -0.0871209 0.0088859 -0.1709255 -0.040426042 0.033883773
00000000: cfc0 7d3d 158c e43d 646c 503e dbdb 94bd
00000010: 8612 893d bc65 dabd 30f7 003e 1b0a 303e
00000020: 6706 3bbb a2ad e83d 781e 473d 7559 dd3d
00000030: 63b1 ea3d e9e7 573e c235 953d e9e6 e9bc
00000040: 66fb 333d e867 1abe 452d fa3d b808 c3bd
00000050: 4332 5a3e 0d61 363e a7d0 ac3d af3c 4b3e
00000060: 1a9c 13bd dc80 b43d 6564 893e 76bd eebd
00000070: b4b5 f1bd 04dd 54bd 3e24 053e ce56 41bb
00000080: c0a5 70bd 1469 aa3d 7085 b43e 7f3d 0a3e
00000090: 0edc 8d3c c5c1 a03d 478d 76bc bf3d fbbd
000000a0: 92a9 5bbe 1866 22be 16e7 2ebe e086 8d3d
000000b0: 73ee b6bc 711b 7c3d 521b 9d3e defc 30bd
000000c0: 206f a8bd ca93 31be cb6a 973d bbef 6b3e
000000d0: fa82 bf3d 52d9 d5bd e506 1b3e d3fa 253e
000000e0: 78b3 22be 145e cabd c350 3f3e c3b5 8b3e
000000f0: e613 9c3c b236 e23d d8b2 e73d 8498 343d
00000100: 7f4b d93c c1b1 90bd be7f 313e 02a9 843e
00000110: c987 fa3d 6ffe 9d3d c600 29bd 1046 a33d
00000120: 1943 31be 4fbc ec3c 97d7 093d 3e85 1dbd
00000130: e709 bb3d dd38 5dbb a6a5 4e39 9f1d b739
00000140: bf73 5d3e 16fe 5e3d 3fe3 02be 5a67 fc3d
00000150: 2982 223e c478 0bbe 89cb 883d 0be7 8cbe
00000160: 49bc cbbd 83c8 b2bd a482 83be f4dd 37be
00000170: 67a1 9c3d 5db1 c5bd 3c85 62be 17e3 d3bd
00000180: 02a0 e13b 1d43 053e 2cae 09be c911 6e3e
00000190: 4af1 febd 6c9f 793d f33d 32be 4bc1 893d
000001a0: 777d 84bd 9cf2 e93d 98cb 90bc 731d 10bd
000001b0: f836 7dbd 64ab eebd 42d5 043e 029f 043e
000001c0: 877b 4d3e a94f 2ebd f119 72bd d0dc 0abe
000001d0: f2cb 83bc 09ae a63d 297f 18bc 300b eebd
000001e0: 094b 3eba 75fd 6bbc 1ec8 0fbe 716c b2bd
000001f0: 2a96 113c 1807 2fbe c795 25bd b6c9 0a3d

decoder.embedding.weight f4 [60, 16]
-1.0986668 1.0324132 0.8762374 -1.3415314 -0.3623492 1.095069 -1.3762957 0.8103837
0.004851374 0.24812159 0.81671244 0.4183722 0.6870929 -0.09558388 1.0953524 0.46399316
0.048623126 0.8245651 -2.1006162 1.6549891 0.8684834 0.006652547 2.4495454 1.4075328
2.1501987 0.3580686 -1.2400728 0.11227209 -1.4570557 -0.16431786 -0.9445108 -0.395862
0.16019984 -0.030134508 1.7322487 -1.1069808 -0.031041557 0.5976348 1.3025622 -0.95748115
-0.6589468 0.9518999 -0.5310607 1.4844846 -3.0155482 -0.58084244 0.005063584 -0.63462555
0.26419178 1.1379066 1.4062426 -1.1761055 -0.2881265 -0.7089959 2.4424868 0.25544918
-0.29477125 -1.0014054 -2.0857563 0.51798284 0.29439458 -0.11096883 -0.8307062 -1.0805045
-0.9448991 1.1945466 1.5380564 0.5292875 -1.0267797 1.2292739 1.2877326 1.514475
0.9771707 0.32115972 0.72109723 -0.35104057 1.2720526 1.2530226 0.09832417 1.6095557
-1.174356 1.1978658 0.9843568 1.7834158 -0.18042834 0.27782744 0.14077763 0.06578416
-2.1439 1.9487445 0.825685 -0.20843 2.0704885 0.17280461 -0.70406735 1.133489
0.043813247 -0.8814442 -2.1801589 1.2345533 -3.3741078 0.016972542 0.34912217 -0.55719334
-1.4068946 0.25873232 -0.94822085 -0.9646777 -1.0903207 1.1010511 1.4887239 0.0464817
-0.63016313 -1.505002 -0.2020869 -0.6012471 2.1078894 -0.26490054 0.28727788 -1.9784245
0.10343731 0.39637607 -0.4340361 -0.46079704 0.16195278 -0.507719 -0.6059303 0.50588703
1.4945859 -2.1058254 -0.45085308 0.44386104 2.4022963 -2.25644 -1.5059507 -1.0178863
1.4999896 -1.5531673 1.6106032 0.1829772 -0.049641393 -1.344601 0.03316746 0.67528087
0.072146915 -0.7094151 0.4505118 -0.19061819 0.54954624 1.395053 0.28503808 -0.97822714
-1.2088795 1.3708943 0.029153178 1.5154676 -0.27456623 0.94556814 -1.2122486 1.2679671
-1.3119737 -0.7318697 -0.6822061 -0.75811714 0.9373106 -1.9929802 -0.6603828 -0.4723362
-0.25845093 -1.6980737 -0.8113694 1.2685728 -0.46500307 0.7952877 1.5876327 0.6646933
-0.95288384 0.72287023 0.20681626 -0.47861272 -1.3485471 0.030027453 -0.7286478 0.5937191
-0.8736637 -0.17242037 0.49776107 1.6698713 -1.7186944 0.07216462 2.0081127 0.33056372
-1.3492864 -1.6022537 -1.6301343 -0.68397063 0.012070185 -0.1890345 0.45054555 0.7357909
0.71188843 -1.6133722 -0.36749336 -1.1309426 3.4338331 1.876041 0.35401228 1.3253089
-0.8178418 -0.97002286 0.016020881 -1.3421887 -1.9707547 1.731202 1.8201847 -1.400954
0.020149456 -0.99715775 1.4338831 -0.07074099 -0.47847426 1.1170046 -1.1675678 1.1710756
0.6775974 -0.05558507 0.75841624 -0.52013993 -0.047485407 0.7111025 0.57891345 1.4031628
2.2607243 1.9596419 -0.6561772 1.2124591 1.0021023 0.7580948 -1.6850244 -1.6993235
-0.93829757 -0.7018778 -1.6794082 -1.5770658 1.5262963 0.67800915 0.09092016 -0.3262305
3.4423919 -0.15392986 0.48084736 0.91423625 0.46493584 -1.2900013 0.044945054 -0.17900044
00000000: 1da1 8cbf 1e26 843f 1851 603f 4db7 abbf
00000010: d685 b9be 392b 8c3f 752a b0bf 4e75 4f3f
00000020: 46f8 9e3b 9613 7e3e 1114 513f e234 d63e
00000030: 52e5 2f3f 7bc1 c3bd 8234 8c3f 8390 ed3e
00000040: 0b29 473d b316 533f 7f70 06c0 afd6 d33f
00000050: ee54 5e3f 9cfd d93b 5ac5 1c40 092a b43f
00000060: db9c 0940 c454 b73e b5ba 9ebf e9ee e53d
00000070: cd80 babf f142 28be 76cb 71bf 6dae cabe
00000080: 6d0b 243e a5dc f6bc 53ba dd3f 8cb1 8dbf
00000090: dd4a febc 98fe 183f 5cba a63f 7c1d 75bf
000000a0: bdb0 28bf b6af 733f 98f3 07bf 9703 be3f
000000b0: befe 40c0 17b2 14bf 6cec a53b d276 22bf
000000c0: 2544 873e eca6 913f c2ff b33f a08a 96bf
000000d0: 5185 93be c180 35bf b451 1c40 3cca 823e
000000e0: 42ec 96be 0d2e 80bf 087d 05c0 869a 043f
000000f0: e3ba 963e a043 e3bd 29a9 54bf f94d 8abf
00000100: e8e4 71bf e7e6 983f 08df c43f 637f 073f
00000110: 846d 83bf d958 9d3f 6cd4 a43f 51da c13f
00000120: dc27 7a3f 0c6f a43e d499 383f 97bb b3be
00000130: 9fd2 a23f 0b63 a03f 2f5e c93d ec05 ce3f
00000140: 4c51 96bf ab53 993f cffe 7b3f f846 e43f
00000150: 35c2 38be 663f 8e3e 0328 103e d8b9 863d
00000160: a835 09c0 7670 f93f 1860 533f ad6e 55be
00000170: e282 0440 b1f3 303e c23d 34bf 2b16 913f
00000180: 8575 333d 54a6 61bf b987 0bc0 d805 9e3f
00000190: 62f1 57c0 000a 8b3c 24c0 b23e 39a4 0ebf
000001a0: 1f15 b4bf 9078 843e 9abe 72bf 1ef5 76bf
000001b0: a18f 8bbf 3eef 8c3f 818e be3f 9863 3e3d
000001c0: 5f52 21bf e8a3 c0bf deef 4ebe 54eb 19bf
000001d0: a9e7 0640 0ba1 87be 1616 933e 043d fdbf
000001e0: f1d6 d33d cef1 ca3e fb39 debe 97ed ebbe
000001f0: f3d6 253e dff9 01bf 401e 1bbf d081 013f
00000200: 974e bf3f d8c5 06c0 37d6 e6be c141 e33e
00000210: 39bf 1940 8369 10c0 fec2 c0bf 194a 82bf
00000220: a9ff bf3f 30ce c6bf 3f28 ce3f 605e 3b3e
00000230: c654 4bbd e31b acbf 9ada 073d 35df 2c3f
00000240: c3c1 933d 3a9c 35bf 7ca9 e63e 6a31 43be
00000250: 10af 0c3f 1991 b23f 83f0 913e 186d 7abf
00000260: 90bc 9abf 7779 af3f a5d2 ee3c d8fa c13f
00000270: f293 8cbe c110 723f f62a 9bbf bf4c a23f
00000280: c1ee a7bf d05b 3bbf 0fa5 2ebf f713 42bf
00000290: 96f3 6f3f fa19 ffbf d90e 29bf 0dd6 f1be
000002a0: ae53 84be 7b5a d9bf e8b5 4fbf 9860 a23f
000002b0: e214 eebe fa97 4b3f 8c37 cb3f 5729 2a3f
000002c0: 32f0 73bf 060e 393f a4c7 533e ba0c f5be
000002d0: 319d acbf 22fc f53c aa88 3abf fafd 173f
000002e0: 6da8 5fbf f78e 30be 8ada fe3e 58be d53f
000002f0: 2efe dbbf 0bcb 933d eb84 0040 a63f a93e
00000300: 6bb5 acbf a616 cdbf 3ea8 d0bf b318 2fbf
00000310: 06c2 453c 4392 41be e8ad e63e cb5c 3c3f
00000320: 523e 363f fb82 cebf 1728 bcbe bac2 90bf
00000330: ecc3 5b40 1d22 f03f 1941 b53e b9a3 a93f
00000340: 155e 51bf 6b53 78bf 393e 833c d7cc abbf
00000350: b141 fcbf 0798 dd3f d0fb e83f 7652 b3bf
00000360: 7910 a53c bb45 7fbf 7b89 b73f a7e0 90bd
00000370: 94fa f4be 02fa 8e3f dd72 95bf cee5 953f
00000380: 0677 2d3f 2cad 63bd 9127 423f e427 05bf
00000390: 0f80 42bd d00a 363f ac33 143f d79a b33f
000003a0: b5af 1040 8cd5 fa3f 3bfb 27bf dc31 9b3f
000003b0: e344 803f 8012 423f e1ae d7bf 6f83 d9bf
000003c0: 4534 70bf 43ae 33bf d9f6 d6bf 4bdd c9bf
000003d0: ad5d c33f 0292 2d3f 5934 ba3d af07 a7be
000003e0: 2650 5c40 ca9f 1dbe a031 f63e 630b 6a3f
000003f0: 120c ee3e c31e a5bf 4e18 383d e44b 37be

decoder.lstm.weight_ih_l0 f4 [128, 16]
-0.7098362 -0.7650172 0.99404824 -0.9313626 -0.2390517 0.31314382 0.54309356 0.29897827
-0.962299 1.5674125 -0.963787 -0.10864098 0.1755256 0.5410972 -0.6175945 -0.05491587
0.17170131 -0.41478387 -0.09389799 -0.28183785 0.6447633 -0.0049899127 0.5028922 -0.6667708
0.17444026 -0.17453091 0.38368475 0.724176 0.17499892 -0.36004978 0.036414325 0.22121601
0.01941812 0.20709077 0.46139207 0.54463047 0.83036375 -0.049147733 -0.20346849 -0.3694554
0.025669448 -0.44909626 -0.11232026 0.84724563 -0.3406394 -0.2353355 -0.14602467 0.15052438
-0.0007825147 -1.1279037 0.30692405 -0.66146404 0.58412576 0.16131721 -0.20839967 -0.40884712
0.6103498 -0.012782748 -1.4584066 -0.24875668 0.36298475 0.96685743 0.15267949 0.24867325
0.2592511 -0.34048602 -0.7603788 -0.76944405 1.0556647 0.46885404 -0.44151402 -0.6134182
-0.25613505 -0.09476687 0.015082229 0.118353106 0.41318518 0.24220456 0.1790966 -0.18453148
-0.78758234 0.0031917733 -0.36164665 -0.226808 -0.37401426 -0.11503482 0.20503609 -0.08827356
0.46690503 0.31896427 -0.6262784 -0.03768587 0.39439192 0.63211304 -0.34787264 0.03884604
-0.09269446 0.24779682 -0.14498276 -0.025071658 0.09240618 0.25639078 0.21500316 -0.38576567
0.026113546 0.1966349 -0.10326402 -0.33560368 -0.20531774 0.17664239 0.5203925 -0.24817066
-0.509508 -0.12020155 -0.39015236 0.20549762 0.21689783 0.21120903 0.2673883 -0.38487554
0.45496312 0.2361452 -0.53466195 -0.11869309 0.26964843 0.18779019 -0.47474107 1.4012969
0.1564908 0.26415756 0.121636346 1.2072984 0.064260386 0.68927664 -0.5406949 -0.32178712
0.34658125 0.72724515 -0.07922913 0.19738638 0.33445603 0.14054255 -0.40827534 0.7300234
-0.23735605 -0.14647052 -0.08326725 -0.11507776 0.14435196 -0.058025606 -0.2599143 -0.42777792
-0.06331831 -0.37798676 0.460798 -0.20389406 0.2931324 0.022217747 0.099680446 0.04282435
-0.5102129 -0.11372807 -0.44213948 -0.11582755 0.042912316 0.14573067 0.08600759 -0.035920177
-0.36288413 0.013905669 0.30819666 -0.5854361 -0.082672365 -0.15891668 -0.070995726 0.6007645
0.13389638 -0.22560512 -0.1024115 0.0020665538 0.12404508 0.009220327 -0.36590767 -0.40519232
-0.3389833 -0.31393147 0.0657883 0.06562454 0.2041039 0.037981443 0.1494665 0.2796731
-0.0386787 -0.24347357 0.14394309 0.007942378 0.55675834 0.0424505 0.34859568 -0.34371448
0.4629291 -0.33219522 0.26897663 0.13618796 0.3809997 -0.092143215 0.46758702 -0.48870692
1.1956843 -0.20046471 -0.062566884 0.10585147 0.5610651 0.009222084 -0.92339945 0.17090236
1.0570642 -0.3753598 -0.091536544 0.4840167 0.21385385 -0.16411772 -0.40889704 0.4886825
0.55671585 -0.23897374 0.20095429 0.41054645 0.026871968 -0.120456725 -0.28059396 -0.06776261
-0.049687225 -0.50290346 -0.30210754 0.4523204 0.17727523 0.24793603 -0.19945534 0.026593331
-0.14328644 -0.38899097 -0.12084873 -0.14969878 0.0659135 -0.25135496 -0.15871371 -0.37899664
0.7685563 0.21332517 -0.17929162 0.81749463 0.20541629 0.23047358 0.03655265 0.41066524
00000000: d3b7 35bf 2bd8 43bf f279 7e3f c86d 6ebf
00000010: f8c9 74be 6354 a03e 2e08 0b3f ae13 993e
00000020: 3a59 76bf f9a0 c83f bfba 76bf 2a7f debd
00000030: fcbc 333e 5985 0a3f ac1a 1ebf 77ef 60bd
00000040: 78d2 2f3e 8d5e d4be 974d c0bd 0d4d 90be
00000050: 350f 253f 6c82 a3bb 8bbd 003f 7eb1 2abf
00000060: 78a0 323e 3bb8 32be 5472 c43e 9963 393f
00000070: eb32 333e 7258 b8be 3027 153d 7386 623e
00000080: c012 9f3c 9a0f 543e 953b ec3e e76c 0b3f
00000090: b892 543f 224f 49bd 0b5a 50be 4229 bdbe
000000a0: bc48 d23c f2ef e5be 2a08 e6bd 17e5 583f
000000b0: 4a68 aebe cafb 70be 7e87 15be 1023 1a3e
000000c0: ac21 4dba 265f 90bf 2625 9d3e b555 29bf
000000d0: 4489 153f 5730 253e b966 55be 6954 d1be
000000e0: e23f 1c3f bb6e 51bc 11ad babf 12ba 7ebe
000000f0: 23d9 b93e f883 773f 0358 1c3e 33a4 7e3e
00000100: 8fbc 843e 2f54 aebe 2fa8 42bf 49fa 44bf
00000110: 0520 873f a30d f03e 200e e2be fa08 1dbf
00000120: 2224 83be 2215 c2bd 741b 773c 1d63 f23d
00000130: 028d d33e 7904 783e 1965 373e d2f5 3cbe
00000140: ff9e 49bf 122d 513b c029 b9be 5b40 68be
00000150: cc7e bfbe 6097 ebbd fbf4 513e c5c8 b4bd
00000160: 2d0e ef3e 494f a33e c853 20bf 805c 1abd
00000170: bded c93e 29d2 213f 5d1c b2be 061d 1f3d
00000180: 98d6 bdbd 73be 7d3e 5c76 14be 1463 cdbc
00000190: 743f bd3d a745 833e ca29 5c3e 1483 c5be
000001a0: 13ec d53c a95a 493e 167c d3bd 3fd4 abbe
000001b0: d03e 52be bee1 343e 7138 053f 7320 7ebe
000001c0: 1e6f 02bf 3b2c f6bd 0dc2 c7be f86d 523e
000001d0: 771a 5e3e 2e47 583e 1fe7 883e 680e c5be
000001e0: edf0 e83e 0cd0 713e 9bdf 08bf 5d15 f3bd
000001f0: 5c0f 8a3e 124c 403e 4311 f3be b25d b33f
00000200: 203f 203e a93f 873e 7a1c f93d c188 9a3f
00000210: f39a 833d 6f74 303f fb6a 0abf 48c1 a4be
00000220: 1973 b13e bd2c 3a3f e242 a2bd a81f 4a3e
00000230: d23d ab3e 63ea 0f3e 7709 d1be d0e2 3a3f
00000240: 770d 73be 5efc 15be 0588 aabd e3ad ebbd
00000250: 00d1 133e 42ac 6dbd 7d13 85be b505 dbbe
00000260: 08ad 81bd 7b87 c1be b7ed eb3e 9bc9 50be
00000270: 7315 963e fe01 b63c 4325 cc3d 9668 2f3d
00000280: 509d 02bf 43ea e8bd 1b60 e2be ff36 edbd
00000290: d3c4 2f3d 6c3a 153e bf24 b03d 0921 13bd
000002a0: f3cb b9be 9ad4 633c f4cb 9d3e 24df 15bf
000002b0: 2150 a9bd 0ebb 22be 3566 91bd b4cb 193f
000002c0: 221c 093e 0705 67be 1fbd d1bd 056f 073b
000002d0: 590b fe3d db10 173c 4058 bbbe 5e75 cfbe
000002e0: 388f adbe a0bb a0be 04bc 863d 2966 863d
000002f0: 9d00 513e 6e92 1b3d bf0d 193e 5031 8f3e
00000300: 8e6d 1ebd 2351 79be d165 133e bf20 023c
00000310: b787 0e3f 93e0 2d3d 227b b23e 58fb afbe
00000320: 0b05 ed3e 7e15 aabe 4eb7 893e db74 0b3e
00000330: 6512 c33e 95b5 bcbd 9167 ef3e cb37 fabe
00000340: 2f0c 993f 9f46 4dbe 1123 80bd a8c8 d83d
00000350: f6a1 0f3f 3918 173c e863 6cbf 0701 2f3e
00000360: e14d 873f 292f c0be 8377 bbbd 09d1 f73e
00000370: 81fc 5a3e 7a0e 28be f45a d1be 9834 fa3e
00000380: ee84 0e3f 88b5 74be f6c6 4d3e 2533 d23e
00000390: 9a22 dc3c 04b2 f6bd 03aa 8fbe 20c7 8abd
000003a0: d584 4bbd 48be 00bf d7ad 9abe 8a96 e73e
000003b0: a387 353e f1e2 7d3e 053e 4cbe 42da d93c
000003c0: aeb9 12be d329 c7be 8a7f f7bd a34a 19be
000003d0: a8fd 863d 99b1 80be d985 22be d90b c2be
000003e0: 1bc0 443f ea71 5a3e 3998 37be 5447 513f
000003f0: a658 523e 4401 6c3e 3bb8 153d b742 d23e

decoder.lstm.weight_hh_l0 f4 [128, 32]
0.7661349 0.33946264 -0.40568742 0.041299645 0.105596155 -0.21109544 -0.003154242 -0.85710347
0.026133081 0.1333956 -0.11054159 0.33033195 0.36621684 0.033891954 0.07730119 0.15504056
0.26978582 -0.38079268 -0.127468 0.1910543 -1.2497197 -0.08290325 0.8789719 0.8573504
0.07026883 -0.20145479 -0.03361568 0.5026942 0.17580475 0.36757055 -0.4600033 -0.08909421
-0.09173832 0.00757947 0.045299515 -0.09177726 -0.18307927 0.005723283 -0.063261315 -0.14278951
0.074602105 0.2670153 -0.23149802 0.307053 0.06528567 0.01941539 -0.19803317 0.028397625
-0.3352263 -0.1910356 -0.07095194 0.28928214 -0.117456 0.49891406 0.16309692 0.23877689
0.033378124 -0.33731407 -0.1286184 -0.055702243 -0.19268627 -0.31073713 -0.03499279 -0.50386405
-0.19447424 -0.43018726 -0.19316493 0.40783054 0.8051228 -0.018605877 -0.13681926 -0.17177472
-0.11092278 0.38542053 0.42991006 -0.07790266 0.13925703 0.2413169 -0.14514893 -0.5144045
-0.06402991 -0.24512726 -0.5489535 0.19584888 0.20441647 -0.663145 0.5161038 -0.4220942
0.08499144 0.050817516 -0.4341801 -0.24273093 0.19742474 0.5184804 0.14377668 -0.19872043
0.3173381 -0.8168485 0.32685658 -0.2202419 0.13802318 -0.025788508 0.064152755 -0.2781033
-0.13588795 0.16742827 -0.2603321 0.17833056 0.08114381 0.22384334 -0.28611255 0.1495441
-0.30110905 -0.054928854 0.18112122 0.33852106 0.0020677478 -0.41799876 0.58251905 0.6724573
0.10763866 0.2911969 -0.004658281 -0.6146621 0.52831846 -0.4149534 -0.040225152 -0.26148298
-0.56464773 -0.002617259 0.19281964 0.2348881 0.083452486 -0.2368605 -0.38857245 -0.04647398
0.24530442 -0.028342152 -0.19596437 -0.06653156 0.26676738 0.42646936 -0.30382696 0.24588923
-0.17004634 -0.07473934 -0.487666 0.3152852 0.22076485 -0.72744936 0.30319342 -0.7032021
1.1435323 -0.16782106 -0.71786314 -0.59393275 -0.12958497 -0.23981796 -1.3461523 -0.14159457
-0.013878917 -0.36051044 0.30310404 0.25056088 0.41466027 0.07827643 -0.8073682 -0.21363716
0.13548096 0.038004454 -0.21352951 -0.08449366 0.30970135 0.9614692 -0.4171062 -0.016243879
-0.37334648 -0.23783359 0.016581256 0.26088732 -0.034069285 -0.05618946 0.10289756 -0.25622562
-0.060685758 -0.040176835 -0.12672096 0.034898672 -0.11542286 -0.3208296 0.40361127 -0.098882504
0.2428192 -0.3731885 -0.10966259 0.20118907 -0.11882152 -0.22274165 -0.15239182 -0.07219662
0.15139972 0.26873276 -0.20341909 0.27139282 0.22075884 0.31146756 -0.13215835 -0.24616677
-0.087891564 -0.13519326 -0.107109375 0.15574175 -0.16102308 -0.44770923 -0.22559345 -0.22030722
0.033416845 -0.10394555 -0.031867243 0.07281401 0.122363396 -0.10999176 0.073218614 -0.51273865
0.012908652 -0.0025156369 -0.24070734 0.22795594 0.3262038 0.28926042 -0.44909978 0.3241631
-0.10729595 -0.46745518 0.8853189 -0.6098687 -0.06671325 -0.22726324 0.30286655 0.40656418
0.70953035 0.8417933 0.040223736 0.5957271 0.74903625 -0.49471134 -0.25019637 -0.89015085
0.99429846 0.15758277 -0.14554164 -0.1620501 0.08808797 0.74476177 -0.1637203 0.81692547
00000000: 6b21 443f 0cce ad3e 43b6 cfbe d129 293d
00000010: cc42 d83d 6729 58be 66b7 4ebb 226b 5bbf
00000020: 0b15 d63c db98 083e a163 e2bd 4521 a93e
00000030: c680 bb3e 4ad2 0a3d 1650 9e3d f4c2 1e3e
00000040: 5e21 8a3e 42f7 c2be f986 02be bda3 433e
00000050: d1f6 9fbf 2ec9 a9bd 4d04 613f 517b 5b3f
00000060: 1be9 8f3d 2a4a 4ebe 98b0 09bd 91b0 003f
00000070: 2906 343e 3532 bc3e 8d85 ebbe 0677 b6bd
00000080: 4de1 bbbd 345d f83b fc8b 393d b7f5 bbbd
00000090: 2279 3bbe 618a bb3b 268f 81bd 6a37 12be
000000a0: fdc8 983d 3bb6 883e d10d 6dbe 0d36 9d3e
000000b0: 7eb4 853d 060d 9f3c 35c9 4abe 23a2 e83c
000000c0: c8a2 abbe d69e 43be 404f 91bd ca1c 943e
000000d0: c58c f0bd aa71 ff3e e102 273e ee81 743e
000000e0: 80b7 083d 6eb4 acbe 8bb4 03be 0928 64bd
000000f0: 8d4f 45be f018 9fbe 9a54 0fbd 3cfd 00bf
00000100: 4124 47be 8141 dcbe 07cd 45be 2acf d03e
00000110: 871c 4e3f 5a6b 98bc 591a 0cbe b6e5 2fbe
00000120: 7c2b e3bd d755 c53e 2c1d dc3e 6e8b 9fbd
00000130: 6599 0e3e c71b 773e eca1 14be 03b0 03bf
00000140: 1d22 83bd a402 7bbe 3788 0cbf 9c8c 483e
00000150: 8d52 513e dfc3 29bf 611f 043f bb1c d8be
00000160: fe0f ae3d 0726 503d db4c debe 758e 78be
00000170: b629 4a3e 22bb 043f 323a 133e 5e7d 4bbe
00000180: 247a a23e fc1c 51bf bf59 a73e 1887 61be
00000190: f355 0d3e 6c42 d3bc 8562 833d 8e63 8ebe
000001a0: 3626 0bbe 5172 2b3e 404a 85be 499c 363e
000001b0: ba2e a63d 3037 653e 587d 92be 1722 193e
000001c0: f72a 9abe 14fd 60bd d777 393e a252 ad3e
000001d0: 0d83 073b ef03 d6be f81f 153f 2926 2c3f
000001e0: a871 dc3d c317 953e 7ea4 98bb 7f5a 1dbf
000001f0: e13f 073f c674 d4be 21c3 24bd 19e1 85be
00000200: c18c 10bf 5286 2bbb 8372 453e 8286 703e
00000210: 23e9 aa3d 8f8b 72be f8f2 c6be 805b 3ebd
00000220: 1531 7b3e cd2d e8bc e2aa 48be b341 88bd
00000230: bc95 883e 315a da3e 358f 9bbe 63ca 7b3e
00000240: a120 2ebe f010 99bd 5caf f9be 106d a13e
00000250: 2e10 623e 1f3a 3abf 2b3c 9b3e 0e05 34bf
00000260: 445f 923f 49d9 2bbe e1c5 37bf fa0b 18bf
00000270: ecb1 04be d792 75be b84e acbf 2bfe 10be
00000280: 6664 63bc d394 b8be 7430 9b3e 8449 803e
00000290: 5a4e d43e 654f a03d afaf 4ebf b3c3 5abe
000002a0: 85bb 0a3e 8faa 1b3d 7ba7 5abe 030b adbd
000002b0: 2d91 9e3e d822 763f f28e d5be e211 85bc
000002c0: 4527 bfbe a68a 73be 6ad5 873c 0693 853e
000002d0: 3c8c 0bbd eb26 66bd f5bb d23d 0130 83be
000002e0: a191 78bd 7790 24bd 24c3 01be e9f1 0e3d
000002f0: d262 ecbd c743 a4be 23a6 ce3e e982 cabd
00000300: 99a5 783e 9012 bfbe c896 e0bd 8204 4e3e
00000310: b258 f3bd 6316 64be 9a0c 1cbe d2db 93bd
00000320: 8708 1b3e 5797 893e 184d 50be 00f4 8a3e
00000330: 9b0e 623e ad78 9f3e 8554 07be 2413 7cbe
00000340: 7e00 b4bd 1a70 0abe 295c dbbd c47a 1f3e
00000350: 3ce3 24be 253a e5be f801 67be 3798 61be
00000360: 1ae0 083d 68e1 d4bd 3a87 02bd 831f 953d
00000370: a999 fa3d 5c43 e1bd a4f3 953d d742 03bf
00000380: d07e 533c 62dd 24bb fc7b 76be 486d 693e
00000390: 2f04 a73e f119 943e 68f0 e5be b5f8 a53e
000003a0: fbbd dbbd 4956 efbe 42a4 623f 5b20 1cbf
000003b0: f5a0 88bd b2b7 68be 5311 9b3e 2e29 d03e
000003c0: c8a3 353f c47f 573f a5c1 243d 9281 183f
000003d0: d7c0 3f3f ce4a fdbe bd19 80be ede0 63bf
000003e0: 588a 7e3f 615d 213e de08 15be 76f0 25be
000003f0: 7767 b43d b5a8 3e3f 4ba6 27be 0722 513f

decoder.lstm.bias_ih_l0 f4 [128]
-0.326459 0.42310274 0.62444514 0.621166 0.2141945 0.3466416 0.6115915 0.3661052
0.5944755 0.32989705 0.092696585 0.40241197 0.7149389 0.023597604 0.10280797 0.52817774
0.32313102 0.36228076 0.127049 0.1037684 0.34109247 0.71555597 0.94790614 0.9674462
1.0524329 0.17796394 0.04961752 0.7826212 0.62533 0.31970772 0.7700281 0.08491063
0.9998247 -0.042127445 0.010114489 0.3602942 0.03296852 0.37867454 -0.42238507 0.46099305
-0.2260644 0.30481464 0.3131375 0.31828746 -0.6738057 0.5911056 0.3086624 0.25438267
0.21856403 0.13318463 0.96107894 0.38298374 0.49502537 -0.18502727 -0.23005417 0.88961136
-0.7060037 0.033454824 0.3082023 0.012582281 -0.06631926 0.2787438 -0.19243227 0.5395484
1.0331832 0.67945963 -0.09066077 0.41196805 -0.07319207 -0.08812586 0.32198778 -0.47966638
0.13272075 0.65287954 -0.63453025 0.4291072 -0.016564261 0.28339309 -0.40704867 -0.00027848172
-0.57997566 -0.12582335 -0.2774883 0.38435775 -0.21743158 0.28010184 -0.33066106 -0.3776022
-0.4141853 -0.31826264 0.3148523 -0.3991437 -0.04286242 -0.056524087 0.41770682 -0.3331513
0.1390406 0.15420651 -0.19679478 0.14978841 0.4804459 -0.07367795 0.58509386 -0.15504259
0.81931645 0.44180253 -0.0062782224 0.8742093 0.6314505 -0.21222512 0.3030674 0.14541897
-0.025703719 0.59088075 0.39186624 0.030367326 0.09497201 0.26821026 0.6968906 0.51039886
0.8870855 0.0057068663 -0.09390362 1.1379126 0.32073605 0.15463565 0.2464792 0.35319754
00000000: a225 a7be eca0 d83e a3db 1f3f bc04 1f3f
00000010: ce55 5b3e 027b b13e 4391 1c3f 2472 bb3e
00000020: 8c2f 183f 44e8 a83e b5d7 bd3d f108 ce3e
00000030: 3c06 373f c34f c13c fc8c d23d a836 073f
00000040: 6e71 a53e dd7c b93e 2219 023e 8784 d43d
00000050: aca3 ae3e ad2e 373f faa9 723f 8eaa 773f
00000060: 1fb6 863f 2e3c 363e be3b 4b3d dd59 483f
00000070: a015 203f bbb0 a33e 9020 453f a0e5 ad3d
00000080: 83f4 7f3f d48d 2cbd 3eb7 253c 7b78 b83e
00000090: 000a 073d a1e1 c13e db42 d8be 4807 ec3e
000000a0: 6d7d 67be aa10 9c3e 8f53 a03e 93f6 a23e
000000b0: 887e 2cbf b252 173f 0009 9e3e 723e 823e
000000c0: 40cf 5f3e 8d61 083e 4509 763f 7216 c43e
000000d0: f773 fd3e ca77 3dbe 5293 6bbe 92bd 633f
000000e0: a9bc 34bf ed07 093d b1cc 9d3e e925 4e3c
000000f0: 64d2 87bd 82b7 8e3e f70c 45be d81f 0a3f
00000100: 593f 843f 11f1 2d3f 5bac b9bd 7aed d23e
00000110: b9e5 95bd 557b b4bd 95db a43e d596 f5be
00000120: f3e7 073e 1d23 273f 9370 22bf f0b3 db3e
00000130: c6b1 87bc e618 913e af68 d0be 2f01 92b9
00000140: 4979 14bf d6d7 00be f212 8ebe 8aca c43e
00000150: 62a6 5ebe 8269 8f3e 684c a9be 1355 c1be
00000160: 1810 d4be 52f3 a2be 5234 a13e 905c ccbe
00000170: 8190 2fbd cd85 67bd abdd d53e cf92 aabe
00000180: a960 0e3e 50e8 1d3e 9284 49be 2262 193e
00000190: 01fd f53e 77e4 96bd b6c8 153f 7cc3 1ebe
000001a0: b9be 513f f133 e23e 8cb9 cdbb 2ecc 5f3f
000001b0: bda6 213f 8b51 59be a62b 9b3e b6e8 143e
000001c0: 9b90 d2bc f643 173f b1a2 c83e e6c4 f83c
000001d0: af80 c23d db52 893e 6c67 323f 80a9 023f
000001e0: 0918 633f aa00 bb3b 8b50 c0bd 1fa7 913f
000001f0: 8437 a43e cf58 1e3e 0b65 7c3e 4fd6 b43e

decoder.lstm.bias_hh_l0 f4 [128]
-0.17301258 0.5122987 0.6797531 0.5805334 0.28292084 0.3767057 0.5943131 0.29633164
0.51297724 0.35279858 0.32630506 0.3706288 0.4619644 0.12174241 0.21040083 0.47853795
0.24283375 0.34387705 0.077671796 0.0700654 0.34748083 0.6362893 0.7193341 1.2559813
0.9259437 0.16871625 -0.009638949 0.5924819 0.8544172 0.41767904 0.63876545 0.111825585
0.79825956 -0.28074157 0.29754 0.1706173 0.18386139 0.29989967 -0.37759158 0.40846223
-0.29975456 0.09365476 0.19106992 0.6095912 -0.5557301 0.5392102 0.2011779 0.17327477
0.21579714 0.14985879 0.8367215 0.24207702 0.71788657 -0.30499554 -0.22399132 0.9255202
-0.5837558 0.13171823 0.27354196 -0.08354108 -0.27580747 0.25360885 -0.22194351 0.5819837
0.9326123 0.47983113 -0.2745885 0.39846537 0.16988496 -0.093634926 0.3123727 -0.6191558
0.10683767 0.58194953 -0.55687374 0.26106822 0.3164796 0.4342819 -0.23228824 0.08381284
-0.3040833 -0.068894655 -0.3860712 0.25714248 -0.40707615 0.21375391 -0.55703413 -0.12489322
-0.596529 -0.26452208 0.4196002 -0.11837571 -0.23517315 -0.12346834 0.6268673 -0.5011423
0.14890787 0.34929538 -0.015564123 0.28615135 0.6082936 -0.28116554 0.5648874 -0.006827048
0.7486678 0.5016557 0.19607924 0.7240522 0.59450525 -0.116944425 0.32606614 -0.1607356
0.085507296 0.4239005 0.5047073 0.095984146 -0.14226437 0.2748433 0.7895328 0.3600983
1.098085 0.20985027 -0.08362188 1.1136123 0.39918083 0.43227714 0.4841875 0.24918576
00000000: 362a 31be 0226 033f 4d04 2e3f d69d 143f
00000010: 00db 903e 92df c03e e724 183f c8b8 973e
00000020: 7a52 033f 04a2 b43e 7511 a73e 0fc3 bd3e
00000030: 9986 ec3e 1654 f93d 5173 573e ed02 f53e
00000040: 69a9 783e a710 b03e 6412 9f3d 737e 8f3d
00000050: 02e9 b13e dbe3 223f 4826 383f ffc3 a03f
00000060: a50a 6d3f f4c3 2c3e afec 1dbc e5ac 173f
00000070: 16bb 5a3f 07da d53e 2286 233f d004 e53d
00000080: bd5a 4c3f 5cbd 8fbe 2a57 983e 4db6 2e3e
00000090: 2946 3c3e 738c 993e af53 c1be f621 d13e
000000a0: 6e79 99be 11ce bf3d d5a7 433e 2b0e 1c3f
000000b0: 5444 0ebf ae09 0a3f 9401 4e3e f16e 313e
000000c0: edf9 5c3e 9574 193e 6133 563f 0ae3 773e
000000d0: 6ac7 373f 6028 9cbe fb5d 65be e4ee 6c3f
000000e0: 0571 15bf 25e1 063e b10d 8c3e 9617 abbd
000000f0: a336 8dbe 05d9 813e 2945 63be e2fc 143f
00000100: aebf 6e3f 6dac f53e dd96 8cbe a703 cc3e
00000110: 53f6 2d3e abc3 bfbd 51ef 9f3e ff80 1ebf
00000120: b5cd da3d a5fa 143f 478f 0ebf bcaa 853e
00000130: 9d09 a23e 325a de3e f8dc 6dbe 11a6 ab3d
00000140: ceb0 9bbe a418 8dbd 20ab c5be 2ea8 833e
00000150: 496c d0be 4ee2 5a3e ca99 0ebf 04c8 ffbd
00000160: 20b6 18bf 706f 87be d6d5 d63e f76e f2bd
00000170: 3bd1 70be f8dc fcbd 607a 203f dd4a 00bf
00000180: 4e7b 183e d8d6 b23e aa00 7fbc 6e82 923e
00000190: 21b9 1b3f eef4 8fbe 769c 103f 6eb5 dfbb
000001a0: b1a8 3f3f 826c 003f ffc8 483e 7c5b 393f
000001b0: 7f31 183f 8f80 efbd 24f2 a63e e097 24be
000001c0: 731e af3d 7d09 d93e 7f34 013f 5693 c43d
000001d0: c0ad 11be 43b8 8c3e d21e 4a3f ce5e b83e
000001e0: 0d8e 8c3f fde2 563e f341 abbd d98a 8e3f
000001f0: 6e61 cc3e 6e53 dd3e 6de7 f73e 8d2a 7f3e
