ckpt_save_dir/seq2seq_traj_7.pth (torch, 71330 bytes, 12 tensors)

encoder.token_embeddings.weight f4 [60, 16]
-1.3302351 -1.3002207 -0.2282501 -0.35366485 1.0372139 0.7104377 -0.4428257 -2.270756
0.35563818 -1.4012994 0.45092788 0.28956333 0.20395532 1.2866654 1.1546531 -0.17409702
-1.3526537 -1.6959312 0.5666506 0.79350835 0.59883946 -1.5550951 -0.3413604 1.8530061
0.7501895 -0.58549756 -0.17339675 0.18347794 1.3893661 1.5863342 0.94629836 -0.84367675
-0.64693964 0.0069835833 -0.49534506 0.24434873 0.4743408 0.12786743 0.6253877 0.39531648
-0.089224316 0.76542985 -0.27210444 0.05457683 0.5334693 2.343018 -1.4515111 -1.5850655
-0.6732969 0.8725902 1.0553708 0.1778131 -0.23011638 -0.3915938 0.54321593 -0.39548558
-0.4461676 0.7438453 1.5210404 3.4105332 -1.5311636 -1.2338343 1.8198383 -0.5515526
-0.56941664 0.9197642 1.110795 1.2898482 -1.4779483 2.567341 -0.47317997 0.33524784
-1.6292704 -0.54990244 -0.47975644 -0.49961147 -1.0669624 1.1151599 -0.14054249 0.8057245
-0.09425603 0.6860179 -0.83833194 0.0007124769 0.84283566 -0.39924607 1.0390804 0.35648897
-0.24583068 2.3015656 -1.8811895 -0.049279578 -1.0448 -0.95511264 0.034132842 0.70992523
1.6440461 -1.3625417 0.34457597 0.5195936 -2.6113517 -1.6949145 -0.2291693 0.27633068
0.2473334 0.07468875 0.33880255 0.45528302 0.4571821 -0.8625268 0.78278095 -0.9271953
-0.22140335 -2.4384649 -0.0730842 -0.034578815 0.9656053 0.35125968 -0.9225904 -0.061643664
-0.62112606 -0.46813935 1.922814 -0.4007864 0.124373354 1.1683974 0.92588896 1.3866642
-0.90009254 -0.44007245 -0.8087048 0.5616763 0.6320929 0.48425555 1.940477 -1.0986086
-0.07256625 0.092230745 -0.5831967 -1.2350874 -0.09591423 -1.0065403 -0.2972861 0.2391796
-0.2933716 0.08282321 0.24227698 1.1565493 0.3203224 0.4126191 -0.21258406 -0.16750486
0.20301595 -0.80860037 -1.8781883 0.13515778 -0.6950831 0.3614323 0.177101 0.38013723
0.9670891 -0.99114734 0.30161 -0.10732746 0.9985174 -0.49866775 0.76108867 0.6182024
0.3140616 0.21328025 -0.1200291 0.3604775 -0.3140348 -1.0786254 0.24085078 -1.396234
-0.06614405 -0.35835508 -1.5615617 -0.3546433 1.0810726 0.13147806 1.5735383 0.78142995
-1.078658 -0.72090983 1.4707927 0.275635 0.66678107 -0.99438965 -1.189364 -1.1959494
-0.5598481 0.5332158 0.40690777 0.39453965 0.1717212 0.8761753 -0.28718144 1.0212721
-0.0743359 -1.092414 0.3921169 0.59460324 0.6622544 -1.2060046 0.607591 -0.54713476
1.1710889 0.09749614 0.96337456 0.8403232 -1.2536547 0.9868361 -0.49465504 -1.283043
0.95522183 1.2835777 -0.6658611 0.5651337 0.2877034 -0.033374783 -1.0618885 -0.11442617
-0.34483814 1.5688702 0.19145493 0.37913346 -0.14253086 0.63916844 -0.28195375 -1.3325173
-0.14126672 -0.53630763 -0.5227 0.8622842 -0.8863341 0.8403655 1.1541114 -1.7614294
-1.4805945 -1.7598678 0.07552272 -1.0794077 1.4437141 -0.10740304 0.5745847 -0.17564297
-0.06304908 1.0342214 0.90841055 -0.47335902 -0.87004346 0.14970133 1.9050437 0.38963088
00000000: 2545 aabf a26d a6bf 65ba 69be 8f13 b5be
00000010: 6dc3 843f 3fdf 353f 0dba e2be 1154 11c0
00000020: 3516 b63e c75d b3bf 05e0 e63e a541 943e
00000030: aad9 503e 74b1 a43f accb 933f 7d46 32be
00000040: c223 adbf 4614 d9bf 0410 113f 5d23 4b3f
00000050: 8b4d 193f 5b0d c7bf cac6 aebe 4e2f ed3f
00000060: 6b0c 403f 2be3 15bf eb8e 31be a4e1 3b3e
00000070: c0d6 b13f 000d cb3f 9c40 723f 33fb 57bf
00000080: d69d 25bf 8bd6 e43b de9d fdbe 8e36 7a3e
00000090: ccdc f23e aeef 023e 6919 203f ec66 ca3e
000000a0: 3dbb b6bd 36f3 433f 4651 8bbe f48b 5f3d
000000b0: 7291 083f 02f4 1540 1ecb b9bf 6de3 cabf
000000c0: 305d 2cbf 1262 5f3f 6416 873f a314 363e
000000d0: a1a3 6bbe fc7e c8be 3310 0b3f 167d cabe
000000e0: 1470 e4be a56c 3e3f 74b1 c23f 2d46 5a40
000000f0: 2bfd c3bf 48ee 9dbf 76f0 e83f 8d32 0dbf
00000100: 4ac5 11bf ab75 6b3f 882e 8e3f bf19 a53f
00000110: 692d bdbf 514f 2440 a544 f2be 9ba5 ab3e
00000120: ef8b d0bf 68c6 0cbf a3a2 f5be 13cd ffbe
00000130: 3992 88bf 8fbd 8e3f 5fea 0fbe f643 4e3f
00000140: 4e09 c1bd de9e 2f3f ec9c 56bf 84c5 3a3a
00000150: 14c4 573f fb69 ccbe 9600 853f b985 b63e
00000160: 0abb 7bbe da4c 1340 d1ca f0bf 62d9 49bd
00000170: 02bc 85bf 4382 74bf e1ce 0b3d a9bd 353f
00000180: 1a70 d23f c467 aebf 436c b03e 1604 053f
00000190: 6320 27c0 f5f2 d8bf 5bab 6abe 377b 8d3e
000001a0: f844 7d3e 6af6 983d 8777 ad3e db1a e93e
000001b0: c613 ea3e 8ece 5cbf 5564 483f ac5c 6dbf
000001c0: 8fb7 62be cf0f 1cc0 2bad 95bd 84a2 0dbd
000001d0: e931 773f 4fd8 b33e e22e 6cbf 117e 7cbd
000001e0: 1e02 1fbf f6af efbe c51e f63f e033 cdbe
000001f0: 75b7 fe3d 0c8e 953f 0f07 6d3f 367e b13f
00000200: 776c 66bf 2d51 e1be 4707 4fbf 05ca 0f3f
00000210: d7d0 213f 58f0 f73e 8d61 f83f 359f 8cbf
00000220: 9d9d 94bd 79e3 bc3d 614c 15bf 5817 9ebf
00000230: ae6e c4bd 50d6 80bf e235 98be 7feb 743e
00000240: cd34 96be 379f a93d 7517 783e cf09 943f
00000250: 4c01 a43e d042 d33e a3af 59be 6586 2bbe
00000260: 6ae3 4f3e 6f00 4fbf 7968 f0bf cd66 0a3e
00000270: f7f0 31bf a80d b93e f759 353e 59a1 c23e
00000280: 2793 773f d5bb 7dbf a06c 9a3e 80ce dbbd
00000290: d69e 7f3f 6151 ffbe b5d6 423f 8342 1e3f
000002a0: afcc a03e 2366 5a3e d1d1 f5bd 8290 b83e
000002b0: 2bc9 a0be 6610 8abf 96a1 763e ccb7 b2bf
000002c0: 8876 87bd 517a b7be 41e1 c7bf ce93 b5be
000002d0: 9660 8a3f 2fa2 063e b469 c93f cb0b 483f
000002e0: 7711 8abf 8c8d 38bf ef42 bc3f 0820 8d3e
000002f0: 2ab2 2a3f 5290 7ebf 143d 98bf df14 99bf
00000300: 3552 0fbf d580 083f 3756 d03e 1a01 ca3e
00000310: afd7 2f3e 064d 603f 7209 93be 0bb9 823f
00000320: 6c3d 98bd 39d4 8bbf 8cc3 c83e eb37 183f
00000330: 8189 293f 5c5e 9abf 158b 1b3f 0611 0cbf
00000340: 3ee6 953f 0eac c73d b79f 763f 6c1f 573f
00000350: c277 a0bf 4aa1 7c3f 6d43 fdbe c13a a4bf
00000360: 6b89 743f 464c a43f e075 2abf 9aac 103f
00000370: dc4d 933e ffb3 08bd f6eb 87bf 4558 eabd
00000380: a08e b0be bdd0 c83f c30c 443e c81d c23e
00000390: 9cf3 11be 8ba0 233f 3e5c 90be ed8f aabf
000003a0: 39a8 10be 754b 09bf abcf 05bf a8be 5c3f
000003b0: cbe6 62bf 3222 573f ecb9 933f 8576 e1bf
000003c0: 1f84 bdbf 5943 e1bf a8ab 9a3d 082a 8abf
000003d0: a0cb b83f 20f6 dbbd fc17 133f c0db 33be
000003e0: e01f 81bd 5e61 843f 988d 683f 1d5c f2be
000003f0: 2bbb 5ebf 4e4b 193e 79d8 f33f b37d c73e

encoder.lstm.weight_ih_l0 f4 [128, 16]
-0.09006822 0.074659124 0.16764902 -0.16393198 -0.20467418 0.0017670781 0.1430953 -0.0442159
0.029552624 0.16387148 0.04212193 0.031212963 0.17256546 0.078779675 -0.13156766 0.020683689
0.097413965 0.15833448 -0.18023686 0.09555565 -0.058328014 -0.17627889 0.044887047 -0.08264842
0.026669336 -0.10770562 -0.128746 -0.01698405 -0.060300983 0.09585388 0.0028611717 0.1398376
0.10143963 0.0021692575 0.1299119 0.021733504 -0.018419504 -0.085486524 0.023179444 0.06790553
-0.03170944 -0.072050266 -0.021344611 -0.15919062 -0.049779173 0.04459566 -0.17791934 -0.11253849
-0.13437553 -0.19719255 0.010080516 -0.018412171 0.20960617 0.009705181 -0.03175408 -0.20168044
0.16267888 -0.15744597 -0.094304994 0.07489241 0.10168737 0.08700256 0.05945429 0.014385487
0.024755223 -0.13348871 -0.09432619 0.07784902 -0.0858393 0.106211506 0.15098676 0.07804939
-0.02366879 -0.019759258 -0.021984462 0.024027923 -0.14223814 -0.06905226 -0.17452565 0.11029686
-0.0486369 0.22564395 -0.031882804 -0.081074394 0.03315623 -0.007915705 0.14030252 0.18711379
-0.18904762 0.18229482 -0.05486091 -0.090693675 0.10475179 0.063768074 -0.21430132 -0.005382545
0.25098136 0.17433962 0.16852094 -0.0298119 -0.179636 0.094288334 0.105197094 0.35176995
-0.10314328 7.478186e-05 -0.056664977 -0.18965037 0.05491636 0.023870274 -0.05311555 2.1410757e-05
0.029133037 -0.17273709 0.16160648 -0.1953991 -0.12121748 -0.007228783 0.12717225 -0.08942103
0.08489867 -0.19496943 0.08275231 -0.0067466814 0.07700407 0.18930407 0.13355255 -0.02621454
-0.114009015 -0.22848207 -0.08571004 0.07887346 0.015038551 0.17906019 -0.10064036 -0.24351504
0.033905238 -0.28074503 0.03584003 0.009105935 -0.004758829 0.08795766 0.2397043 0.10673174
-0.20479351 -0.0046560243 -0.15539859 -0.17775197 0.11730455 0.049837843 -0.10781102 -0.3171698
-0.043442827 -0.033342175 -0.13119125 -0.14924335 0.035302922 -0.038615882 -0.08013075 -0.08421419
-0.05845465 -0.19041741 -0.124425225 0.0014412961 -0.14364928 -0.007715267 -0.12244372 -0.17506479
0.07828175 -0.16854472 -0.123888135 0.10779731 0.03618883 0.19230562 -0.020393085 -0.091362946
-0.10621995 -0.09168899 0.11547362 -0.20077617 0.058813225 0.13109756 -0.12777163 -0.24965696
0.108904034 -0.2658504 0.072396435 -0.112807564 0.1012897 -0.058029562 0.19466786 -0.1791497
-0.19353051 -0.047703277 0.13148692 -0.16754176 -0.04040825 0.1853759 -0.0440529 -0.0160616
-0.15841827 -0.107835434 -0.07489877 0.16026877 0.078622475 -0.07604994 0.07618721 -0.011145204
-0.1293023 -0.15845567 -0.07166715 0.1192749 -0.0820086 -0.09150558 -0.07090065 -0.097409226
0.06652868 -0.058430057 -0.023486078 -0.09285631 -0.025636343 -0.012142312 0.19764178 -0.18307137
-0.1324499 -0.17763667 -0.027673893 0.1241764 0.17882025 -0.12101216 -0.022616317 0.02673554
0.07755741 0.11062194 -0.0050114803 -0.106053814 0.11778146 -0.0051468867 0.13510603 -0.05927115
0.08476357 0.15557054 0.17672837 -0.16647512 -0.11184977 -0.057085723 -0.120264396 0.14288425
-0.026742475 -0.11943519 -0.09246436 -0.09101285 0.07003224 -0.127905 -0.14302586 -0.18467526
00000000: b075 b8bd e2e6 983d 2fac 2b3e c9dd 27be
00000010: 1c96 51be 4d9d e73a 9387 123e bb1b 35bd
00000020: 5818 f23c edcd 273e 0b88 2c3d 54b2 ff3c
00000030: 00b5 303e 3d57 a13d acb9 06be d770 a93c
00000040: f980 c73d 6f22 223e 0390 38be aeb2 c33d
00000050: 5be9 6ebd 7482 34be 7bdb 373d 9343 a9bd
00000060: a779 da3c c494 dcbd fed5 03be 2222 8bbc
00000070: 2afe 76bd 0a4f c43d 7f82 3b3b 9631 0f3e
00000080: 95bf cf3d 1a2a 0e3b a007 053e 760a b23c
00000090: 80e4 96bc 8f13 afbd d1e2 bd3c 0e12 8b3d
000000a0: c2e1 01bd 178f 93bd e5da aebc de02 23be
000000b0: 3fe5 4bbd f0a9 363d 7d30 36be 947a e6bd
000000c0: bd99 09be d8ec 49be c028 253c 1fd5 96bc
000000d0: 00a3 563e 7b02 1f3c 9110 02bd 5185 4ebe
000000e0: 4b95 263e 8439 21be fa22 c1bd 3161 993d
000000f0: 7841 d03d 662e b23d 5786 733d 1bb1 6b3c
00000100: 77cb ca3c 44b1 08be 172e c1bd 4f6f 9f3d
00000110: 84cc afbd 6b85 d93d 469c 1a3e 5cd8 9f3d
00000120: 0de5 c1bc 2bde a1bc c218 b4bc 35d6 c43c
00000130: e0a6 11be 456b 8dbd dab6 32be 52e3 e13d
00000140: 7c37 47bd 350f 673e 8b97 02bd 550a a6bd
00000150: d4ce 073d e0b0 01bc 77ab 0f3e c29a 3f3e
00000160: b395 41be 7eab 3a3e d5b5 60bd 9bbd b9bd
00000170: 1b88 d63d d698 823d ce71 5bbe 0f60 b0bb
00000180: a180 803e 1686 323e c190 2c3e 1638 f4bc
00000190: 80f2 37be 3e1a c13d 9371 d73d 311b b43e
000001a0: c93c d3bd 35d4 9c38 8919 68bd b533 42be
000001b0: faef 603d 988b c33c b18f 59bd 409b b337
000001c0: 68a8 ee3c fee1 30be 2b7c 253e b416 48be
000001d0: df40 f8bd 6ddf ecbb 7139 023e 5f22 b7bd
000001e0: 5bdf ad3d 11a6 47be 0b7a a93d 4413 ddbb
000001f0: 4fb4 9d3d edd8 413e 00c2 083e e0bf d6bc
00000200: 8f7d e9bd 34f7 69be bf88 afbd 6988 a13d
00000210: 4164 763c 8e5b 373e 881c cebd 025c 79be
00000220: 38e0 0a3d d0bd 8fbe ffcc 123d 0f31 153c
00000230: f3ef 9bbb 2523 b43d 0b75 753e 2c96 da3d
00000240: 64b5 51be 9091 98bb cf20 1fbe 9d04 36be
00000250: 5e3d f03d c422 4c3d 06cc dcbd 1464 a2be
00000260: 1bf1 31bd ce91 08bd 0057 06be 40d3 18be
00000270: cc99 103d b02b 1ebd 971b a4bd 7d78 acbd
00000280: 256e 6fbd c8fc 42be a7d2 febd dfe9 bc3a
00000290: cc18 13be 5ad0 fcbb c6c3 fabd 2f44 33be
000002a0: 2f52 a03d fd96 2cbe 10b9 fdbd d6c4 dc3d
000002b0: bd3a 143d c4eb 443e 660f a7bc 7f1c bbbd
000002c0: d889 d9bd 70c7 bbbd 6f7d ec3d 4598 4dbe
000002d0: 23e6 703d 703e 063e 91d6 02be 13a6 7fbe
000002e0: 1409 df3d 8b1d 88be 9544 943d a707 e7bd
000002f0: f970 cf3d 68b0 6dbd 0357 473e 0573 37be
00000300: dd2c 46be 8364 43bd 82a4 063e 1190 2bbe
00000310: 1f83 25bd 2ed3 3d3e d070 34bd 9e93 83bc
00000320: 6638 22be d3d8 dcbd 8764 99bd 7f1d 243e
00000330: d204 a13d 12c0 9bbd 0a08 9c3d 609a 36bc
00000340: d267 04be 3442 22be 3ac6 92bd 6646 f43d
00000350: 20f4 a7bd 4767 bbbd 5c34 91bd 7d7e c7bd
00000360: 3040 883d 5b54 6fbd e065 c0bc 732b bebd
00000370: 4f03 d2bc 8cf0 46bc 9b62 4a3e 1077 3bbe
00000380: f2a0 07be 63e6 35be 5cb4 e2bc 3250 fe3d
00000390: a81c 373e 39d5 f7bd db45 b9bc 7e04 db3c
000003a0: 6bd6 9e3d c18d e23d 5837 a4bb be32 d9bd
000003b0: 6837 f13d 37a7 a8bb 3c59 0a3e 4ec6 72bd
000003c0: 8698 ad3d e24d 1f3e 48f8 343e 7478 2abe
000003d0: 7e11 e5bd b8d2 69bd 2e4d f6bd 4050 123e
000003e0: 0913 dbbc 709a f4bd f45d bdbd f264 babd
000003f0: 106d 8f3d 87f9 02be 5f75 12be 831b 3dbe

encoder.lstm.weight_hh_l0 f4 [128, 32]
0.16977574 -0.032945585 0.098483525 -0.024895592 -0.08008251 0.105470315 -0.16380467 0.16598772
0.19874725 -0.048138503 0.0779592 0.18266156 0.042940218 0.058546696 0.082274355 -0.087745
0.025974933 -0.09165005 0.16649431 -0.090234704 0.024347583 -0.04457287 0.10010045 0.018919606
0.0944787 -0.040959723 -0.085569955 0.080570504 -0.11498974 -0.14902312 0.081811845 -0.08716953
-0.061917357 -0.038952954 0.010064158 -0.061148684 -0.06849067 -0.040725406 0.12702706 0.054816984
-0.08164193 -0.109130576 0.0042009656 0.06068483 -0.0071358173 0.100866586 0.15546499 0.048653867
0.05082814 0.10167128 -0.061724953 0.027853759 0.13398364 -0.08541001 0.015375987 -0.06494994
-0.13574179 0.099042 0.1438309 -0.096325375 0.06388474 0.051364083 0.066255555 0.1034122
0.17687456 0.144179 -0.15634772 -0.07894331 0.0654973 -0.10357577 0.02197464 -0.052728947
0.07771121 0.12995294 0.060853686 0.15015024 -0.05115636 0.078485824 0.09193457 -0.072105326
-0.17898268 0.16119552 -0.039801 0.12050067 0.06916308 -0.0006340843 -0.1281942 0.04928683
-0.10679221 0.06161431 -0.034114376 0.13726033 -0.1717603 -0.07437624 0.04974048 0.048581168
0.15146896 -0.09894446 -0.082638904 0.20641758 0.095531456 0.10900244 -0.10946533 -0.16746163
-0.15699872 0.0002589611 0.0041251387 -0.14346205 0.024723263 0.007479825 0.08945723 0.017242989
0.2371832 -0.12644392 -0.15630378 -0.062029883 0.19325928 -0.16240898 0.008253669 -0.13287193
0.18700165 0.005232837 -0.22548917 -0.04833225 0.09813058 -0.1622787 -0.013703867 0.08182559
0.055158373 0.0044022365 -0.033919297 0.043006927 -0.109377794 0.17510547 0.15130787 0.09415022
-0.04625164 -0.14096065 -0.0983008 0.1777777 -0.168736 -0.17586702 -0.001689276 0.057429723
-0.19902042 -0.16607073 0.012093523 -0.06393286 0.10753209 0.050532315 -0.14389879 -0.14113759
0.109907195 -0.02529407 -0.06213861 0.057132524 -0.040808413 0.069391884 0.06122672 -0.06682574
-0.13781875 0.11536111 -0.12428638 -0.039943002 0.00048123274 -0.097475335 0.0983309 -0.10139084
0.077692874 0.039427068 0.077698916 -0.155741 -0.008938795 0.069774814 -0.080516115 0.013288173
-0.03562748 0.15499154 -0.016514609 -0.023903808 -0.10957485 -0.031891283 0.072161704 -0.14213328
0.13088284 0.14326856 0.10039696 0.15043761 -0.07594679 0.025781695 0.020212952 -0.08878513
-0.060114287 -0.037649434 -0.06391428 -0.19426702 -0.15855329 -0.01259038 -0.026550017 -0.12326687
0.096297555 0.13586722 0.1669055 0.18150243 -0.15605153 -0.08190858 -0.035704818 -0.010649732
-0.012523017 0.044861466 0.13959399 0.056361377 -0.14062631 0.14095032 0.15377757 0.06902948
-0.1792254 -0.08584306 0.09979445 0.08412186 0.13163038 0.064005755 0.094301954 0.045649085
0.12099995 -0.07787036 0.09453731 -0.06056165 0.020874469 0.111307085 0.08711939 -0.05593006
-0.036221117 -0.10273384 0.068943284 0.102077104 0.076845266 -0.1623427 -0.15943156 0.1514251
0.008593945 0.10123006 0.10441051 -0.019503694 -0.08214535 -0.18039064 0.046382193 0.06387874
-0.021860482 -0.18462631 -0.13578415 -0.028783346 0.10491047 -0.051954195 -0.13414754 -0.16169381
00000000: b1d9 2d3e f3f1 06bd bbb1 c93d d7f1 cbbc
00000010: 4d02 a4bd d200 d83d 69bc 27be aff8 293e
00000020: 6684 4b3e e12c 45bd 13a9 9f3d a20b 3b3e
00000030: 15e2 2f3d a9ce 6f3d 757f a83d a7b3 b3bd
00000040: 62c9 d43c 05b3 bbbd 7c7d 2a3e f9cc b8bd
00000050: 9574 c73c 0b92 36bd 7701 cd3d 4afd 9a3c
00000060: 0c7e c13d 62c5 27bd 4d3f afbd 2602 a53d
00000070: be7f ebbd 8499 18be f88c a73d f085 b2bd
00000080: 0e9d 7dbd 228d 1fbd 23e4 243c 0b77 7abd
00000090: d644 8cbd afcf 26bd 6213 023e c687 603d
000000a0: e233 a7bd da7f dfbd 41a8 893b a890 783d
000000b0: 93d3 e9bb 2493 ce3d 3732 1f3e 4749 473d
000000c0: 2b31 503d 0839 d03d 4ed3 7cbd 912d e43c
000000d0: 0233 093e 71eb aebd 90eb 7b3c 7904 85bd
000000e0: e5ff 0abe 88d6 ca3d 6848 133e 3d46 c5bd
000000f0: 01d6 823d 2563 523d feb0 873d c7c9 d33d
00000100: 9b1e 353e a9a3 133e 9e19 20be 08ad a1bd
00000110: 7323 863d 891f d4bd 2904 b43c 4ffa 57bd
00000120: 0e27 9f3d 6212 053e b741 793d fcc0 193e
00000130: 5589 51bd 2dbd a03d 3148 bc3d f5ab 93bd
00000140: 3c47 37be 7010 253e 6006 23bd 0ec9 f63d
00000150: 5fa5 8d3d ad38 26ba 5745 03be fde0 493d
00000160: e0b5 dabd 495f 7c3d 84bb 0bbd f98d 0c3e
00000170: efe1 2fbe 9252 98bd acbc 4b3d 0cfd 463d
00000180: ae1a 1b3e 65a3 cabd 963e a9bd 215f 533e
00000190: ffa5 c33d ac3c df3d 5c2f e0bd 107b 2bbe
000001a0: 46c4 20be 2cc5 8739 2c2c 873b b7e7 12be
000001b0: 7188 ca3c 5219 f53b 5a35 b73d 2b41 8d3c
000001c0: 27e0 723e 847a 01be 190e 20be 0c13 7ebd
000001d0: c3e5 453e 8a4e 26be 663a 073c 940f 08be
000001e0: 5c7d 3f3e 3878 ab3b a2e6 66be 0af8 45bd
000001f0: aff8 c83d 632c 26be 2f86 60bc 2d94 a73d
00000200: bfed 613d a340 903b f6ee 0abd 0828 303d
00000210: 7701 e0bd d94e 333e 73f0 1a3e d5d1 c03d
00000220: 5c72 3dbd fd57 10be ee51 c9bd 5b0b 363e
00000230: 21c9 2cbe 7c16 34be b26a ddba 6e3b 6b3d
00000240: 02cc 4bbe 720e 2abe e923 463c 3bef 82bd
00000250: c939 dc3d f9fa 4e3d 345a 13be 5f86 10be
00000260: 0617 e13d 8235 cfbc 0e85 7ebd cb03 6a3d
00000270: b926 27bd 551d 8e3d dfc8 7a3d efdb 88bd
00000280: 5c20 0dbe 7242 ec3d dc89 febd 469b 23bd
00000290: f74d fc39 26a1 c7bd b661 c93d 00a6 cfbd
000002a0: 711d 9f3d 477e 213d 9c20 9f3d 927a 1fbe
000002b0: 0674 12bc 19e6 8e3d a2e5 a4bd a3b6 593c
000002c0: 1fee 11bd 1ab6 1e3e a549 87bc ebd1 c3bc
000002d0: c768 e0bd 6fa0 02bd 84c9 933d 638b 11be
000002e0: 2706 063e feb4 123e ec9c cd3d 510c 1a3e
000002f0: fe89 9bbd 2234 d33c a295 a53c fad4 b5bd
00000300: 663a 76bd 4b36 1abd 7de5 82bd efed 46be
00000310: cb5b 22be e247 4ebc 6c7f d9bc 5773 fcbd
00000320: a737 c53d c720 0b3e 47e9 2a3e c6db 393e
00000330: f9cb 1fbe b0bf a7bd 373f 12bd 377c 2ebc
00000340: 572d 4dbc a8c0 373d baf1 0e3e 30db 663d
00000350: 5800 10be 4855 103e de77 1d3e 545f 8d3d
00000360: dd86 37be 7cce afbd 0861 cc3d 1548 ac3d
00000370: 1dca 063e 7315 833d 6221 c13d 89fa 3a3d
00000380: d2ce f73d 7f7a 9fbd c79c c13d 7e0f 78bd
00000390: ef00 ab3c f8f4 e33d a76b b23d eb16 65bd
000003a0: 985c 14bd 1f66 d2bd 2332 8d3d cd0d d13d
000003b0: 0d61 9d3d 2a3d 26be 0742 23be 2e0f 1b3e
000003c0: 9ecd 0c3c b551 cf3d 2dd5 d53d 36c6 9fbc
000003d0: d23b a8bd 53b8 38be 41fb 3d3d dbd2 823d
000003e0: c114 b3bc ae0e 3dbe 000b 0bbe 0dcb ebbc
000003f0: 4ddb d63d eccd 54bd f95d 09be 1093 25be

encoder.lstm.bias_ih_l0 f4 [128]
-0.110114045 -0.09225219 -0.040685713 0.09481613 -0.09680501 -0.031879306 -0.0077812094 -0.03476432
0.19261327 0.11934819 0.16064088 0.09297588 0.18670557 -0.111846164 0.0925525 -0.13159367
0.12509723 -0.07545359 0.033628773 0.18023424 0.31340376 -0.054816376 0.046317477 0.15279646
-0.07559446 -0.09535082 0.10528339 0.1977886 0.03002865 0.06195841 -0.11767246 0.121073246
-0.18108754 -0.06304 -0.06529602 0.3763865 -0.05509662 0.0017235032 0.08950956 0.016135477
0.2394434 -0.0507441 0.15975796 -0.08912347 0.03636217 -0.0069634425 0.21929024 -0.0077384207
0.044890635 -0.07572441 -0.03380526 0.15215239 -0.09422375 -0.11055917 0.25396037 0.16824128
-0.05628535 0.13087317 0.50970745 0.1049043 -0.08197403 -0.07793194 0.11250531 0.09474687
-0.2019225 -0.060411785 0.05786993 0.2034081 0.20954102 -0.006658735 0.03454521 0.03190787
-0.15133832 -0.018410722 -0.16204643 -0.15581642 -0.04529215 0.06743035 -0.24806237 0.20523633
0.019545738 -0.119601175 -0.05662832 0.044022962 0.042978793 0.10798688 0.0012565411 -0.09044172
0.15516554 -0.05483651 -0.32396257 0.09419783 0.022513969 0.13533643 0.08757717 -0.11297077
0.1326563 -0.052582458 -0.04659229 0.011532007 -0.027996082 -0.046115417 -0.038627658 -0.004242273
-0.05028234 -0.08935799 -0.19667295 0.23242195 0.024220191 0.079964004 -0.13789026 -0.0012849914
-0.055732876 -0.022599557 0.14209346 0.07379157 -0.0018237779 -0.08181359 -0.13307157 -0.06467937
0.057899255 -0.13618979 0.16772817 -0.108331405 0.12904543 -0.00930397 -0.008427142 0.08969426
00000000: 7983 e1bd b7ee bcbd 10a6 26bd f62e c23d
00000010: b541 c6bd e093 02bd 84f9 febb 0865 0ebd
00000020: 6a3c 453e d36c f43d 0b7f 243e 236a be3d
00000030: bf2f 3f3e 9a0f e5bd 2a8c bd3d 7ec0 06be
00000040: 7d19 003e 6987 9abd 53be 093d 538f 383e
00000050: 7576 a03e 2387 60bd 65b7 3d3d ad76 1c3e
00000060: 45d1 9abd 4a47 c3bd d19e d73d 1889 4a3e
00000070: a5fe f53c 1ac8 7d3d 42fe f0bd 40f5 f73d
00000080: 036f 39be 1e1b 81bd ebb9 85bd bbb5 c03e
00000090: feac 61bd 2ce7 e13a ca50 b73d 8c2e 843c
000000a0: a730 753e 0cd9 4fbd 9797 233e 5e86 b6bd
000000b0: 80f0 143d 972d e4bb 9f8d 603e 9492 fdbb
000000c0: 3edf 373d 6615 9bbd 6277 0abd d6cd 1b3e
000000d0: 62f8 c0bd d96c e2bd 1807 823e 7147 2c3e
000000e0: 788b 66bd 9e03 063e 307c 023f 11d8 d63d
000000f0: 00e2 a7bd c89a 9fbd 2f69 e63d a60a c23d
00000100: c6c4 4ebe 5972 77bd 0509 6d3d 374a 503e
00000110: ec91 563e 8531 dabb 477f 0d3d d4b1 023d
00000120: 6ff8 1abe 15d2 96bc 80ef 25be 578e 1fbe
00000130: 4384 39bd ec18 8a3d 1004 7ebe 7929 523e
00000140: 621e a03c 76f1 f4bd 19f3 67bd 6c51 343d
00000150: 880a 303d 3a28 dd3d 86b2 a43a 8239 b9bd
00000160: b7e3 1e3e 409c 60bd 6cde a5be cbea c03d
00000170: 376f b83c a295 0a3e a95b b33d 385d e7bd
00000180: 0ed7 073e b460 57bd 8fd7 3ebd bef0 3c3c
00000190: 0a58 e5bc 85e3 3cbd 0938 1ebd c402 8bbb
000001a0: dbf4 4dbd 5201 b7bd a264 49be 0500 6e3e
000001b0: 6c69 c63c 2bc4 a33d 1b33 0dbe 286d a8ba
000001c0: 2848 64bd b522 b9bc f380 113e 0920 973d
000001d0: d50b efba e28d a7bd ea43 08be 9e76 84bd
000001e0: c527 6d3d 5675 0bbe efc0 2b3e dbdc ddbd
000001f0: 7c24 043e ae6f 18bc ff11 0abc a0b1 b73d

encoder.lstm.bias_hh_l0 f4 [128]
0.09508116 0.12437273 0.08485421 0.006330869 0.07719121 -0.14296764 0.043339893 0.1868937
0.08363441 0.12785217 0.061566155 0.15354428 0.16021602 0.098615885 -0.018169701 0.02726903
0.07077453 -0.15370376 0.1279759 -0.08467559 0.26001617 0.14792788 0.17213911 0.20421502
0.006523626 0.098945394 0.32641178 -0.12519787 -0.12223807 -0.015046647 0.05548327 0.00577111
-0.04931185 0.095175005 0.12013095 0.34719798 0.013770227 0.06618364 -0.0216016 -0.20531185
-0.07954383 -0.15516943 -0.10497228 0.072165765 0.036682975 -0.16727543 0.087371424 -0.0075256694
-0.04229755 -0.17569011 0.11878049 0.053311918 -0.120279945 -0.14957482 0.16880931 0.2917424
-0.16906722 -0.08691635 0.3452928 0.22386606 0.012541548 0.11581688 -0.058753613 0.03059583
0.059030574 -0.104630776 0.123232596 0.3103285 0.13152927 0.09677654 -0.081148215 0.07000518
-0.2318251 0.024086827 0.02554734 -0.08045975 0.133833 -0.123587914 0.059362046 0.059178434
0.25581175 0.0058815205 -0.1393253 0.23797566 0.14544438 -0.13372578 -0.033411864 -0.29536492
-0.04092069 -0.13942015 -0.33325404 -0.17370375 0.09513149 -0.07031468 -0.21337062 -0.10868329
0.008025176 0.121064864 -0.07174427 0.1346345 -0.12707584 0.061503667 -0.16320066 0.11919531
-0.019357676 0.1438311 -0.04961728 -0.012565198 -0.022665543 -0.065210275 0.13952257 0.1536929
0.25073987 -0.049378876 -0.06867158 -0.14323945 0.04991039 0.05697009 -0.0029766823 -0.09172976
0.010481009 -0.036764897 -0.07083922 -0.09291416 -0.041967943 -0.13822591 0.047616944 0.03401811
00000000: e9b9 c23d 21b7 fe3d 0bc8 ad3d 2e73 cf3b
00000010: 6d16 9e3d 1c66 12be 2c85 313d 1061 3f3e
00000020: 8448 ab3d aeeb 023e cb2c 7c3d b63a 1d3e
00000030: ab0f 243e 20f7 c93d a0d8 94bc 4d63 df3c
00000040: 3df2 903d 8564 1dbe 1d0c 033e 656a adbd
00000050: d720 853e 687a 173e 3c45 303e be1d 513e
00000060: 24c4 d53b e2a3 ca3d 721f a73e df33 00be
00000070: f457 fabd 3686 76bc 6d42 633d 941b bd3b
00000080: 39fb 49bd 1deb c23d 3707 f63d efc3 b13e
00000090: 859c 613c 4a8b 873d d7f5 b0bc 453d 52be
000000a0: e0e7 a2bd bce4 1ebe b5fb d6bd a5cb 933d
000000b0: e340 163d 404a 2bbe caef b23d e499 f6bb
000000c0: 3240 2dbd 1ce8 33be 2f43 f33d 995d 5a3d
000000d0: 5555 f6bd 242a 19be 59dc 2c3e 435f 953e
000000e0: f51f 2dbe 3301 b2bd 38ca b03e 253d 653e
000000f0: 117b 4d3c 6631 ed3d a1a7 70bd 1ba4 fa3c
00000100: 0bca 713d a948 d6bd 5f61 fc3d 61e3 9e3e
00000110: 9caf 063e c732 c63d 0931 a6bd e05e 8f3d
00000120: 8f63 6dbe bd51 c53c a848 d13c 15c8 a4bd
00000130: 850b 093e a91b fdbd 9e25 733d 1665 723d
00000140: c2f9 823e c5b9 c03b 4bab 0ebe e4af 733e
00000150: 5fef 143e 69ef 08be e1da 08bd 123a 97be
00000160: 749c 27bd 28c4 0ebe 46a0 aabe 65df 31be
00000170: 4cd4 c23d 2501 90bd d47d 5abe 5895 debd
00000180: 077c 033c dbf0 f73d a9ee 92bd a0dd 093e
00000190: 2b20 02be 45eb 7b3d 131e 27be ac1c f43d
000001a0: fd93 9ebc 7648 133e 7d3b 4bbd 43de 4dbc
000001b0: 17ad b9bc f78c 85bd 01df 0e3e ac61 1d3e
000001c0: fa60 803e 8141 4abd afa3 8cbd 5dad 12be
000001d0: d66e 4c3d 7859 693d 7114 43bb d0dc bbbd
000001e0: 8ab8 2b3c ca96 16bd 2714 91bd c749 bebd
000001f0: 94e6 2bbd 188b 0dbe fc09 433d 9356 0b3d

decoder.embedding.weight f4 [60, 16]
-1.0986668 1.0324132 0.8762374 -1.3415314 -0.3623492 1.095069 -1.3762957 0.8103837
0.004851374 0.24812159 0.81671244 0.4183722 0.6870929 -0.09558388 1.0953524 0.46399316
0.088139735 0.28027192 -2.322744 1.2273917 0.6827768 0.023473226 2.4365745 1.4804457
2.225356 0.8919217 -1.20333 0.09406732 -1.4054263 -0.24491122 -1.0394818 -0.40224153
0.16019984 -0.030134508 1.7322487 -1.1069808 -0.031041557 0.5976348 1.3025622 -0.95748115
-0.6589468 0.9518999 -0.5310607 1.4844846 -3.0155482 -0.58084244 0.005063584 -0.63462555
0.28942728 1.0284457 1.094709 -0.97216266 -0.3310409 -0.8562045 2.2326875 0.3455699
0.41621804 -0.6179674 -1.9890198 0.53289396 -0.048336796 -0.39251316 -0.21919927 -1.0324926
-1.252891 1.0714512 1.5776289 0.3518776 -1.2276385 1.3200394 1.3038104 1.0074295
0.6844412 0.3014313 0.63528365 -0.2637236 1.3674355 1.0595766 0.44855833 1.6851526
-0.9767092 1.3115288 0.9122058 1.9431684 -0.33799782 0.49460697 0.08516455 -0.35125333
-1.8911462 2.2047212 0.7865678 -0.0051052026 2.1578767 -0.19579737 -0.7243732 1.6608927
0.1638797 -1.2597905 -2.5333943 1.3199589 -3.187559 -0.17257023 0.5581397 -0.43300515
-0.8773306 -0.034773465 -0.4437909 -0.99099404 -0.7353371 0.7363411 2.212022 -0.08037289
-0.21022007 -2.0711808 -0.14416642 -0.34482148 2.165803 -0.52779615 0.001748845 -2.014393
0.3280203 1.0175421 0.056282908 -0.31104818 0.13154504 -1.126329 -0.053174958 1.0776243
1.2659749 -1.7014867 -0.77440345 0.05004465 2.3140483 -1.9571489 -1.5229872 -0.57069373
1.6987878 -1.7683992 1.3224008 0.0082027605 -0.11570831 -1.4727272 0.16280286 0.32768938
0.11594961 -0.6411981 0.38709402 -0.2248533 0.63505125 1.4027972 0.39755067 -0.85595745
-1.2201647 1.4793963 0.098361 1.5520456 -0.26440784 0.87570614 -1.1721029 1.2311957
-1.4869337 -0.42440516 -0.556634 0.08045516 1.0693395 -1.9309279 -0.5722891 -0.93601257
-0.19632058 -1.8743646 -0.9305153 0.66552585 -0.9250049 1.2500801 1.1283083 0.6628323
-0.95288384 0.72287023 0.20681626 -0.47861272 -1.3485471 0.030027453 -0.7286478 0.5937191
-0.8736637 -0.17242037 0.49776107 1.6698713 -1.7186944 0.07216462 2.0081127 0.33056372
-0.83882827 -0.95157933 -1.2963711 -0.036993835 0.0343647 -0.045164697 0.07063553 0.7016828
1.1872418 -1.5477194 -0.10623681 -0.8932765 2.9519522 2.2396688 0.94977355 1.7014759
-0.8178418 -0.97002286 0.016020881 -1.3421887 -1.9707547 1.731202 1.8201847 -1.400954
0.020149456 -0.99715775 1.4338831 -0.07074099 -0.47847426 1.1170046 -1.1675678 1.1710756
0.8483453 -0.02997005 0.70075196 -0.5868059 0.025483036 0.67190677 0.63331723 1.0735925
2.4329975 1.4208846 -0.9525023 1.0432887 1.201027 0.53629434 -1.7662942 -1.4717981
-1.068534 -0.868316 -1.9751425 -1.4305681 1.531884 0.65175027 0.23278187 0.020775773
3.1434128 0.37352872 -0.12485142 0.87490326 0.41722935 -1.1741399 -0.14048444 -0.6232103
00000000: 1da1 8cbf 1e26 843f 1851 603f 4db7 abbf
00000010: d685 b9be 392b 8c3f 752a b0bf 4e75 4f3f
00000020: 46f8 9e3b 9613 7e3e 1114 513f e234 d63e
00000030: 52e5 2f3f 7bc1 c3bd 8234 8c3f 8390 ed3e
00000040: 9b82 b43d cd7f 8f3e d6a7 14c0 2c1b 9d3f
00000050: 76ca 2e3f ec4a c03c d6f0 1b40 3f7f bd3f
00000060: 3c6c 0e40 fb54 643f b806 9abf 5ea6 c03d
00000070: 02e5 b3bf 02ca 7abe bd0d 85bf 9af2 cdbe
00000080: 6d0b 243e a5dc f6bc 53ba dd3f 8cb1 8dbf
00000090: dd4a febc 98fe 183f 5cba a63f 7c1d 75bf
000000a0: bdb0 28bf b6af 733f 98f3 07bf 9703 be3f
000000b0: befe 40c0 17b2 14bf 6cec a53b d276 22bf
000000c0: d02f 943e 1ca4 833f 6d1f 8c3f a7df 78bf
000000d0: 317e a9be 3830 5bbf 5ae4 0e40 8aee b03e
000000e0: 881a d53e 1d33 1ebf 3398 febf bd6b 083f
000000f0: cefc 45bd 7cf7 c8be c675 60be b828 84bf
00000100: bb5e a0bf 5025 893f beef c93f 4d29 b43e
00000110: 4223 9dbf 0df7 a83f 42e3 a63f 73f3 803f
00000120: 8a37 2f3f 3455 9a3e f3a1 223f c806 87be
00000130: 2008 af3f 35a0 873f 70a9 e53e 15b3 d73f
00000140: 9d09 7abf 2de0 a73f 5286 693f beb9 f83f
00000150: 0d0e adbe 203d fd3e c06a ae3d 7ad7 b3be
00000160: 1411 f2bf 271a 0d40 825c 493f 8b49 a7bb
00000170: a71a 0a40 1b7f 48be 8670 39bf 2298 d43f
00000180: 14d0 273e d140 a1bf 2223 22c0 6af4 a83f
00000190: f700 4cc0 40b6 30be 3ee2 0e3f dab2 ddbe
000001a0: bd98 60bf 9f6e 0ebd 9038 e3be c9b1 7dbf
000001b0: 0d3f 3cbf da80 3c3f c591 0d40 8b9a a4bd
000001c0: ee43 57be 3a8e 04c0 5da0 13be 718c b0be
000001d0: 849c 0a40 a61d 07bf 8039 e53a d1eb 00c0
000001e0: 47f2 a73e d23e 823f e888 663d b541 9fbe
000001f0: beb3 063e 8c2b 90bf fccd 59bd 98ef 893f
00000200: 770b a23f 51ca d9bf 4e3f 46bf 9efb 4c3d
00000210: 5e19 1440 db83 fabf 3ff1 c2bf fc18 12bf
00000220: e171 d93f e85a e2bf 6e44 a93f df64 063c
00000230: 7af8 ecbd 5382 bcbf cbb5 263e e7c6 a73e
00000240: fd76 ed3d 8f25 24bf 3031 c63e f23f 66be
00000250: b892 223f dc8e b33f c38b cb3e 0720 5bbf
00000260: 5b2e 9cbf dc5c bd3f 7e71 c93d 6ea9 c63f
00000270: 7760 87be 472e 603f 7807 96bf d297 9d3f
00000280: d853 bebf a24b d9be 917f 0ebf adc5 a43d
00000290: 1ee0 883f a528 f7bf 8a81 12bf 859e 6fbf
000002a0: 4308 49be 2eeb efbf 4036 6ebf e75f 2a3f
000002b0: 1fcd 6cbf a002 a03f 686c 903f 61af 293f
000002c0: 32f0 73bf 060e 393f a4c7 533e ba0c f5be
000002d0: 319d acbf 22fc f53c aa88 3abf fafd 173f
000002e0: 6da8 5fbf f78e 30be 8ada fe3e 58be d53f
000002f0: 2efe dbbf 0bcb 933d eb84 0040 a63f a93e
00000300: 73bd 56bf b49a 73bf 7def a5bf d986 17bd
00000310: 00c2 0c3d 9efe 38bd 5ca9 903d 7ca1 333f
00000320: 8af7 973f ab1b c6bf af92 d9bd c5ad 64bf
00000330: c9ec 3c40 bc56 0f40 5c24 733f f6c9 d93f
00000340: 155e 51bf 6b53 78bf 393e 833c d7cc abbf
00000350: b141 fcbf 0798 dd3f d0fb e83f 7652 b3bf
00000360: 7910 a53c bb45 7fbf 7b89 b73f a7e0 90bd
00000370: 94fa f4be 02fa 8e3f dd72 95bf cee5 953f
00000380: 282d 593f c083 f5bc 7b64 333f e938 16bf
00000390: cdc1 d03c 1502 2c3f 1421 223f 7b6b 893f
000003a0: 3bb6 1b40 8cdf b53f 31d7 73bf 7c8a 853f
000003b0: 41bb 993f 964a 093f ee15 e2bf e163 bcbf
000003c0: b9c5 88bf f549 5ebf 78d1 fcbf db1c b7bf
000003d0: c614 c43f 1bd9 263f 5f5e 6e3e f431 aa3c
000003e0: ad2d 4940 283f bf3e 1ab2 ffbd a9f9 5f3f
000003f0: 169f d53e 374a 96bf 27db 0fbe b68a 1fbf

decoder.lstm.weight_ih_l0 f4 [128, 16]
0.06812321 -0.1375492 0.2670373 -0.16790476 0.63602394 0.16713747 -0.14485882 -0.28871012
0.27496412 0.06512121 -0.09392392 0.42553145 0.18684858 -0.21432973 -0.31924552 0.28891277
0.14351404 -0.2862328 -0.19837928 -0.11163767 0.7401787 -0.15320447 0.3035987 -0.8326286
0.057099663 0.32141542 0.60131913 0.55682737 0.09388334 -0.08409059 -0.554771 -0.10273335
-0.42252186 0.592082 -0.067347154 0.26301667 -0.051143218 -0.18199159 0.5305453 -0.05413638
0.3627094 -0.21327813 -0.9876912 0.3201357 0.30569038 -0.16023332 0.2806165 0.71219164
-0.579708 0.4328173 -0.31044665 0.0450773 0.061263446 -0.2804283 0.4215198 0.07311094
-0.042914875 0.55844253 -0.71585786 -0.14571512 0.9716091 0.21260342 -0.10681093 -0.7665805
-0.17996523 0.20282997 0.558645 -0.43095654 0.7074938 0.23544694 -0.5382125 -0.017402625
0.32287988 0.06508063 -0.046194173 0.38719517 0.5098572 -0.2261899 -0.39479607 0.61844665
-0.3037705 0.20226465 0.5015147 0.1763162 -0.6024212 0.16841584 -0.6800628 0.52360517
-0.32221314 -0.52621746 -0.29683384 -0.13750839 0.7228391 0.3206386 0.23960005 0.202194
0.009497207 -0.16335416 -0.30282775 0.20586623 0.010401753 -0.15374932 0.10994857 -0.79373825
0.5535453 -0.054570854 -0.16700524 0.40336272 -0.054764472 0.3573998 -0.32648185 0.27689874
-0.19434991 -0.9098073 0.5102673 -0.33327046 0.47280467 0.6033594 0.6594767 -0.64363164
0.5893527 -0.7544724 -0.33393025 -0.52770823 -0.1672575 0.61823547 -0.49957493 -0.0006435804
0.93507826 -0.23165527 -0.46557018 0.57209015 0.6074746 0.14215706 -0.6179892 -0.036681134
0.5613997 0.3553025 0.050985206 0.2308148 0.42291802 0.34240472 -0.5274161 0.014116875
-0.074560426 -0.18436535 0.091824435 -0.12639686 -0.019493293 -0.006233357 -0.18319671 -0.11487269
0.081311055 -0.023545917 0.19986264 0.021279352 0.18203564 0.12095469 0.16749758 0.07706532
-0.10941799 -0.12176341 0.022422662 -0.019821836 0.2506397 0.109365605 -0.06736658 0.08566794
-0.09282287 -0.019741831 0.18709378 -0.07770994 -0.041081365 -0.20667705 0.1311489 0.11691328
0.32125583 -0.20812249 -0.014496523 -0.09366096 -0.14024267 0.01910754 -0.36859342 -0.22441033
-0.2425746 -0.23329857 0.1489545 0.13883488 0.08546032 0.19945551 0.13659528 0.22193025
-0.23231617 -0.748097 -0.37731308 -0.037173856 0.35471633 -0.20026115 0.19900337 -0.049512155
-0.14668731 -0.006515307 0.23383237 0.26803827 -0.008843279 -0.11960468 0.5043484 -0.028789181
0.11101886 -0.73516154 -0.105397455 0.14160365 0.037008915 0.079519115 0.31700695 -0.18555248
0.25892016 -0.7338269 -0.6793974 0.3970847 0.08194578 0.26052767 -0.6867204 0.73351276
0.15539464 -0.13239042 0.13969313 -0.042704202 0.17693466 0.01689925 0.19075024 -0.1519651
-0.09117963 0.077436246 -0.14460672 0.12907578 0.030879859 -0.11748992 0.17930856 0.11786316
-0.29181406 0.51503557 -0.087955154 -0.22246198 -0.21760303 -0.5256877 -0.20027247 -0.4197374
0.08796155 -0.06899271 -0.23997521 0.18509454 0.5140399 0.28077126 -0.38991836 0.2743149
00000000: 2e84 8b3d b3d9 0cbe 1db9 883e 3aef 2bbe
00000010: 77d2 223f 1626 2b3e df55 14be d0d1 93be
00000020: 19c8 8c3e 455e 853d 2f5b c0bd 42df d93e
00000030: 3c55 3f3e 4179 5bbe 2674 a3be 60ec 933e
00000040: 58f5 123e 1b8d 92be f023 4bbe 4aa2 e4bd
00000050: 5a7c 3d3f a2e1 1cbe 4a71 9b3e 2627 55bf
00000060: 56e1 693d 9090 a43e 0df0 193f 3d8c 0e3f
00000070: e945 c03d b037 acbd 7905 0ebf dd65 d2bd
00000080: c954 d8be b092 173f 4eed 89bd 1faa 863e
00000090: 8d7b 51bd 015c 3abe d1d1 073f 1cbe 5dbd
000000a0: 0cb5 b93e 9565 5abe 55d9 7cbf d4e8 a33e
000000b0: 7383 9c3e 3414 24be f7ac 8f3e 3152 363f
000000c0: be67 14bf 3b9a dd3e ddf2 9ebe faa2 383d
000000d0: 61ef 7a3d 4c94 8fbe 71d1 d73e 30bb 953d
000000e0: 82c7 2fbd 17f6 0e3f 7642 37bf 5836 15be
000000f0: 60bb 783f b6b4 593e b0bf dabd 9f3e 44bf
00000100: ce48 38be a9b2 4f3e 5c03 0f3f 56a6 dcbe
00000110: 501e 353f 0119 713e 4bc8 09bf f38f 8ebc
00000120: 8350 a53e fe48 853d 1a36 3dbd 723e c63e
00000130: 0086 023f 539e 67be b622 cabe 8552 1e3f
00000140: cf87 9bbe 771e 4f3e 4463 003f 3c8c 343e
00000150: 4738 1abf 3475 2c3e 9818 2ebf fd0a 063f
00000160: 1ff9 a4be 30b6 06bf 9bfa 97be 00cf 0cbe
00000170: fc0b 393f be2a a43e b759 753e f20b 4f3e
00000180: 2c9a 1b3c 5046 27be 3d0c 9bbe 99ce 523e
00000190: 1d6c 2a3c 7670 1dbe b72c e13d 6e32 4bbf
000001a0: 25b5 0d3f b085 5fbd 6c03 2bbe 8f85 ce3e
000001b0: b650 60bd 1bfd b63e a128 a7be acc5 8d3e
000001c0: aa03 47be 22e9 68bf e1a0 023f 6da2 aabe
000001d0: 7413 f23e c375 1a3f 77d3 283f 0bc5 24bf
000001e0: d2df 163f 1a25 41bf e8f8 aabe e317 07bf
000001f0: 8d45 2bbe ae44 1e3f 49c8 ffbe f3b5 28ba
00000200: 4a61 6f3f 0a37 6dbe 375f eebe 8074 123f
00000210: 7583 1b3f 9f91 113e 8a34 1ebf f53e 16bd
00000220: e4b7 0f3f 36ea b53e ddd5 503d b75a 6c3e
00000230: b688 d83e ac4f af3e be04 07bf 774a 673c
00000240: 23b3 98bd 45ca 3cbe 730e bc3d 2e6e 01be
00000250: 66b0 9fbc 3041 ccbb eb97 3bbe 5f42 ebbd
00000260: 6986 a63d 5ee3 c0bc cba8 4c3e 0952 ae3c
00000270: 8d67 3a3e 18b7 f73d 7c84 2b3e 6cd4 9d3d
00000280: 8a16 e0bd 185f f9bd bbaf b73c 6761 a2bc
00000290: d953 803e 13fb df3d 7df7 89bd ac72 af3d
000002a0: eb19 bebd 9fb9 a1bc 8395 3f3e 6426 9fbd
000002b0: ef44 28bd 26a3 53be e64b 063e 3b70 ef3d
000002c0: a57b a43e 101e 55be d382 6dbc 51d1 bfbd
000002d0: c69b 0fbe 6a87 9c3c 47b8 bcbe d2cb 65be
000002e0: 7a65 78be d2e5 6ebe 8787 183e bb2a 0e3e
000002f0: d205 af3d 113e 4c3e a2df 0b3e af41 633e
00000300: 4ae4 6dbe 4983 3fbf 2e2f c1be 9d43 18bd
00000310: 619d b53e 4211 4dbe 8ac7 4b3e 42cd 4abd
00000320: 3335 16be 5b7e d5bb c171 6f3e 503c 893e
00000330: 67e3 10bc 4cf3 f4bd fa1c 013f 4ad7 ebbc
00000340: db5d e33d 8c33 3cbf 9fda d7bd 8c00 113e
00000350: a996 173d ebda a23d bc4e a23e 7801 3ebe
00000360: 2f91 843e 14dc 3bbf fdec 2dbf b04e cb3e
00000370: 30d3 a73d e263 853e e8cc 2fbf 7ec7 3b3f
00000380: c61f 1f3e 5b91 07be b70b 0f3e 9aea 2ebd
00000390: 5c2e 353e 4c70 8a3c 0854 433e bd9c 1bbe
000003a0: 63bc babd e596 9e3d c913 14be 712c 043e
000003b0: c2f7 fc3c 8e9e f0bd aa9c 373e 3e62 f13d
000003c0: a768 95be 5fd9 033f d521 b4bd 13cd 63be
000003d0: 54d3 5ebe 7893 06bf 3a14 4dbe d2e7 d6be
000003e0: 2f25 b43d 0d4c 8dbd 10bc 75be 6c89 3d3e
000003f0: 1e98 033f 40c1 8f3e 61a3 c7be 0173 8c3e

decoder.lstm.weight_hh_l0 f4 [128, 32]
0.7653278 -0.5797639 0.071780846 0.6509478 0.3428636 0.5081547 0.17961313 -0.7531313
-0.669855 0.08403999 -0.20071216 0.24296279 -0.28833386 0.15544605 -0.3004983 0.64701194
-0.02467778 0.50825596 -0.5694723 0.18732159 -0.513362 -0.025165457 0.6314349 0.099567495
0.080043994 -0.48821214 -0.015025195 -0.48933396 0.13880244 0.21790393 -0.5112695 -0.28161702
0.075044245 -0.024480356 0.020769969 -0.18071416 0.08785404 0.19020246 -0.067170545 0.13601673
-0.10162565 0.29214847 -0.34309652 0.30312148 0.2315617 0.010464966 -0.08411482 0.018857356
-0.2527605 -0.18969448 0.03624574 0.320641 -0.2979515 0.40589494 0.60444385 -0.0096285995
0.22318156 -0.21315767 -0.10705686 -0.013815398 -0.2233076 -0.25268695 -0.012638789 -0.42084795
0.022967929 0.14640935 -0.32026902 0.9878453 0.11558169 -0.02283707 -0.60945755 -0.16203342
0.45205837 0.3039079 0.02724152 0.03922109 -0.1604988 0.023155976 0.10486683 -0.012241257
-0.30535054 0.34608728 0.16454343 0.25533608 0.025759311 0.040249873 0.21632913 -0.027694913
0.050514292 0.3651911 -0.084076084 -0.11280426 -0.011749881 0.1576942 0.49396098 -0.15090385
0.03463433 -0.22298832 -0.12883313 0.024045974 0.19226255 0.37530276 -0.27882034 -0.01611641
-0.24585226 0.10199138 0.021047378 0.049596693 -0.17882815 -0.114195816 -0.080633625 0.30428514
-0.09225112 0.12303088 0.32602397 0.02726718 -0.34134504 -0.21807446 0.7281453 0.85715014
0.88442516 -0.08678744 0.5493263 -0.12167156 0.32620347 0.056366995 -0.08089059 -0.042497873
-0.31521335 -0.5058527 0.29938903 -0.30686876 1.2385647 0.11576428 -0.8773553 -0.6981988
-0.5318259 -0.07545051 -0.30173555 0.17832136 0.01830781 0.20980911 -0.069838494 -0.090860754
-0.25648394 -0.09622253 -0.14410076 0.30278796 0.46024793 0.036109425 -0.5107303 -0.41512468
-0.33955476 -0.006851645 0.7998075 -0.6693183 0.89966714 -0.45229053 0.80641395 -0.31720906
0.30368865 -0.075900465 0.654867 0.6035687 0.6669216 0.72081065 -0.85704315 -0.47237003
0.23265448 -0.30566725 0.079944655 -0.028489873 0.03923155 0.30114523 -0.11424237 -0.36232966
0.036265504 0.36103407 0.21913902 -0.64126396 0.13315947 0.022176523 0.028906338 1.0516558
0.2906117 0.46295607 1.120485 -0.08043392 0.43177012 -0.0050600753 0.10389633 0.3387896
0.37233734 -0.5819757 0.031529296 0.07291735 -0.0044268314 0.4652599 -0.38174328 -0.091159485
-0.40009156 0.3694293 -0.12043633 0.2342799 0.21157499 -0.14492832 -0.09657116 0.26431313
-0.11769061 0.2634881 -0.008128345 0.11110493 -0.18287687 -0.28423956 0.47016433 -0.086593494
0.3838558 0.15161198 0.18166187 -0.29375723 0.48460922 -0.17972669 -0.57163733 -0.4211812
-0.14355618 -0.11989299 -0.3159708 0.61052185 0.13564478 0.021316778 -0.14938252 0.3746698
0.5432125 -0.19359812 0.18586545 -0.3913644 -0.035703782 0.22153454 0.12970082 0.06729545
0.19372936 0.3779208 -0.24601126 0.09644452 0.13483936 -0.42427784 -0.077583924 -0.24039254
0.27257788 0.01911573 0.00032569308 -0.28174773 0.07608588 0.10101652 0.38672256 0.2568501
00000000: 86ec 433f 686b 14bf d601 933d 84a4 263f
00000010: d18b af3e 6d16 023f 81ec 373e 36cd 40bf
00000020: 9e7b 2bbf 291d ac3d 7d87 4dbe 3dcb 783e
00000030: 7fa0 93be 402d 1f3e eada 99be 93a2 253f
00000040: 0e29 cabc 101d 023f f0c8 11bf 3bd1 3f3e
00000050: b16b 03bf ca27 cebc b8a5 213f 0bea cb3d
00000060: 1bee a33d f1f6 f9be 3c2c 76bc fb89 fabe
00000070: 3a22 0e3e 3522 5f3e 8fe2 02bf 1b30 90be
00000080: ccb0 993d 078b c8bc c825 aa3c 220d 39be
00000090: d2ec b33d 6fc4 423e b690 89bd f847 0b3e
000000a0: 1c21 d0bd 7c94 953e 59aa afbe bd32 9b3e
000000b0: 831e 6d3e 4075 2b3c 6444 acbd be7a 9a3c
000000c0: d369 81be 453f 42be 6a76 143d 0f2b a43e
000000d0: 198d 98be 76d1 cf3e d5bc 1a3f 46c1 1dbc
000000e0: b589 643e 0146 5abe a140 dbbd fb59 62bc
000000f0: bfaa 64be 2f60 81be ec12 4fbc 6279 d7be
00000100: 3d27 bc3c 55ec 153e 4dfa a3be 6ee3 7c3f
00000110: 18b6 ec3d cf14 bbbc 6905 1cbf 17ec 25be
00000120: 3274 e73e d199 9b3e 9c29 df3c 4ba6 203d
00000130: cc59 24be 9ab1 bd3c 6cc4 d63d 8e8f 48bc
00000140: e856 9cbe 5a32 b13e 137e 283e 69bb 823e
00000150: 3105 d33c 0ddd 243d 6285 5d3e 71e0 e2bc
00000160: 13e8 4e3d 54fa ba3e 1530 acbd eb05 e7bd
00000170: 9382 40bc 977a 213e 74e8 fc3e 8a86 1abe
00000180: badc 0d3d 0d57 64be d5ec 03be 10fc c43c
00000190: 79e0 443e af27 c03e 8ac1 8ebe 9006 84bc
000001a0: b2c0 7bbe dbe0 d03d 8d6b ac3c e725 4b3d
000001b0: ba1e 37be 7fdf e9bd 3e23 a5bd 43cb 9b3e
000001c0: 28ee bcbd 9df7 fb3d 9dec a63e 6c5f df3c
000001d0: c7c4 aebe e94e 5fbe bb67 3a3f 316e 5b3f
000001e0: b069 623f 9dbd b1bd a6a0 0c3f f02e f9bd
000001f0: 2404 a73e 14e1 663d f7a9 a5bd 4012 2ebd
00000200: a563 a1be 907f 01bf 8549 993e e71d 9dbe
00000210: 4a89 9e3f d315 ed3d 5b9a 60bf 28bd 32bf
00000220: be25 08bf cc85 9abd 157d 9abe e099 363e
00000230: 43fa 953c 33d8 563e 7c07 8fbd 3415 babd
00000240: dd51 83be 5110 c5bd 268f 13be 0607 9b3e
00000250: 9ea5 eb3e 7ae7 133d 39bf 02bf 398b d4be
00000260: 1fda adbe c483 e0bb 2fc0 4c3f 7258 2bbf
00000270: 9650 663f a092 e7be 2571 4e3f 3a69 a2be
00000280: 147d 9b3e b471 9bbd 5da5 273f 7a83 1a3f
00000290: 60bb 2a3f 0c87 383f 2e67 5bbf 7cda f1be
000002a0: fa3c 6e3e 6b80 9cbe 06ba a33d 9863 e9bc
000002b0: 43b1 203d b52f 9a3e e7f7 e9bd 4683 b9be
000002c0: 238b 143d 75d9 b83e fb65 603e e029 24bf
000002d0: f55a 083e 8aab b53c fccc ec3c a89c 863f
000002e0: 0fcb 943e 9408 ed3e 0d6c 8f3f 8aba a4bd
000002f0: f910 dd3e fdce a5bb 99c7 d43d d575 ad3e
00000300: 00a3 be3e 5cfc 14bf dd24 013d b155 953d
00000310: f40e 91bb 8c36 ee3e db73 c3be d3b1 babd
00000320: cdd8 ccbe d625 bd3e 53a7 f6bd 12e7 6f3e
00000330: 1da7 583e 1768 14be 1ac7 c5bd 0d54 873e
00000340: c607 f1bd eae7 863e c02c 05bc fb8a e33d
00000350: 1344 3bbe d987 91be 61b9 f03e ee57 b1bd
00000360: bf88 c43e 2c40 1b3e 9205 3a3e 5967 96be
00000370: b31e f83e 460a 38be d356 12bf 10a5 d7be
00000380: 6400 13be 758a f5bd edc6 a1be 294b 1c3f
00000390: 77e6 0a3e 86a0 ae3c bbf7 18be b8d4 bf3e
000003a0: f90f 0b3f 963e 46be 8353 3e3e ea60 c8be
000003b0: 213e 12bd f3d9 623e 4bd0 043e 32d2 893d
000003c0: fd60 463e d67e c13e 60ea 7bbe b484 c53d
000003d0: 5413 0a3e f23a d9be 52e4 9ebd 7629 76be
000003e0: 548f 8b3e 9798 9c3c c9c1 aa39 3d41 90be
000003f0: ead2 9b3d c0e1 ce3d 8000 c63e db81 833e

decoder.lstm.bias_ih_l0 f4 [128]
0.8190206 0.3923824 0.5196519 0.24825644 0.5283806 0.069054104 0.5621872 0.34697855
0.562463 0.39781013 -0.045014728 0.32745454 0.9200565 0.6414682 0.04917606 0.11996075
0.14164941 0.36670974 0.46257448 0.09213434 0.45254233 0.6071214 0.8341031 0.5849577
0.8200724 0.32004344 0.3793692 0.7882069 0.31725553 0.0797579 0.34183174 0.057039205
0.81423974 -0.1111068 -0.15748443 0.3012274 0.31492487 0.2012106 -0.18709077 0.6339761
0.062074665 0.32739335 0.29018587 0.06733399 -0.61538684 -0.29728454 0.2242254 0.008880341
0.08113978 -0.15219411 0.70697385 0.36255667 0.6004391 0.5174831 0.27327415 0.0788433
-0.41596448 0.14497471 0.24541114 0.058986194 0.3135023 0.016213614 0.52136517 0.3818784
0.07334765 0.392113 0.027987832 0.13737455 -0.13061059 0.38227332 0.08586819 -0.1935988
0.24066114 0.38708776 -0.2733476 0.37023345 0.05933927 -0.40165967 -0.38600558 0.45029524
-0.30213216 -0.2455628 0.12612002 0.3283146 -0.14390624 0.19255573 -0.2048841 -0.50942796
-0.44599894 -0.30013138 -0.06211851 -0.2991146 0.719921 0.23657528 -0.16145025 -0.37716052
-0.035359934 0.112523556 -0.023423705 -0.19660546 0.30809838 0.3326319 0.36549488 -0.33191818
0.6711985 0.2745777 -0.018298926 0.70211965 0.84026176 -0.11144839 0.016866332 0.556001
-0.18269569 0.6735168 0.31882265 -0.04373498 0.13023534 0.12699305 0.14009099 1.0610589
0.6072104 0.13286336 0.46234655 0.95656776 0.031098569 0.058002286 0.30571342 0.6055215
00000000: 56ab 513f 59e6 c83e e807 053f f036 7e3e
00000010: f343 073f 3d6c 8d3d 80eb 0f3f 2ca7 b13e
00000020: 93fd 0f3f c5ad cb3e 5d61 38bd 1fa8 a73e
00000030: d388 6b3f 4337 243f d66c 493d fbad f53d
00000040: 8b0c 113e 61c1 bb3e 90d6 ec3e eeb0 bc3d
00000050: a1b3 e73e 4f6c 1b3f c887 553f cabf 153f
00000060: 44f0 513f bcdc a33e ae3c c23e edc7 493f
00000070: 516f a23e 1c58 a33d 9204 af3e f1a1 693d
00000080: 0472 503f f68b e3bd 9943 21be 7a3a 9a3e
00000090: d53d a13e 270a 4e3e b994 3fbe 424c 223f
000000a0: 0142 7e3d 1aa0 a73e 3e93 943e 67e6 893d
000000b0: fe89 1dbf ae35 98be 589b 653e da7e 113c
000000c0: 9d2c a63d c6d8 1bbe 3dfc 343f 07a1 b93e
000000d0: 60b6 193f c679 043f 97ea 8b3e 9978 a13d
000000e0: 4cf9 d4be 4074 143e 0f4d 7b3e 829b 713d
000000f0: 6083 a03e 6ad2 843c 3078 053f 9185 c33e
00000100: 4b37 963d 09c3 c83e bd46 e53c eaab 0c3e
00000110: c8be 05be 54b9 c33e a9db af3d c43e 46be
00000120: e06f 763e 5e30 c63e 37f4 8bbe 3d8f bd3e
00000130: bc0d 733d 56a6 cdbe 86a2 c5be 198d e63e
00000140: 11b1 9abe d174 7bbe 9b25 013e da18 a83e
00000150: 285c 13be 542d 453e 23cd 51be df69 02bf
00000160: f959 e4be d2aa 99be fb6f 7ebd 8d25 99be
00000170: be4c 383f ca40 723e 3753 25be 2f1b c1be
00000180: 94d5 10bd c072 e63d 12e3 bfbc f152 49be
00000190: 12bf 9d3e ba4e aa3e 2522 bb3e 2ef1 a9be
000001a0: aad3 2b3f 7395 8c3e a1e7 95bc 1dbe 333f
000001b0: 651b 573f 0e3f e4bd 432b 8a3c 1556 0e3f
000001c0: 9414 3bbe 996b 2c3f b93c a33e 7323 33bd
000001d0: 6a5c 053e 770a 023e 0374 0f3e c7d0 873f
000001e0: 2472 1b3f 550d 083e b0b8 ec3e a0e1 743f
000001f0: 6dc2 fe3c ce93 6d3d 7886 9c3e 7503 1b3f

decoder.lstm.bias_hh_l0 f4 [128]
0.9724649 0.48157814 0.5749601 0.20762478 0.59710604 0.09911811 0.54490936 0.27720487
0.48096132 0.42071167 0.18859562 0.29567143 0.6670864 0.73961407 0.15676868 0.07032757
0.061351586 0.3483061 0.413198 0.058431342 0.45893043 0.52785313 0.6055293 0.8734865
0.69358265 0.31079566 0.32011336 0.59807175 0.54634196 0.17773052 0.21056812 0.08395445
0.61267364 -0.34972233 0.12993975 0.11154813 0.46581623 0.12243507 -0.14229695 0.5814452
-0.011616097 0.116235636 0.16811849 0.358638 -0.49731058 -0.34917802 0.11674443 -0.072226964
0.07837319 -0.13551982 0.58261687 0.221651 0.82330024 0.39751485 0.27933696 0.11475211
-0.29371667 0.24323878 0.21075046 -0.03713716 0.10401407 -0.008921641 0.49185303 0.4243128
-0.027225522 0.19248472 -0.15593967 0.12387241 0.11246676 0.37676388 0.07625351 -0.3330885
0.21477702 0.31615824 -0.19569102 0.20219566 0.39238402 -0.25077415 -0.2112474 0.5343864
-0.026240433 -0.18863352 0.017536713 0.2010986 -0.33355224 0.1262104 -0.431258 -0.2567188
-0.62834024 -0.24638979 0.04262677 -0.018346706 0.5276074 0.16963059 0.047708873 -0.54515445
-0.025492089 0.3076131 0.1578072 -0.060243443 0.43594888 0.12514246 0.34528825 -0.18370149
0.6005486 0.33443257 0.1840591 0.5519622 0.8033164 -0.016167117 0.039865345 0.24984504
-0.071485355 0.50653124 0.4316639 0.02188274 -0.10700111 0.1336263 0.23273364 0.9107592
0.8182136 0.33700728 0.47262865 0.93226564 0.10954275 0.3356421 0.543423 0.50150454
00000000: 76f3 783f 6991 f63e 9630 133f 979b 543e
00000010: f1db 183f 70fe ca3d 2e7f 0b3f cced 8d3e
00000020: 9040 f63e 8567 d73e 361f 413e 3f62 973e
00000030: 2dc6 2a3f 5957 3d3f f887 203e e707 903d
00000040: cd4b 7b3d 2d55 b23e b08e d33e b455 6f3d
00000050: eef8 ea3e 6221 073f f803 1b3f d09c 5f3f
00000060: a28e 313f 9c20 9f3e e6e5 a33e 3b1b 193f
00000070: 11dd 0b3f fdfe 353e 2b9f 573e 50f0 ab3d
00000080: 2ed8 1c3f ce0e b3be ed0e 053e 5973 e43d
00000090: 777f ee3e 3dbf fa3d 4bb6 11be 98d9 143f
000000a0: 7151 3ebc f30c ee3d 4127 2c3e 669f b73e
000000b0: 7e9f febe 76c7 b2be b417 ef3d bbeb 93bd
000000c0: 1f82 a03d b5c5 0abe 6126 153f 7bf8 623e
000000d0: cec3 523f 1187 cb3e 4105 8f3e 2703 eb3d
000000e0: 0862 96be 9613 793e f8ce 573e 221d 18bd
000000f0: 5405 d53d 132c 12bc 29d4 fb3e 873f d93e
00000100: 0f08 dfbc b71a 453e a6ae 1fbe d1b0 fd3d
00000110: f954 e63d 32e7 c03e cd2a 9c3d 938a aabe
00000120: 82ee 5b3e 7edf a13e 3a63 48be 610c 4f3e
00000130: 8fe6 c83e 7865 80be 3d51 58be 8ccd 083f
00000140: 2df6 d6bc 2529 41be 27a9 8f3c cbec 4d3e
00000150: 5cc7 aabe 4d3d 013e d9cd dcbe a670 83be
00000160: e8da 20bf 9b4d 7cbe 6899 2e3d d54b 96bc
00000170: 4711 073f a4b3 2d3e 616a 433d 3e8f 0bbf
00000180: c9d4 d0bc 777f 9d3e 3698 213e d4c1 76bd
00000190: b134 df3e 5825 003e 9fc9 b03e 3e1c 3cbe
000001a0: 8ebd 193f bf3a ab3e fd79 3c3e 654d 0d3f
000001b0: 25a6 4d3f e770 84bc d849 233d 61d7 7f3e
000001c0: ea66 92bd 08ac 013f 0d03 dd3e 6f43 b33c
000001d0: 6623 dbbd 55d5 083e ba51 6e3e 8427 693f
000001e0: 7276 513f 388c ac3e 62fc f13e f6a8 6e3f
000001f0: f357 e03d 48d9 ab3e c51d 0b3f 9a62 003f
