ckpt_save_dir/seq2seq_traj_7.pth (torch, 71330 bytes, 12 tensors)

encoder.token_embeddings.weight f4 [60, 16]
00000000: 117c fabf 0135 e0bf c814 72bf df31 91bf
00000010: 563d d5bf 62c1 ca3f bac9 433f a373 223e
00000020: 22b3 653f b994 e9be 31e5 27bf 1418 b43e
00000030: 9d36 9b3f 7b78 c73f b826 09bf 6725 b5bf
00000040: dc3a 693f 2c5a 8bbf 3a0a 89be 8428 273f
00000050: ddfe 8a3f 2cc4 313f d96a 7bbe 6f4c c6bf
00000060: d297 e8be 9a4b 07bf 1fef 9b3f 2e30 6fbf
00000070: 55d7 c8bd 4ee7 92bf f1a7 93be 98b7 063f
00000080: 5839 cdbf e54c 3ac0 ce4e eb3f 42c5 b8bf
00000090: 8934 83bf 1a59 1340 be67 213e 107c 4e3f
000000a0: 87b5 8bbf e8f2 a8bf 794f d0bd 86bf 653f
000000b0: 53b1 ba3e 9bc2 1cbf a775 94bf 3812 0f3e
000000c0: ef62 02bf 5d1b e0be 2b00 333f ff0f 44bf
000000d0: 77c3 9d3f bcde 813f 2f74 bfbf 365e 70bf
000000e0: c2bc 0240 b834 a3be 750c 1840 a667 aa3f
000000f0: ab2e 493e fc85 75bf 28e9 cc3e c710 cb3f
00000100: d8a1 9dbf 1bdc b8be b42a 8b3e 712a 90be
00000110: 8a8f 573f 46c2 863d 1058 633f 4cdf 2bbf
00000120: c100 7bbf eadb 1b3d 8944 f63f a480 cc3f
00000130: 7f21 76be 250b d6bf 1b19 a33e 6a79 293f
00000140: beed a03e 19e3 413e 7828 cabf 5b39 513e
00000150: a1e0 95be 5885 28bf 050c 1ac0 7384 0040
00000160: 8b80 ac3e dd29 d73f 697a d73f 3994 fd3f
00000170: 53a1 0cbf 17ce 4f3e cb97 dd3f 2a1f 9dbf
00000180: ec0c 543f fb89 de3e 2854 c0be 67db 13bf
00000190: b81c 24bf ddea 0e3f 74dd dbbe b64c 5ebf
000001a0: 8fb6 703f 195a 853f 6269 fc3f c148 7abe
000001b0: 69c6 7cbf 9023 b43d 2c2f c63e 645b 82bf
000001c0: a77d 32bf 7397 eabc af7e b8bd afc1 e1be
000001d0: 7550 153f b1a4 efbe f416 863e fb07 a6be
000001e0: c412 90bd 4b8d b2bf 8567 853e 3872 38be
000001f0: e221 923f 4794 6f3f 0fce 2bbe 8252 8fbe
00000200: d0ff babf db22 22bf b55f 82bf dac3 d7bf
00000210: eea4 1e3f 1307 6fbd 1b2b 4f3d e26c ab3f
00000220: 0db9 8f3f ba99 3340 f72a 01c0 66a0 d33d
00000230: d1a8 c13f 2d84 053f 4e35 dfbf b603 8cbf
00000240: e24c 033f 7639 d33f 9d92 9cbf c77d 09be
00000250: ebc0 813f 22d7 7abf 0691 963f bad8 12be
00000260: bd01 593f 7526 dabe e9e8 5abf 364b 57b9
00000270: ef6f 59bf 3c27 af3f 9dbd eebf d39c 833e
00000280: f081 6ebf b933 0dbf e459 aabe 3669 ea3e
00000290: c24c da3e d98c 343e b3db 943f 07f0 f9bd
000002a0: e5d5 98be 4974 cc3c 3142 363f 6e2d c63f
000002b0: a0ea d4be 83d9 2c3f 6c5f 98bf a645 3ebe
000002c0: fa55 f1be 2f9a 303e 7434 b83f 5a02 e2bf
000002d0: 22ce 7dbf d184 c8bf f209 ab3e b58a 0c40
000002e0: 8a00 1f3f cc19 d8be 8e1f 17bf 8c5c 34bd
000002f0: d98e c9bf 0ee6 d73d 2ea5 a6bf ef9b a3bf
00000300: cc44 d2bf 9f87 6d3c dbc8 a23f 6648 bfbd
00000310: 01eb aabf b0aa ba3f 7f78 87bf 110a 4e3e
00000320: d719 2bbf 934d 353f 40f5 963e 3d84 483e
00000330: 3860 69bd 2c62 903d 9dc9 633f cec4 6c3e
00000340: 0b8d 6cbe ebfc c1bd 140c b1bf 8ec1 4c3f
00000350: 47ea a63e a3dd b9bf db60 bf3d bbc6 423f
00000360: b9cb 15bf b607 f23e d634 fb3c 5a5d 5c3f
00000370: 90a6 673f 723b 033e 697b 36bf 8de5 f73e
00000380: 3794 c5bc 0cea 3bbf 8d1c aebf 5d80 f13f
00000390: bf5d f93f 7f21 223f 2015 9cbe 3d7f 8dbf
000003a0: 694f 013e f906 0dbf c8e6 103b edae 783e
000003b0: af1c 863e dd76 60bf c3e0 d63e e3ac 813f
000003c0: f3a6 213f ec96 023f 5848 81bf e9f8 893f
000003d0: fc53 f03d 7c69 00be 5c11 a7ba f69d 87bf
000003e0: 203f 86bf 9079 4c3f 88d6 d63f bba6 aa3f
000003f0: c220 f3bf d82a 5bbf 73ce d93f 7a88 d1bf
-1.9569112 -1.7516176 -0.9456296 -1.1343344 -1.6659343 1.5840266 0.76479685 0.15864424
0.8972646 -0.4562128 -0.65584093 0.3517462 1.2126042 1.5583643 -0.53574705 -1.4152039
0.9110544 -1.0886893 -0.26765615 0.65296197 1.0859028 0.6943996 -0.24552478 -1.5492076
-0.4542833 -0.52849734 1.2182349 -0.9343289 -0.09806696 -1.1476839 -0.28839067 0.5262389
-1.6033125 -2.9109433 1.8383424 -1.4435198 -1.0250407 2.3023133 0.15762231 0.80658054
-1.0914773 -1.3199129 -0.10171408 0.89745367 0.36463413 -0.61234444 -1.1598405 0.13971794
-0.5093221 -0.43770877 0.6992213 -0.7658691 1.2325276 1.0146098 -1.4957331 -0.93893754
2.0427709 -0.3187616 2.3757603 1.3312881 0.19646709 -0.9590757 0.40021634 1.5864495
-1.2315016 -0.36105427 0.27181017 -0.2815738 0.842034 0.065800235 0.8880625 -0.671376
-0.98048025 0.038051523 1.9239665 1.5976758 -0.24036215 -1.6722151 0.3185509 0.6620089
0.31431383 0.18934287 -1.57936 0.20432036 -0.2927294 -0.65828466 -2.4069836 2.008084
0.3369182 1.6809651 1.6834232 1.9810859 -0.5493366 0.20293461 1.7311949 -1.2275136
0.8283222 0.43464646 -0.37564206 -0.57756656 -0.6410632 0.5582712 -0.42942393 -0.868358
0.9402856 1.0418121 1.971966 -0.24441816 -0.9874025 0.087958455 0.38707864 -1.018414
-0.6972298 -0.02863667 -0.09008538 -0.4409308 0.5832589 -0.46805337 0.26189387 -0.32427964
-0.07034829 -1.3949369 0.26055542 -0.18012321 1.141659 0.9358563 -0.16777824 -0.27992636
-1.4609318 -0.63334435 -1.0185457 -1.6856644 0.6197041 -0.058356356 0.050578218 1.3392603
1.1228348 2.8062577 -2.0182474 0.10333328 1.5129644 0.5215481 -1.7438142 -1.0938632
0.5128919 1.6501911 -1.2232243 -0.13426886 1.0136999 -0.97984517 1.1763008 -0.14340487
0.8476828 -0.42607465 -0.8551164 -0.00020532016 -0.8493642 1.3683848 -1.8651615 0.25705585
-0.9316702 -0.5515705 -0.33271706 0.45783395 0.42636687 0.17631854 1.1629547 -0.12203985
-0.2985069 0.024957793 0.7119475 1.5482614 -0.41585255 0.67519397 -1.190412 -0.18581256
-0.47135907 0.17246316 1.4391007 -1.7656968 -0.9914266 -1.5665532 0.33406025 2.195966
0.621102 -0.4220718 -0.59032524 -0.044033572 -1.5746719 0.10541926 -1.3019159 -1.2781962
-1.6427245 0.014497667 1.2717546 -0.09339981 -1.3352968 1.458334 -1.0583647 0.20121028
-0.66836303 0.70821494 0.29483986 0.19581695 -0.056976527 0.07049975 0.8897951 0.2312195
-0.23100679 -0.094720684 -1.3831811 0.7998284 0.32600614 -1.4520763 0.093446456 0.7608449
-0.5851398 0.47271508 0.030664843 0.86079943 0.9048853 0.12815645 -0.7128206 0.4841732
-0.024118526 -0.73404 -1.3602463 1.8867298 1.9481734 0.6333236 -0.30484867 -1.1054455
0.12627949 -0.55088764 0.0022110213 0.24285479 0.2619376 -0.8768137 0.41968355 1.0130886
0.6314537 0.5101154 -1.0100203 1.0779086 0.11734769 -0.12540239 -0.0012746262 -1.0595081
-1.0488014 0.7987299 1.678422 1.3332132 -1.8994372 -0.8561225 1.7016128 -1.6369774

encoder.lstm.weight_ih_l0 f4 [128, 16]
00000000: 012e 43be 09c2 c0be 02d8 2f3d f6fb 9abe
00000010: b4aa 7cbe 7f67 a73e 32bc 37be 179e 4e3e
00000020: 17fa 4a3e 7ab8 94be 63b2 b13d 9f15 df3e
00000030: 36f7 083d 59fa 9cbd fbc7 3f3e 1bec ad3d
00000040: bb61 523d 32e9 dcbe 90b9 0c3f a86d 3cbe
00000050: 2332 663d a92d f53e d5ab d5bc 373f ab3e
00000060: 0303 9abe d791 c1be 3bd4 9dbe 2524 493e
00000070: 2fe8 93bb 3473 673d ca10 e6bd 011f 04bf
00000080: 41f2 0ebe 31eb 80bd fcf6 06bf fb43 a6bd
00000090: 6401 623d 2d94 163e ccb6 173e 1561 81be
000000a0: 91b7 d53d 8180 6b3e e23e 363e e029 6e3e
000000b0: 633c a8bd b762 7dbc dc78 9e3d 0968 8dbd
000000c0: 22bf fd3e f68a 723e 5cc4 88bd de34 0bbc
000000d0: a5b2 d53d 8d1c 8ebe 19e0 3bbe 925f b9be
000000e0: a174 27be 4fc3 433e 069f b93e 8e27 bcbe
000000f0: 8c7d 19be 3cd8 59be f917 8c3e 94b6 873d
00000100: 160e 58be dbde 84be cab6 22be 7dc1 143e
00000110: 1333 3b3e c0d2 483c 85d9 67be 7182 653e
00000120: 0c26 b3be f24c e63d f9e0 8e3d 318b 113f
00000130: 40fe 80bd be81 7b3e cc27 973d 9d77 b0be
00000140: f60c 44be 9b4b 09be 7fc2 0a3e 70fa 52be
00000150: 12bc 72be 120c 533d 12eb a43d dc85 b13e
00000160: 5097 403c 8558 5dbe b033 cf3d f2f6 143d
00000170: f690 503e 710d 67be 3828 80be 1dbb c1bd
00000180: 7a36 b4bc 796b 89bc c660 d73d c8ed f6bd
00000190: 83c4 1a3e a205 723e 60a8 a13d caa5 b93e
000001a0: 98e5 603e a5e4 ab3d 936f bb3d 1207 3e3e
000001b0: 764d 133d efd5 58be 81f9 5cbe 0a3a 3cba
000001c0: 76fd 933e ecd9 f43d 7ff0 1d3f 81aa 2f3e
000001d0: fb59 673e a5ac 39be 663c d7bd ff23 103d
000001e0: 5fdc c2be f5d0 1fbd 2c01 273e e8a9 9abe
000001f0: 52b9 a2bd 8523 a9be 924e bb3e 6165 3a3e
00000200: 17c2 76be d740 68be 17f5 13be d1d3 2cbe
00000210: 32e8 51be 41bd 6c3e 9581 123e d3b8 7f3e
00000220: 5d89 0f3e 8ea1 5abe 9efd b3be e64c 6fbe
00000230: 458a 9e3d 579a 9fbd eb24 53be 9278 3d3d
00000240: 43dd 7fbe a98a efbd 4da1 debe 5959 1e3e
00000250: 8c30 22be e60a 0abd e42c 223d 2090 83be
00000260: e4af 86bd ae3b d03c fde7 663d 535e 033e
00000270: 7d99 39be fb9e 723e 5bbc 493e 5a40 52be
00000280: 28f3 09be 6942 1dbe bdbc 75be d077 1dbe
00000290: ac68 7fbe 1b1c cdbd b4cd 1bbd 24de 99bd
000002a0: 7fea a1bc e126 1cbe bb27 96be fb17 a7be
000002b0: 6b14 a63d 2fcd 533e 2787 c33c e921 b9be
000002c0: 7865 3dbc 23fb c6be b22f 1b3d 9f8f 80bd
000002d0: 170c 93bd adaa c23e 36ee 913d f2b9 4a3e
000002e0: 337c 633e 7c79 9dbe ee59 45bc 492d c83e
000002f0: 5a81 0e3e 6ad2 9d3d d34e 1cbe 2e2c 7ebe
00000300: 39e4 07bc 1bfd 48be e76d 25bc 9bdd 55be
00000310: b67a a23c dbe3 88bd d13e ebbd 3b8c 123f
00000320: 0477 a93d 6390 243d 8860 1abd 387c 55bd
00000330: 34cc 0a3e 77ff 36bd 3fdc a9bc f5a4 ae3d
00000340: b61c dcbe 3bfd 79be f35f 8abd a9c4 2abe
00000350: 72d9 c53d c5f1 9f3a e1a2 8dbe b548 393e
00000360: 9431 a7be 60f6 583d 519f 613d b181 0b3e
00000370: 89c5 2d3e 62e6 5e3c 788a 02be 5f5c 53be
00000380: a657 1b3d 9f2d bbbe 4fb7 16bd 5ce4 31bd
00000390: 35f9 f43d e2a8 ad3e 92c6 803e 09d5 0e3c
000003a0: 1664 893e 9807 a9bd 0936 25bd 11bb c4bc
000003b0: 4528 e3bd 9779 803d cdd9 15be 5bfe 153e
000003c0: be1f 103e 3906 8e3e 7220 b83e 8016 6d3e
000003d0: 35c2 9a3e 3b79 a1bd f54e 4dbe 1d65 16be
000003e0: 6ca5 18be ff52 593e 4890 de3e 0ddd 41bb
000003f0: 3f0e 28be 170b 0bbe 6fa1 bc3d 9fdc 503e
-0.19060518 -0.37648037 0.04293061 -0.30270356 -0.24674493 0.3269615 -0.17942885 0.20177494
0.19821964 -0.29046994 0.08676603 0.43571183 0.033438884 -0.076649375 0.1872863 0.08492299
0.051362734 -0.43146664 0.54970646 -0.18401206 0.056200158 0.47886398 -0.026082912 0.33446667
-0.30080423 -0.3780658 -0.30825981 0.19642694 -0.0045137624 0.05650635 -0.11233671 -0.5160981
-0.139596 -0.06294859 -0.5272062 -0.08118435 0.055177107 0.14704962 0.14815825 -0.2526938
0.10435403 0.22998239 0.17797425 0.23258162 -0.08214643 -0.01546543 0.07737896 -0.06904609
0.49559885 0.23685822 -0.066780776 -0.008496491 0.10434464 -0.27756158 -0.18347205 -0.36205727
-0.16353084 0.19117473 0.36254138 -0.36748928 -0.14989299 -0.21273893 0.2736204 0.06626621
-0.21099123 -0.25951275 -0.15890041 0.14526935 0.18281202 0.012257278 -0.22641571 0.2241304
-0.34989965 0.11245145 0.06976504 0.56853014 -0.06298494 0.24561211 0.073806375 -0.34466258
-0.19145569 -0.13407747 0.13550757 -0.20603347 -0.23704556 0.051525183 0.080526486 0.3467244
0.011754826 -0.21615799 0.101172805 0.036368318 0.20367798 -0.22563721 -0.25030684 -0.09459517
-0.021998633 -0.01677488 0.10516505 -0.12057072 0.15114026 0.23634961 0.07893443 0.362593
0.21962583 0.0839322 0.091521405 0.18557385 0.035962544 -0.21175359 -0.21579553 -0.00071802794
0.28904313 0.11955628 0.6169509 0.17154886 0.22592919 -0.18132265 -0.10509567 0.03519058
-0.38058755 -0.039017636 0.16309041 -0.30207753 -0.07945503 -0.33034912 0.36583382 0.18202735
-0.24097477 -0.22680984 -0.14448963 -0.16877677 -0.20498732 0.2311907 0.14307244 0.24972849
0.14017244 -0.2135069 -0.35154432 -0.23369178 0.077412166 -0.0779311 -0.20619552 0.046257563
-0.24986748 -0.11696369 -0.43482438 0.15463771 -0.15838832 -0.0337018 0.039593592 -0.25695896
-0.06576517 0.025419082 0.056373585 0.1282895 -0.18124957 0.23693459 0.19700758 -0.2053236
-0.13471663 -0.15357365 -0.23997779 -0.15377736 -0.24942273 -0.10015126 -0.03803797 -0.07513073
-0.019765137 -0.15249206 -0.29327187 -0.32635483 0.08109363 0.2068374 0.023868157 -0.36158684
-0.011559837 -0.38863477 0.037887283 -0.062773935 -0.0718004 0.3802084 0.07125513 0.19797495
0.22215347 -0.30756748 -0.012045367 0.3909705 0.13916531 0.07706149 -0.15264444 -0.2482154
-0.008294159 -0.19627802 -0.010097004 -0.20885317 0.019833904 -0.06684085 -0.11486591 0.57245225
0.082746536 0.04017676 -0.037689716 -0.052120417 0.1355446 -0.044677224 -0.020734904 0.08527557
-0.42990655 -0.24413006 -0.06756582 -0.16676582 0.09660615 0.001220279 -0.2766333 0.18094142
-0.32655013 0.052969337 0.055083577 0.13623692 0.16969885 0.013604732 -0.12748134 -0.20640706
0.037925385 -0.36558244 -0.03679591 -0.04343067 0.11961595 0.3391791 0.25151497 0.008717784
0.26834172 -0.082534015 -0.040334735 -0.024014981 -0.11091665 0.062731914 -0.14633866 0.1464781
0.14074609 0.27739123 0.35962254 0.23153114 0.30226293 -0.07884451 -0.20049651 -0.14687009
-0.14906853 0.21223067 0.43469453 -0.002958122 -0.16411684 -0.13578449 0.092104785 0.2039666

encoder.lstm.weight_hh_l0 f4 [128, 32]
00000000: 0af8 ff3e 91b1 48be 00eb 0a3e 3a56 003e
00000010: 4952 37be 1e0a a13e efaf cbbe 2407 51be
00000020: b331 263e 4f12 963d 550b fc3d 2707 68be
00000030: e281 33be e9a8 833e 1756 903e dccb 90bd
00000040: ca8b 2ebe b8d1 9abe 18f5 bebd ae83 a2be
00000050: b92a 293d ae4e cb3e 80c6 0c3e d040 59bd
00000060: 0592 d83d 4643 263e 5b6e 96bd 44f5 833e
00000070: 2317 1ebe abe4 b53e 697f f4be 435a 353d
00000080: 792e ddbd 257a ffbe fc56 6e3e 7823 c0bd
00000090: c7fa 553e e633 03bd 74a3 ebbd 4c1f 6fbe
000000a0: fed4 f63e 2655 643e 0c42 7c3e 0d55 4f3e
000000b0: 3c80 6cbd c638 0b3f 08d9 afbd ef0c cbbd
000000c0: b3c2 913d 20ab e7be 4c85 ccbe 9bbc 49be
000000d0: 345b f33d 8df7 093e bcd3 48bb 4528 d0be
000000e0: 5679 b13e 7968 dc3e d94d ce3c c481 453e
000000f0: 306f bcbd 88d9 7d3e 45bf 7ebe 86a6 1bbf
00000100: 5f41 a93e a64e df3c cd8b 833e a21d 08bc
00000110: 970b bb3d 91c8 05bb 53f6 16bd 7431 0e3e
00000120: 4a1f b3bd 4ff3 07bd 233b 07bd a7b8 ca3d
00000130: 9ea9 bcbd 6fae e3bd fc63 cbbd ba6a 613e
00000140: f7c8 dcbd 4718 b33d fb71 4dbd 4ee5 ebbd
00000150: 3009 8b3d 1506 00be ef52 3d3e a94d 41bd
00000160: ff5b 843e 2440 f9bd 9a32 aaba 6bb0 083e
00000170: b05d a1bc ad27 8fbd bb4a 733d d8f6 40be
00000180: 49c7 bfbe fee4 233e f964 4fbe 22d1 0ebb
00000190: f2b0 563e 7cb2 abbe 84c3 a63e a8af e8bb
000001a0: dd40 96bd d50e 7abd 0df1 c0bd 61bd 933e
000001b0: 0f3d 9a3e 7cac fbbe 4ccb 08bf 101f bb3e
000001c0: c823 693e a62d 62bd 90b9 8dbc a52d 5b3e
000001d0: 3efd 653e dc9d 0ebf 0849 29be 813e 23be
000001e0: 4305 823e 3535 6bbe 5aea 003e fe81 abbe
000001f0: 47d9 a23e 941c d9be 33a4 b13e 7dec 21be
00000200: d00c f73d c495 6abc d64e d73d d90b 4bbd
00000210: 0c86 97bc 7b62 cabd 42ed f2bd 2fda 04bc
00000220: 2d6a 26bc e134 08bd ea52 74bc e114 2ebe
00000230: 1697 473e 6f1c 0ebd bff8 64be 9c4a 8dbe
00000240: 7785 583e cc2c 81bd 07ef bcbd 8c3c e6bd
00000250: dbe5 afbd e81b 67be 7bd6 e5bd 2953 0ebe
00000260: 02ea 43be a412 5e3e f937 833c 23d9 33be
00000270: fcba 8dbe 6abf 653e b450 d7bd b726 82bd
00000280: 7316 c93d d1e1 64be c06e 363d 5369 c5bd
00000290: 0d47 80bd e5e8 3a3e 10f1 30be e710 c03d
000002a0: b904 0e3d 872d 9b3e 47ca a93e c26a 723d
000002b0: ff7f bfbc ac65 573e 5486 fdbc 9254 903d
000002c0: ab89 94bd a563 e5bd 9ba9 c1be 61c6 10be
000002d0: 5a0c bbbd cef2 8d3d 0bda bc3c 87ac a4be
000002e0: 7daa 173e 1417 2a3d a82f 0dbe f9fd 82bd
000002f0: b1bf 1fbe bc60 863e c9c2 f7bd d34a 3dbe
00000300: 04c7 7b3d adf7 bdbe 2d13 093e 9696 483e
00000310: 33e1 8abe 4f55 f53d a141 9bbe 8706 2a3d
00000320: 62ec aabc 611a 703e 919a 303e 6a90 66be
00000330: a586 9bbe 91a9 a9bd 5394 b33d ef31 31be
00000340: 1988 1abe 4f6c b6bd 363f 383e 030a c3bc
00000350: 7116 c43d 39f1 c73e 3c75 413d 47f9 9cbe
00000360: a9ca b33e 3567 8e3e b480 383e 21e3 8a3e
00000370: 8945 12bf e70e 143d a1eb 06be e52c 1dbe
00000380: 209c 4bbd cc84 b2bd 5a33 6d3d 81d1 8fbe
00000390: c1fd 043f 451f a43d 08dc 5d3e 97a6 98be
000003a0: 4ede 47be 1214 1fbe 6590 55bd 3a16 283e
000003b0: aaf4 0f3d 51d3 aabd 8925 cf3d 0d12 67bd
000003c0: 0427 763d d96f a03d 9857 8c3e b37d 593e
000003d0: 492a 053e 9774 e6bd 3a58 6f3b ead0 2ebf
000003e0: a9e0 8d3d 5a2e 8bbd f0ed 833e 9039 0ebd
000003f0: acdc 663d 3123 7abe 190c 09be 3430 29be
0.49993926 -0.19598986 0.13566208 0.12532893 -0.17902483 0.3145303 -0.39782664 -0.2041288
0.16229896 0.07327711 0.12306849 -0.22658978 -0.17530015 0.25714806 0.2819068 -0.07070133
-0.17045513 -0.30238128 -0.09324092 -0.3174109 0.04130051 0.39708465 0.13747597 -0.053040326
0.10574726 0.162366 -0.073452674 0.2577306 -0.15438513 0.35526022 -0.47753456 0.044275533
-0.107998796 -0.49897876 0.2327537 -0.09381765 0.20896445 -0.032031916 -0.115057856 -0.23351783
0.48209375 0.22298107 0.2463457 0.20247288 -0.05773948 0.54383504 -0.08586317 -0.09914576
0.07117214 -0.45247746 -0.39945447 -0.19700854 0.1188263 0.1347334 -0.0030643782 -0.40655723
0.34662884 0.43048456 0.025183605 0.19287783 -0.09200895 0.24790013 -0.24877651 -0.6080097
0.33057687 0.027259182 0.25692597 -0.008307846 0.0913307 -0.0020413736 -0.036856007 0.13886052
-0.08746202 -0.03319102 -0.03301538 0.09898501 -0.092120394 -0.11117255 -0.0993118 0.22013369
-0.107805185 0.08744865 -0.05015753 -0.11518346 0.06788862 -0.1250232 0.18488668 -0.047193203
0.25851437 -0.12170437 -0.0012985051 0.13348548 -0.019697994 -0.069899894 0.05939744 -0.18844163
-0.3745673 0.16005322 -0.20253362 -0.0021792133 0.20965937 -0.3353461 0.32571042 -0.007101018
-0.073365904 -0.0610493 -0.09420977 0.28855422 0.3012471 -0.49155033 -0.53435206 0.36547136
0.22767556 -0.055219315 -0.017300397 0.21404131 0.22459885 -0.55709624 -0.16531765 -0.15941812
0.2539464 -0.22969516 0.12589398 -0.33497614 0.31806394 -0.42404616 0.34695587 -0.1581287
0.12062991 -0.0143179335 0.10513084 -0.049571846 -0.018496536 -0.09882065 -0.118616596 -0.00810866
-0.01015715 -0.033253554 -0.014912346 -0.17000152 0.19491228 -0.034695085 -0.22360514 -0.27595985
0.21144663 -0.063073725 -0.09225278 -0.11242017 -0.08588763 -0.22569239 -0.112225495 -0.1389891
-0.19132236 0.21686798 0.0160179 -0.175633 -0.2768172 0.224363 -0.1051344 -0.063550405
0.09818735 -0.22351767 0.044539213 -0.096392296 -0.06263552 0.18252905 -0.17279458 0.09378224
0.034672473 0.30308172 0.33162138 0.059183843 -0.023376463 0.21034878 -0.030947842 0.070473805
-0.072528206 -0.11200646 -0.3782471 -0.14138176 -0.09133215 0.06931077 0.02305319 -0.32162878
0.1481113 0.041525915 -0.1378771 -0.06396098 -0.15600468 0.26245677 -0.12097699 -0.18485574
0.061469093 -0.37103024 0.13386221 0.19588694 -0.27124938 0.11979162 -0.30323508 0.04151013
-0.02086467 0.23447563 0.17246462 -0.22516027 -0.30376163 -0.08284295 0.08768525 -0.17304204
-0.1509098 -0.08907377 0.17992863 -0.023808485 0.09574593 0.39051226 0.047230944 -0.30658934
0.35115555 0.27813116 0.18017846 0.2712641 -0.5713735 0.036147024 -0.13175823 -0.15349157
-0.04970944 -0.08716735 0.0579103 -0.28089526 0.519497 0.08013777 0.21665967 -0.29814598
-0.19518396 -0.15535 -0.05213966 0.16414729 0.03514544 -0.08341087 0.10114581 -0.0564137
0.060095802 0.07833833 0.2741058 0.21239357 0.13004412 -0.112527065 0.0036521093 -0.6828753
0.06927616 -0.0679595 0.2576747 -0.034722865 0.056362793 -0.24427487 -0.13383521 -0.16522294

encoder.lstm.bias_ih_l0 f4 [128]
00000000: a6df 753e 0662 043f 2b21 fb3d 35e8 84bd
00000010: cd8a c9bc af5a b13e a63b 193d 671d 5abd
00000020: a896 f5bc 3d60 d0bd 7bfe 2b3e 6a64 c83e
00000030: 6af3 053e fa5f ca3c 66ea 153c c0a2 db3c
00000040: edd0 3abd 4ebc 953d 10ae d93e 6ce8 acbd
00000050: 905a 363e 6dc1 ea3d 0dd4 963d 2f9f b43e
00000060: 50ee 1a3e 6373 b83e d434 3e3d 36a2 e33d
00000070: e810 35be e5e3 433f 8085 873e 9d00 633d
00000080: 6f5c a33e c441 023f 9b37 18bd 1d83 8e3e
00000090: 79fa cc3d be1a c83d 681c b13e 27c3 5a3e
000000a0: f252 aabd 9608 16bd fc35 943e cbed d63d
000000b0: ed8f 46bc 78a0 4c3e 7f02 593e ebc7 ccbd
000000c0: 9d7b c8bb c6ee 553e 08ac a23e 5b00 b53d
000000d0: bd69 1dba 9a13 9f3e 07c4 203e 953f b73e
000000e0: 48fc d43e b35f 8f3e 5b8b 103e 6194 a43e
000000f0: e96f 72bd f5d0 253f a8b6 8b3e 8324 943e
00000100: 4a80 363d 765a 8cbe 971c 0b3e 4e81 073e
00000110: 9f29 0b3d 973d bd3c f10a 543e 4d2a fa3d
00000120: 509f 8abd f437 113e fe09 ddbd 7f42 473e
00000130: e742 17be fb99 29bd 6b0c 303e 673b 64be
00000140: e908 efbd 8e89 31be 304d 083e cde4 d7bc
00000150: 36fe 0abe e04a 0abe 4ae8 2b3e 79c2 03be
00000160: ac84 dc3c 24f2 923e 07d1 babd c056 bd3c
00000170: 0843 c2bd 2ce0 873e de1a 5dbe a920 8fbe
00000180: a177 b23e 6031 1d3e bc6a d03d 73a6 423e
00000190: 343d 433e 5859 aa3e 4679 c03e 03a1 123e
000001a0: 2a68 ac3c 942e 883e cf22 0e3d de7f 25bd
000001b0: 72b6 913e a8c4 be3d ede8 6e3e 6641 863d
000001c0: 9361 903e 2f79 5c3e 334d a7bd 0a8a 643e
000001d0: 13fa a13e 6356 2c3e 1cee 6e3d 600c d0bc
000001e0: 81cf 7dbe 8524 333d 6f17 193e 8848 2e3e
000001f0: 827f 2d3d 1bec 023e ee74 bc3e baa5 a93d
0.24011096 0.5171207 0.12262186 -0.064896025 -0.024602318 0.346395 0.0374104 -0.053250697
-0.029979065 -0.10174606 0.16796295 0.3913911 0.13081136 0.024703968 0.009150123 0.026811004
-0.045609403 0.07311307 0.42515612 -0.084427685 0.17807984 0.11462674 0.07364664 0.35277697
0.15129972 0.36025533 0.0464371 0.11114924 -0.1768223 0.76519614 0.2646904 0.055420507
0.3190646 0.508816 -0.037162405 0.27834406 0.10008711 0.09770726 0.34591985 0.21363507
-0.08316602 -0.036629282 0.28947437 0.10494574 -0.0121192755 0.19983089 0.21192358 -0.09999069
-0.0061182515 0.20891866 0.31771874 0.088379584 -0.0006004831 0.31069642 0.15699778 0.35790697
0.41598725 0.280027 0.1411566 0.32144454 -0.059188757 0.6477197 0.27287793 0.28934106
0.04455594 -0.27412766 0.13585125 0.1323292 0.03397524 0.023100657 0.20707299 0.122150995
-0.06768668 0.141815 -0.107929215 0.1945896 -0.14771615 -0.041406613 0.17192237 -0.22288285
-0.11671621 -0.17337629 0.13310695 -0.026354218 -0.13573536 -0.13505125 0.1678783 -0.12867154
0.026918732 0.28700364 -0.091219 0.023112655 -0.094854414 0.26538217 -0.2159228 -0.27954605
0.34856895 0.15350866 0.10176608 0.19008808 0.19066316 0.3327129 0.37592524 0.14319234
0.021045763 0.26598036 0.034701165 -0.040405147 0.28459507 0.09314853 0.23331042 0.065554425
0.28199443 0.21530603 -0.081690215 0.22318283 0.31636104 0.16829829 0.058332548 -0.025396526
-0.24786188 0.043736 0.14950345 0.17019856 0.04235793 0.1278538 0.3680796 0.08283563

encoder.lstm.bias_hh_l0 f4 [128]
00000000: 73a9 a03e 177a 243f 9d37 bc3d de7d 14be
00000010: ab40 e33d b7fb a43e e934 1b3d 42d6 a0bd
00000020: 764c 56bd b6b7 07be 0f2a 46bd 183f c63e
00000030: d460 2f3e fa0b 1f3d 76a6 8dbd eca3 b13b
00000040: 82df 0ebe d906 44bd 69e5 053f 7f94 b9bc
00000050: 9e6b bdbd c938 ac3e 485e 883e 82c6 eb3e
00000060: 416f b93e bb67 3d3e 8440 fb3c 7138 983b
00000070: 734d adbd b1cb 013f 8112 9c3b 5ea3 383e
00000080: eb02 643e 3752 e13e c715 853c 6c31 913e
00000090: 9029 973d 8071 e83d 7c07 843e 6a13 993e
000000a0: 4452 31be b104 2d3e 4152 bd3d e5a1 e03c
000000b0: a923 673d 78c2 ca3c 637f 76bd 2bbf 16be
000000c0: ad47 f23d 2a77 663e 6a47 bd3e 3d40 42be
000000d0: a8b6 d83d df73 7c3e b2c8 9f3e 3834 a43d
000000e0: 55e7 233e f976 f63e c1fb 7d3e 8775 413e
000000f0: 9f9f 403d 21b5 103f d9b7 d83d 4285 7c3e
00000100: f621 583d 258e 21be 848c 683a f44b 98bb
00000110: 5729 2dbe c6cf 8cbd fee1 debc 51a8 c83d
00000120: 3b0a 233e 7a86 cb3d 46c4 083d 914d 813d
00000130: 9af7 253d 53f3 58ba 656a 92bd f41d 8d3d
00000140: ef3d 44bd 94ef 7bbe ed90 083e fa55 76be
00000150: 3c34 3b3e 32f4 6dbc 8cf7 10be accc 6d3d
00000160: 99b5 ccbc f8f9 3c3e 9dbf bfbd 2288 85bd
00000170: eb66 59be 942d 8c3e 6a2c 13be aacf 12bd
00000180: cbe2 923e 3845 1cbd 57a7 7b3d 3a51 013f
00000190: accf 023e feb9 fa3d aef1 2f3e bb43 a2bd
000001a0: 6d02 6a3e 16d2 1dbc 951f 0e3e 4358 e13d
000001b0: 6ad4 a33e 6022 8d3e fc0b ab3e 7095 2e3e
000001c0: 4bfd b83e 0198 b93c 00ec 4cbd 0d9e 153e
000001d0: 31e0 a73e f458 843d 33aa 763e b4e5 c33c
000001e0: 549b 48be b220 513d 74e0 633d 948c 3c3e
000001f0: 505e 6a3d 831c 87bd b0bf c53d 77e5 13be
0.3137928 0.64248794 0.09190295 -0.1450114 0.11096319 0.32223293 0.037892256 -0.078533664
-0.052319013 -0.13253674 -0.048379954 0.38720012 0.17126781 0.03882978 -0.069165155 0.0054211523
-0.13952449 -0.047858093 0.5230318 -0.022653816 -0.09249042 0.33637074 0.2663443 0.46049887
0.36217692 0.18496601 0.030670412 0.0046454 -0.08462038 0.50701433 0.004762948 0.1803107
0.22266738 0.44008037 0.016245736 0.28358018 0.07380974 0.113497734 0.2578696 0.29897624
-0.17316538 0.16896321 0.09244204 0.027420947 0.056430493 0.024750933 -0.06018008 -0.14721362
0.11830077 0.22506395 0.36968547 -0.18969817 0.10581714 0.24653576 0.31207806 0.080177724
0.16006215 0.48137644 0.24803068 0.1889249 0.047027227 0.5652638 0.10581941 0.24660209
0.052766763 -0.1577688 0.0008871036 -0.004647726 -0.16910301 -0.06875567 -0.02720737 0.09797729
0.15921871 0.09937759 0.033390306 0.06313623 0.040519334 -0.0008276004 -0.071491994 0.06890479
-0.047910627 -0.2460311 0.13336535 -0.24056235 0.18281645 -0.014523553 -0.14156932 0.05805652
-0.024988936 0.1845473 -0.09362719 -0.06520106 -0.21230666 0.27378523 -0.14372411 -0.035842575
0.28688654 -0.03815195 0.061438885 0.50514567 0.12774533 0.122425064 0.17182037 -0.07923075
0.22852488 -0.009632608 0.13879235 0.11003163 0.31997997 0.2756529 0.3340758 0.17049193
0.36130747 0.022655489 -0.050029755 0.14611073 0.32788232 0.06462279 0.24088363 0.023913242
-0.19590503 0.05105657 0.055633977 0.18413001 0.05721885 -0.06597235 0.09655702 -0.14443003

decoder.embedding.weight f4 [60, 16]
00000000: 056d 59bf fdae 333f 9682 ce3e a817 df3e
00000010: 3f2a cd3f a72f 0cbf 1c5d 0abf 8af4 703f
00000020: 6dff 88bf 7357 3c3f 9f9b 853e 4139 f8bf
00000030: 478a 9a3e 78e1 113f 8537 033e 331d 0140
00000040: 3a6a 3f40 746e 80bf 1adb 80bf 9612 15c0
00000050: 8e09 d4bd de83 78bf ac59 233f 82fa a13f
00000060: 7aa8 c73e 1142 babe 9c99 133f 540b 23bf
00000070: 80e5 b5bf 54db 6fbe 04f7 1fbf 69d6 273f
00000080: 969b 0abe 3b35 933e 5ad5 12bf 9fc9 803d
00000090: 22b5 38bf fad2 85bf 4c80 e73e 24cb bcbf
000000a0: 25f7 adbf 55aa 8cbf 750c 34c0 536c 3abf
000000b0: a094 2abf deb9 683f 6686 fd3d ba80 08bf
000000c0: 7e93 83be 5851 69be 2521 963f eb6c 8b3f
000000d0: 854f 183f 61a9 283f 09b2 29bf b140 1b40
000000e0: d92a b0bf 18be 5e3e 0572 ecbf 5189 743f
000000f0: 1b34 7dbf 1471 05bf e5ec 4cbf d745 4d40
00000100: f588 153f ecc0 fa3d 1ce6 243f 5dab afbf
00000110: 7277 fdbe 6a61 62be 003b 753e 86e3 72bd
00000120: 0eb8 363e e3e3 edbd f39e 09bf 668c babe
00000130: c6fc c43f 07b0 eebb ca3e 363e f655 403f
00000140: dd42 0ebf 33b7 2f3f 0f43 bdbf e41e 24bf
00000150: 2cdf a63e 3558 e73f af1d a5bf 0e63 70bf
00000160: 7ab2 c2bf 0130 0fc0 f315 d0bf b12a 1abf
00000170: ee00 1ebe 4f2a c9be da81 0240 fa93 8d3c
00000180: 3806 883f 1887 00c0 b388 f3bd da6c 8e3b
00000190: ceb4 d03c 15b1 b6bc 0696 81bf 478f 333d
000001a0: 8c6a afbb cc3c 953f 842c 253f fd90 99bf
000001b0: 8595 a73e 514c 0bbf b600 c3bf 1000 c43f
000001c0: 984e bc3f 815e 6a3f efae 253f ab14 813f
000001d0: bffd 1d3e 3e19 bf3e 35c9 71bf 1542 663f
000001e0: a495 523f 2ed8 7b3f 2fa7 9bbf 3b5c 0840
000001f0: 2ff4 773e 3172 51bf c804 89bf cbd4 663f
00000200: 84a3 78bf daee 85bf a1ef 5e3f c709 3dbf
00000210: 7d19 f1bf 7b5a 2a3f 31dc 06bd 635c c3be
00000220: 2cc8 863d 6d77 85bf 7d73 89bc 977c 623e
00000230: 0b24 c63e d131 b23f 98d7 3ebf 136c 653e
00000240: 2d36 c2be 71d8 f6bd 27cd e1bf 5dd7 64bb
00000250: f43c bb3e 1773 83bf f1e1 1f3f a85a 3a40
00000260: a33b 1a3f 340f 9a3f f54b fc3f 4e3e 1ac0
00000270: 9a22 b13e 236a 1c40 73e2 2740 6b6e 0d3f
00000280: 96f5 75bf 8be4 c23f e634 0cbe 60bc 8b3e
00000290: d4ee 89bf b338 2b3f a6e6 003d 602a 38bd
000002a0: 500c f93f 2caa e6bf 96d2 773f 271b 95bf
000002b0: fcb3 18bf 5d65 efbb 1178 1bbd e3a1 c0bd
000002c0: c4c4 d13d 57cd 0bbf b331 813f 3bbb 29bf
000002d0: 4e7e 993f dd70 1ebf b234 f6bf 2df5 d0bf
000002e0: 313f 18c0 4768 553e cef5 a1be 917c 99bf
000002f0: 26ff 16c0 95af 8a3f f2cf 87bf 4f41 b2be
00000300: 3962 c2bf c953 e53f 0bb6 713d 12d3 f3be
00000310: d8d7 9bbf dd28 0bc0 33b2 093f 524e 263e
00000320: 8f9e 9b3e 4648 2e3f a2ea b5be e7df 11be
00000330: 10cf 153f a6a0 e1bf ebb4 50bf 9665 013e
00000340: fece b7bf 1da2 d73d 950a 8f3e 435b ec3f
00000350: ab54 79be eaea f83d f285 85bf 16f6 933e
00000360: 4907 00bd 38b8 f0bf 3e90 fbbf f5ae 183f
00000370: 127b 00c0 4409 ebbf 0906 abbf d46c 49bf
00000380: 926a cabe fcf1 393f 4f39 39c0 9e63 26bf
00000390: a2a7 cb3e 8d6c d8be af8f a63f 28a8 4ebf
000003a0: 24df 4abf 143a 83bd 71d6 8c3d 7050 9cbd
000003b0: 3382 683e 823d 64bf 8a0e 02bf bac7 683f
000003c0: b903 c53f 7235 0840 dea5 a3bf 7847 303f
000003d0: 41cd a1bf 3bd0 923d 9c26 2440 140f 9ebf
000003e0: e72c 0d3f 0481 6ac0 85ca ff3d aab8 1f3d
000003f0: 5f44 e1be f01a 6f3f ff5d a83f 029c eebe
-0.84931976 0.70188886 0.40334004 0.43572736 1.6028517 -0.5476021 -0.54048324 0.94123137
-1.070295 0.73570937 0.26095292 -1.9392473 0.30183622 0.56984663 0.12814148 2.0174072
2.9908586 -1.0033708 -1.0066864 -2.3292594 -0.10353385 -0.97076213 0.63808703 1.2654574
0.38995725 -0.3637853 0.57656264 -0.6368916 -1.4210663 -0.23423511 -0.6248629 0.6556154
-0.13535914 0.2875155 -0.573568 0.06288456 -0.72151387 -1.045501 0.4521507 -1.4749494
-1.3591048 -1.0989481 -2.8132603 -0.7282154 -0.66633034 0.9090861 0.1237915 -0.5332142
-0.25698465 -0.22784936 1.1728865 1.0892614 0.5949634 0.6588345 -0.66287285 2.4258235
-1.3763076 0.21752203 -1.8472296 0.9552203 -0.9890763 -0.5212567 -0.8004897 3.2073877
0.58412105 0.12243828 0.6441362 -1.3724171 -0.49505192 -0.22107473 0.23948288 -0.059299015
0.17843649 -0.116157316 -0.5375816 -0.3643524 1.538964 -0.0072841677 0.1779739 0.75131166
-0.55570775 0.68638915 -1.478609 -0.64109635 0.32592142 1.8073794 -1.2899684 -0.93901145
-1.5210717 -2.237305 -1.6256698 -0.6022139 -0.15430042 -0.3929009 2.0391755 0.017282475
1.0626898 -2.0082455 -0.11891308 0.004346472 0.02547684 -0.022301236 -1.0123909 0.04383781
-0.0053532775 1.1659179 0.6452105 -1.1997372 0.32731262 -0.54413325 -1.5234592 1.5312519
1.4711485 0.9155045 0.6472005 1.0084432 0.15428828 0.37323946 -0.9444764 0.89944583
0.82259583 0.9837674 -1.2160395 2.1306293 0.24214242 -0.8181487 -1.0704584 0.90168446
-0.97124505 -1.0463517 0.87084395 -0.73843044 -1.8835903 0.6654431 -0.032924835 -0.38156423
0.065811485 -1.0427071 -0.016778702 0.2211784 0.38699374 1.3921453 -0.7454772 0.22404508
-0.37931958 -0.12053002 -1.7640733 -0.0034918406 0.3656994 -1.0269498 0.62454134 2.9117832
0.6024725 1.203589 1.971068 -2.4100528 0.3459671 2.443978 2.6231964 0.5524661
-0.9607786 1.5225996 -0.13692054 0.27292156 -1.077601 0.6688339 0.031469963 -0.044962287
1.9456882 -1.8020682 0.96805704 -1.1648911 -0.59649634 -0.0073057846 -0.0379563 -0.094058774
0.10242608 -0.546102 1.0093292 -0.66301316 1.199167 -0.61890966 -1.9234831 -1.6324822
-2.378857 0.2084056 -0.31632847 -1.199114 -2.359323 1.0834833 -1.0610335 -0.34815452
-1.5186225 1.7916194 0.0590115 -0.4762197 -1.2175245 -2.174369 0.53787535 0.16240814
0.30394408 0.6807903 -0.35530573 -0.14245568 0.5851908 -1.7627151 -0.8152606 0.12636408
-1.4360044 0.105289675 0.2793776 1.8465351 -0.24348705 0.12154181 -1.0431502 0.28898686
-0.031256948 -1.8806219 -1.9653394 0.59641963 -2.0075116 -1.8362203 -1.3361217 -0.78681684
-0.39534432 0.72634864 -2.8941228 -0.64995754 0.3977633 -0.42270318 1.3012599 -0.80725336
-0.79246736 -0.06407562 0.06876839 -0.0763253 0.22705917 -0.89156353 -0.50803435 0.9092976
1.5391761 2.128262 -1.2784994 0.6885905 -1.2640764 0.07168623 2.5648565 -1.2348351
0.5514664 -3.6641245 0.124897994 0.03899447 -0.43997476 0.9340048 1.3153685 -0.466034

decoder.lstm.weight_ih_l0 f4 [128, 16]
00000000: 2c85 a63e ab62 08bd 7027 1fbf 69a2 e0bd
00000010: 6f61 70bd 6608 683e 0cc9 bd3d c3d4 e23e
00000020: 4e9d 523e dd26 303e 0af0 89bc 6f66 f9bd
00000030: 31a9 9abd 7a90 27be 80ff 42be 3e86 443c
00000040: 53fb 3f39 3172 bf3c d2cc 8b3d c307 94bd
00000050: 662c 13bd 2a2a 8f3d e521 a33e d063 bd3e
00000060: 7e44 c13e 250a 91be dc7d 893e be09 2fbe
00000070: 6d59 16be 77bc 443e 0c6e 7ebe 1c3f 6b3c
00000080: 12b3 15be 7af6 513d c0f8 8abd 54be 0cbd
00000090: cbb5 c83d 08fd 21bc 24b4 b23e 8277 9b3e
000000a0: 2855 293e 3c09 a5bd c4e8 91ba 30bb 00be
000000b0: a816 1e3e 7eb5 91be 9cbf acbe d081 533e
000000c0: 61dd ec3e b491 4ebd d90f 0cbe 30a8 753e
000000d0: 4606 6c3d 3f4c 103e d4a7 99bd 16f4 393d
000000e0: 272e cd3e a756 53be 3506 cc3d 3315 9e3d
000000f0: 6eeb f6bd 7a47 9d3e fe40 9b3e ca86 6c3d
00000100: 0892 8e3e 1c3b bfbb a96a 653c d197 453d
00000110: 38f5 c83e d9da c2bd 1eb5 bb3e c6b5 4abe
00000120: b430 3b3e 105c b4be e75c db3d 4d46 0d3d
00000130: e5f2 8ebe 3ff7 323d 65c9 4abe 0a08 a5bd
00000140: e303 bc3d 12b8 27bd 21e4 aa3d 0ba4 c9be
00000150: 835e 2e3f 2c8b 1bbf db57 cc3d e05b 3dbc
00000160: a9fe 803f 10bf a7be c448 6dbd 031d 963e
00000170: b97d cebe feef cd3e 00f7 36bf 3a93 dc3e
00000180: e328 063f afd9 43be f15b 86bf cfe1 c5bd
00000190: 9850 80be c2dd 3f3e 49b7 e4bc 5ba7 f43e
000001a0: a77d 463f f549 8e3e fe56 883d 6322 0bbe
000001b0: f10c 293f 91c3 e9be 714c c93e e98c 943d
000001c0: 94f8 52be fcee 603e 11c7 2abf 87dd 543e
000001d0: d93f 4cbd a5ae 043d 1bfd 553e 5393 3e3f
000001e0: e051 ec3e 10d5 a2be 4b1b a63d 52a7 ff3e
000001f0: d3d6 4abe 7c4e 193c 6523 2e3e 0b2f b1bd
00000200: ffab abbe e6db cf3e 1e81 b33d 2d4f dd3e
00000210: f6ef 1a3e 99a5 86be a926 a0be eb49 0ebe
00000220: a169 993e a071 1ebe 3f98 a13e 5b20 d23e
00000230: 9213 be3e 0c13 043d 546f b13d 2dc3 82bb
00000240: 11a4 963c f400 373c 5938 9fbd 9b82 30be
00000250: ab12 34bd 92b0 19be 60cc 8dbd d6e2 043d
00000260: c5ac 7b3e 3714 23bd 14a9 5f3e c8ff 1c3e
00000270: 6add 913e c07a fa3d c049 83be d85d 03bd
00000280: 5f07 86be 0a88 cd3e febb 4abe ce83 943e
00000290: 8499 5abe b856 30bf a408 ff3e 640c 013f
000002a0: 637b 2f3e 9720 af3d f932 ccbd f94e 1c3e
000002b0: a22a 043f aecb 6b3f f313 09be 6e75 443e
000002c0: 34cd ac3d 1bf2 0abf 9e85 8bbe 19bc 223e
000002d0: 9837 06bf 09ac be3e 11ad 4a3e 571d 85be
000002e0: 3799 6d3f 0e10 f33d 3009 7bbd ec38 d0bd
000002f0: 740a 613d 61b5 9b3e 3208 c63e ac1d 11be
00000300: a7a0 99be 9508 233e e7b8 55bf f2e9 813e
00000310: 2356 113c 3c31 40bf b290 52bd 3879 8b3e
00000320: f775 3ebe a3f0 b0be 9044 833e f4bd 2b3f
00000330: c1a8 85be 02d8 9c3c d6ea 48bf 7afb efbe
00000340: 05ef 57bf 67bf cdbd 6ee3 f13d b66c df3d
00000350: 6921 1abf 5f77 ad3d c25b 4ebe 737f c1be
00000360: e33b 13bd 1086 513d 4171 9cbe 187b 64be
00000370: 9306 ee3e 5b8d 4bbf 4003 413d 2432 a73e
00000380: 85ed 5c3d 3c3f bdbe e659 373c 39fe 3c3e
00000390: 402c 9cbd ee32 7abd 4b98 033d 9af1 73be
000003a0: 4bfe 963e 0bd8 7ebe 7381 0e3f dc86 69be
000003b0: 08c2 ce3c 65e0 383e 1d73 133e 321e 003e
000003c0: 2dd4 9e3e fd91 a9be 8dc2 02be 0801 26bf
000003d0: d754 663d 938a 89be 0d96 173f 4c47 0e3f
000003e0: c77c 9e3e 172a 43be 9e31 fdbc ea7d 8abf
000003f0: d932 5fbe 79cd 6c3e 04f3 48be 806d b3be
0.32523477 -0.033297222 -0.6216955 -0.10968477 -0.05868667 0.22659454 0.09266862 0.4430295
0.2056782 0.17202325 -0.016838092 -0.12177741 -0.07551802 -0.16363707 -0.19042778 0.011994896
0.00018308805 0.02336988 0.06826176 -0.07228043 -0.035931014 0.06990464 0.31861797 0.36990213
0.37747568 -0.28328052 0.26853836 -0.1709356 -0.1468255 0.19212519 -0.24846667 0.014358308
-0.14619091 0.05126045 -0.067857265 -0.0343612 0.09800299 -0.0098869875 0.3490306 0.30364615
0.16536391 -0.08058402 -0.0011131992 -0.12571406 0.1543833 -0.2845878 -0.33739936 0.20654988
0.4626265 -0.050431922 -0.1367792 0.2398994 0.05762317 0.14091586 -0.07502714 0.045398794
0.40074274 -0.20638524 0.099621214 0.07718887 -0.120566234 0.30718595 0.30323023 0.057745732
0.27845788 -0.005835904 0.014002481 0.048240487 0.39249587 -0.09514398 0.3666162 -0.19795904
0.18280298 -0.35226488 0.10711079 0.034490872 -0.2791969 0.043692823 -0.19803388 -0.08058174
0.09180429 -0.040947028 0.083442934 -0.39382967 0.68112963 -0.60759234 0.099776946 -0.011557549
1.0077716 -0.32762957 -0.057930723 0.2931901 -0.40330294 0.40222162 -0.7147064 0.43081075
0.5240614 -0.19126008 -1.0496808 -0.0966221 -0.25061488 0.18736938 -0.027919428 0.47783932
0.7753548 0.277908 0.066572174 -0.13587336 0.6603537 -0.45657018 0.39316133 0.07253439
-0.20602638 0.21966165 -0.6671 0.20787631 -0.049865577 0.032393117 0.20897333 0.7444355
0.46156216 -0.3180318 0.081106745 0.49932343 -0.19808511 0.009357091 0.1700569 -0.08651551
-0.3352966 0.40597457 0.087648615 0.4322447 0.151306 -0.26298216 -0.31279495 -0.13895385
0.299634 -0.15473032 0.31561467 0.4104031 0.37124306 0.032244727 0.08663812 -0.003990552
0.01838878 0.011169661 -0.07774419 -0.17237322 -0.043963116 -0.15008762 -0.06923747 0.03244289
0.24577625 -0.0398142 0.21841842 0.15331948 0.28489238 0.12230444 -0.25642204 -0.03207192
-0.261775 0.40142852 -0.19798276 0.2900681 -0.21347624 -0.6888232 0.4981128 0.5040953
0.17136912 0.08551138 -0.0997066 0.152645 0.5162755 0.92107666 -0.13386516 0.19185421
0.08437577 -0.54275674 -0.2725038 0.15892066 -0.5242858 0.37240627 0.19792582 -0.25998947
0.9281191 0.118682966 -0.06128806 -0.10167107 0.05494161 0.3041182 0.38678128 -0.14171475
-0.3000538 0.15921243 -0.83485264 0.253738 0.008870634 -0.75075126 -0.051407523 0.2724092
-0.18599688 -0.3455859 0.25638247 0.6708672 -0.26105312 0.01914597 -0.7848333 -0.4687155
-0.8434909 -0.10046273 0.11810957 0.10909407 -0.6020723 0.08470034 -0.2015219 -0.3779255
-0.035945784 0.051153243 -0.30555156 -0.22312582 0.4648939 -0.79512566 0.04712224 0.32655442
0.053937454 -0.36962306 0.011190867 0.18456353 -0.076256275 -0.061083727 0.03212766 -0.23822632
0.29490885 -0.24887101 0.55666274 -0.22805351 0.025239006 0.1805435 0.14399381 0.12511519
0.31021252 -0.33119193 -0.12769528 -0.64845324 0.056233253 -0.26863536 0.59213334 0.5557754
0.30954573 -0.19059025 -0.030907448 -1.0819676 -0.2179674 0.23125257 -0.19623953 -0.3504448

decoder.lstm.weight_hh_l0 f4 [128, 32]
00000000: 0dcf 26be 03cf 3abe bff8 4e3e 96a5 cc3e
00000010: ba5c 0ebf 24b3 163f 71ae 1e3d 3bba 9f3d
00000020: 7b0e c53e ebb9 f13e 44de 873e 4a09 82be
00000030: 9aef 233e 2e13 0f3e 5b23 0e3e 6d2b 55be
00000040: e019 65be f6f9 d03e c70c 113f d754 b73d
00000050: 9ae6 e63d a555 013f ba52 8b3e 2c12 093f
00000060: 7f34 3e3d 6ea7 2cbc 5094 acbd 000a c9be
00000070: f062 01be 6eb2 883c 4bd0 d2be 5a27 b0be
00000080: fb93 023f 3ea9 b9be de7e d23c e97c 93be
00000090: 5f79 bfbe 3f94 aa3e a9f9 2f3f 40e3 853f
000000a0: 631e d63e fe54 ce3e c362 9f3e 53ff 1ebf
000000b0: 284f 6bbe b938 6d3e 26b4 283f fdf3 ec3d
000000c0: d651 5e3e 6594 e3be 2d8f b93e b34b dc3e
000000d0: 06bf bcbe 90e8 0f3f 0d56 8e3e 2551 b73e
000000e0: 5363 82be 2d86 d9bd ce08 4dbf b288 01bf
000000f0: 36af 26be 0c58 73bf 89fb 08bf c933 83be
00000100: ebe4 113e 0f8b 983c 4c54 8c3e d7a9 5dbd
00000110: 78df 1bbd 58ed 26bd c96d 833e 862a 41bb
00000120: 8b87 bdbb 32f7 383e e363 893d 9a23 c5bd
00000130: b7a0 143d c9f9 e2bc a65c 4a3e 2b4f 83be
00000140: cdb6 a1bb 196b d3bd 0dad cbba 9caa 07bd
00000150: 900c 843e e40a c43d 4557 ad3d cc58 5b3d
00000160: e50b 1cbd 1bd2 713e a520 17be 2e46 7cb9
00000170: eac1 613e 4963 873e 1cb0 3bbe 22e9 833a
00000180: 5067 a03d cee1 a8bd 6b79 b6bc 5fc8 d3bb
00000190: 1fb7 f03d 1125 da3e e7b8 e1be 8653 66be
000001a0: a747 de3e 4a39 03be a21c 093f d027 743e
000001b0: 6067 103e 64ce 093f 1029 28be 7efc 243e
000001c0: cce8 3a3d 199e 13bd d459 1cbf cfe9 bbbd
000001d0: edab da3d 3046 813d e9d9 c53e 5e80 8a3e
000001e0: 0304 693f 0161 5e3e d2d3 c6bc 42dd 90be
000001f0: f7e8 40bf 60dd 21be d0d6 14bf c095 b5bf
00000200: a1e6 11be a4a6 36be 1003 29bb dfa6 4abe
00000210: 8247 19bf d463 a1be 9081 563e f7ec 7bbe
00000220: c92a eb3e c301 1bbe ab2f b03e bc39 3dbe
00000230: 3c8d b03d 307e b83e e72a b93e 69b2 84bd
00000240: 440c c83e 2cdf 69bd 6d7b f2be ef60 6e3e
00000250: c55c bcbe da53 b53d ed2f 263f af3a c0be
00000260: 4c07 013e 9c14 db3e b1f3 4fbe bffa 78be
00000270: 4431 3abd 46e4 b03e c2b2 a2be b02c f5bd
00000280: ce31 bd3e 6a52 b03d 21cd 053f d65d 21be
00000290: 0e17 22be 8cb5 d93e 37c9 6b3e 1007 6d3e
000002a0: e516 c63e 28c9 383f 3ff1 ba3e 55cb 08bf
000002b0: 19f5 9ebe 47b2 76bd 48d1 ee3e 3f0a e8bd
000002c0: 8383 bcbe a3dc d9be 8b1f 30be 37a7 b83e
000002d0: 916a 503e 856b b33e 0a21 82be a27d 3c3e
000002e0: 7b29 b13d 2e6e c53e 85e2 b1be 4276 e9be
000002f0: 0556 173c 6eda b9bd f529 fa3d a7da 45bb
00000300: ca74 833e 3a4d 5bbf 19a6 243f 8185 c83e
00000310: 4699 1fbf 0dda 943f f4d5 bb3e 9118 96be
00000320: 660a 333f 339c 1b3f 49ec ec3d ffe7 15bf
00000330: 36bc f6be 2730 083b b734 f13d b512 d13e
00000340: 207c 99be 1dc1 32bf 0649 043f 0b29 6abd
00000350: 699e f73e f282 9d3e 9c09 e4bc b5cf 943e
00000360: 0177 f03d 76d5 b83e 89ce 9bbe b9ec 8fbe
00000370: b930 bb3d 1771 1c3f e5dd 4fbf 01da aabf
00000380: 476d 0e3f 9b59 eebe 05b3 613e 5776 55bf
00000390: 6395 aebe 8053 903e 7423 86be fc7a 513f
000003a0: deb7 b83e 6257 bd3e ded1 d83e 7dfa 1dbf
000003b0: 859c b5bd 4556 5a3e 9b6a f13e ab61 33bd
000003c0: 24d2 2b3d 0431 bfbe 662f 80bd b435 713e
000003d0: 66c5 dfbe e079 a63e f916 05bc ad02 963e
000003e0: a96c d5bc 4205 c33e 8134 2f3e fab7 4fbf
000003f0: b4c0 563f 43e6 bf3e 2443 8abe f464 7a3e
-0.16289921 -0.18243031 0.20212077 0.39970082 -0.5561024 0.58867097 0.03874058 0.077991925
0.3848761 0.47212157 0.26536763 -0.25397712 0.1600937 0.1397216 0.13880675 -0.20817347
-0.22373152 0.40815705 0.5666012 0.08951729 0.112744525 0.5052131 0.27211553 0.53543353
0.046436783 -0.010537965 -0.08426726 -0.39265442 -0.12635398 0.016686644 -0.4117454 -0.34405023
0.5100705 -0.36261934 0.02569526 -0.28806236 -0.37397286 0.33316228 0.68740326 1.0459976
0.41820058 0.4029922 0.31130037 -0.62108344 -0.22979414 0.23166169 0.65899885 0.115699746
0.21710905 -0.44449154 0.36242047 0.43026504 -0.3686449 0.5621424 0.27800027 0.35804096
-0.25466403 -0.10621295 -0.8009156 -0.50599205 -0.16277775 -0.95056224 -0.5350881 -0.25625446
0.14247482 0.018620996 0.27408063 -0.05411705 -0.038054913 -0.040753692 0.25669697 -0.0029474809
-0.0057839802 0.18063048 0.06708505 -0.09625931 0.036286082 -0.027706997 0.19761905 -0.25646338
-0.0049351216 -0.10323162 -0.0015539244 -0.03312169 0.25790834 0.0957239 0.08463911 0.05355148
-0.03809728 0.23615305 -0.14758547 -0.00024058737 0.22046629 0.26442936 -0.18328899 0.0010063986
0.07832205 -0.08246194 -0.022274693 -0.006463095 0.117536776 0.42606404 -0.44086382 -0.22492799
0.4341404 -0.12814823 0.53559315 0.23843312 0.14101934 0.5383055 -0.16421914 0.16111943
0.04563217 -0.036039446 -0.61074567 -0.09175455 0.106773235 0.06312215 0.38642815 0.2705106
0.91021746 0.21716692 -0.024270926 -0.28293806 -0.75355476 -0.15807104 -0.5814028 -1.4186325
-0.14248134 -0.17837006 -0.002578918 -0.19790219 -0.5987474 -0.31521475 0.20947862 -0.24602114
0.4593108 -0.15137391 0.34411368 -0.18479055 0.08620688 0.36033773 0.36165544 -0.064793415
0.39071858 -0.0570976 -0.4735979 0.23279165 -0.36789528 0.08853884 0.6491688 -0.37544772
0.1260044 0.4278916 -0.20307805 -0.24314402 -0.04545714 0.3454916 -0.31777006 -0.11971414
0.3695206 0.08609469 0.52266127 -0.15758452 -0.15829107 0.42521322 0.23025976 0.23147225
0.38689342 0.7218194 0.3651218 -0.5343526 -0.3104637 -0.060228612 0.46644044 -0.11330079
-0.36819085 -0.42551145 -0.17199533 0.36065075 0.20353152 0.35042968 -0.25415832 0.184073
0.0865049 0.38560623 -0.34743133 -0.45598036 0.009236817 -0.09074865 0.12215034 -0.0030190141
0.2567504 -0.85664713 0.64315945 0.39164355 -0.6234325 1.1629044 0.3668667 -0.29315618
0.6993774 0.60785216 0.11568505 -0.5855712 -0.4819047 0.0020780654 0.11777633 0.40834585
-0.29977512 -0.6982592 0.51673925 -0.057168048 0.48363045 0.30763966 -0.027836613 0.29064718
0.11741448 0.36100358 -0.3043101 -0.28110293 0.091401525 0.6111006 -0.8119796 -1.334778
0.55635494 -0.4655274 0.22040947 -0.833837 -0.34098348 0.28188705 -0.26198924 0.81828284
0.3607778 0.3698073 0.42347616 -0.6171034 -0.08867744 0.21321972 0.47151646 -0.043794315
0.041948453 -0.37342083 -0.062590405 0.23555642 -0.4370529 0.32514858 -0.008123153 0.29298916
-0.02605279 0.3808995 0.17109872 -0.811401 0.8388779 0.37480363 -0.2700435 0.24452573

decoder.lstm.bias_ih_l0 f4 [128]
00000000: 1742 ff3e 0f89 553f 6e6d f43c 9271 c63e
00000010: cb49 263e ce13 0a3f 01da 0a3f 9d25 783e
00000020: aea1 803e 0695 2a3e 012d 153f d718 063f
00000030: ce0d cb3e 0f15 b33e c408 f0ba 08e4 cd3e
00000040: 044b 013f 4eb8 5f3e 2ef4 a03e cc2d 093f
00000050: 180d d43e 75e8 4a3e 2818 7e3e 63d5 803e
00000060: 15ef 1e3f 4a09 083f 8e17 0b3f bd50 3b3f
00000070: 4133 773e 7a88 be3e 89ab 203e 4e8c d13e
00000080: 654a ab3e 3559 5b3e 913d 863e abab 913e
00000090: 89b6 943d 36c5 e0be 9958 33be 5c9a 793e
000000a0: f01c a9bd 6ca8 eb3d 1f5f 43be 2bf5 a43e
000000b0: 64df 943d d171 513d eccf bfbd 701d 8a3e
000000c0: 93c3 2f3e 61ec 063e 762c ccbd ce9b 6d3e
000000d0: 8ed2 c9bd 72df df3d e431 5ebd aa4b a4bd
000000e0: 42cf fbbe db6d f43d 50c5 b03d a257 ee3c
000000f0: bc4d 343e 8e3b 95bb d0b9 a83d 4700 003e
00000100: 52c8 16bd 2e27 b83d 5f7e 74bc 4e04 a5bd
00000110: a42b 8dbe 14dd ee3d ceb8 be3d bf22 3c3d
00000120: c660 b2bb a85a a23d cd81 47be 4426 2fbe
00000130: 00e6 00be d298 113e 5b8c cb3d 2493 12be
00000140: d845 a7bd a2e9 673d 8848 833d b783 813e
00000150: 934c ad3e 0eb5 a83d fa2e c23d dff8 bbbd
00000160: 7abb d9bd a13b ac3d f502 bcbd d83e 6f3e
00000170: 5eb2 953e 46d1 733c 599f 57bd 10bf 9fbe
00000180: 9b49 9b3e 9156 4c3e cb46 a13e c0a1 d23e
00000190: b3b4 5b3e 53c4 e93e f12f 3e3e db02 a23e
000001a0: a8a2 433f da05 0c3f 2b1b 283f 8094 8e3e
000001b0: 396f 073f ad2e 883e 3961 b53e bd97 f73e
000001c0: bc45 3b3e d200 413e 3ced 373f 3e93 ac3e
000001d0: 8ad8 1b3f b518 ba3e e518 bd3e e94e 643e
000001e0: 8578 383f 7083 be3d 9474 f13e 32d5 373f
000001f0: 240d b43e 0225 a73e 8385 dc3d cd79 483f
0.4985511 0.8341226 0.029837336 0.38758522 0.16239087 0.5393647 0.542389 0.24233098
0.25123352 0.1665841 0.58271796 0.5238165 0.3965897 0.34977004 -0.0018313159 0.40213037
0.5050509 0.2184765 0.31436294 0.53585505 0.4141624 0.19815238 0.24813902 0.251628
0.6208356 0.53139174 0.54332817 0.7317007 0.24140646 0.37213498 0.15690435 0.40927356
0.33455196 0.21420749 0.26218846 0.28451285 0.07261378 -0.4390046 -0.17514266 0.2437529
-0.082574725 0.11506733 -0.19079255 0.32218298 0.07269171 0.051133934 -0.0936583 0.26975584
0.1716445 0.13176109 -0.09969418 0.23203966 -0.09854613 0.10931291 -0.0542468 -0.08022244
-0.49181563 0.11935016 0.086313844 0.029094521 0.17607778 -0.0045542186 0.08238566 0.12500106
-0.036812134 0.08991848 -0.014922707 -0.08057462 -0.27572358 0.11663261 0.093125924 0.045931574
-0.005443665 0.079274476 -0.19483109 -0.17104441 -0.12587738 0.14218453 0.0993888 -0.14313942
-0.081676185 0.056619294 0.064103186 0.25295803 0.33847484 0.082376584 0.09481616 -0.09178328
-0.106314614 0.08409811 -0.091802515 0.23363817 0.29237646 0.014881438 -0.0526422 -0.31200457
0.30329594 0.19954897 0.31499323 0.4113903 0.2145565 0.45657596 0.18572976 0.31642804
0.7642007 0.5469643 0.65666455 0.27847672 0.5290409 0.2659811 0.35425738 0.48357955
0.1828832 0.18847969 0.71846366 0.33706087 0.6087729 0.36346975 0.36933056 0.22295727
0.720589 0.093024135 0.47159255 0.71809685 0.35166276 0.32645422 0.10767653 0.78310853

decoder.lstm.bias_hh_l0 f4 [128]
00000000: e463 a83e f318 373f cd2c ba3d 2a66 2a3e
00000010: d591 753e 9b83 f13e 37dd 203f 8a01 f13e
00000020: b4d3 5f3d aed0 923e c39a 1e3f ef72 123f
00000030: fd46 4f3e 6f41 e13e 5ac4 8a3e daca bc3e
00000040: 7e74 f43e e227 c23e 16d2 d33d 9aa3 023f
00000050: 90c1 233f 24e3 e13d aeb3 eb3e fcc5 863e
00000060: f137 453f 66b6 223f ae68 de3e fb2e 323f
00000070: c9be 9c3e b6d9 943e 182a 973c e1ad 683e
00000080: a1c8 183e cd35 bebc 7d09 2b3e 578a c53e
00000090: 58a0 cc3e 4a59 b4be 3396 2cbe 3f67 b7bd
000000a0: 85c5 193e e59c 913e aa3f 88be 8a96 2f3e
000000b0: 5606 383e 13c5 943e 30c2 f33d 459f 06bc
000000c0: 8684 52bc 8c22 7d3e fe56 eabd a212 4d3e
000000d0: b341 c0bd a2d5 f83c 083c 89bd f9d9 2bbe
000000e0: 32d2 ecbe a031 603e 19c9 1b3e 583e 9fbd
000000f0: 87a1 cc3c 8699 14be 32f9 d33e 748b f03d
00000100: 135f 933c ea80 fdbd 8333 0f3e 1647 93bd
00000110: b0ed 42be df36 12be 9b65 c83e 0c3a f53d
00000120: c633 83be d453 353e c581 64be afd2 e3bd
00000130: a67e 193d b6f0 173e 753d 11be 7a9e 053e
00000140: dfcc 64be fd23 be3d 6bf2 57bd f809 543e
00000150: a9d3 a83e a03d 2abd aa5f 633d fcb6 e3bb
00000160: e5fd d63c 627b 6cbd 990f 11bc 85fa e93d
00000170: 6c6c 8bbb 9207 d5bd 6d67 083e 06cb 25be
00000180: 3baa 333e f3dd c43e a21e 2f3e e0bb 153e
00000190: f8c5 943e 4a84 5e3e da30 9e3d f30e 9a3e
000001a0: 3e88 543f 1b76 043f c7da 283f 7d89 763e
000001b0: 462b e43e b358 3e3e 1342 2a3e 7fc1 0d3f
000001c0: 2038 b23e 78f7 aa3e e06a 523f 2ca7 903e
000001d0: c018 193f 27c9 dd3e 0b0a e33d e57c 073f
000001e0: 7371 303f 43ee 57bd 27b0 243f 5c9c 273f
000001f0: 66e2 c83e 98ab c43e 87d6 5a3d f9ef 543f
0.3288871 0.71522444 0.09090576 0.16640535 0.23981412 0.4717072 0.6283755 0.47071487
0.054645255 0.28674835 0.619549 0.57206625 0.20241924 0.43995234 0.2710293 0.36873513
0.47745126 0.37921053 0.10342805 0.51030886 0.6396723 0.11029652 0.46035522 0.26322925
0.77038485 0.6355957 0.4343924 0.69602937 0.30614308 0.2907235 0.018452689 0.2272258
0.14920284 -0.023219014 0.16702838 0.38582107 0.39966083 -0.35224372 -0.16854171 -0.089552395
0.15016754 0.28440014 -0.26611072 0.1714727 0.17971167 0.29056606 0.11902273 -0.008216684
-0.012848979 0.2472021 -0.11442374 0.20026639 -0.09387531 0.030375306 -0.06700903 -0.16782369
-0.46254116 0.2189393 0.15213431 -0.07775563 0.024979366 -0.1451169 0.41401058 0.117453486
0.01798967 -0.12378104 0.13984494 -0.07191293 -0.19035983 -0.14278744 0.3914002 0.11973962
-0.25625437 0.17707759 -0.22315128 -0.11124169 0.037474297 0.14837918 -0.141836 0.13048735
-0.22343777 0.09284208 -0.052721422 0.20706928 0.32973984 -0.041562676 0.055511154 -0.0069493037
0.026244113 -0.057734855 -0.008853816 0.11424736 -0.0042548683 -0.104018345 0.13320704 -0.16190729
0.17545407 0.38450584 0.17101529 0.1462245 0.29057288 0.21730152 0.077241614 0.3008953
0.8302039 0.51742715 0.6595883 0.24075885 0.44564265 0.18588524 0.16626768 0.55373377
0.34808445 0.3339193 0.8219433 0.28252542 0.5980339 0.4331753 0.110859 0.5292495
0.6892311 -0.05271746 0.6433129 0.6547296 0.39235228 0.38412166 0.053427245 0.8317867
